resources/lenet_e5b50_clean_model.pt (torch_old, 249645 bytes, 10 tensors)

conv1.weight f4 [6, 3, 5, 5]
0	0xbd7f441e	-0.06232082
1	0xbd273cad	-0.04082935
2	0x3a6041e1	0.00085547386
3	0xbcce1fd8	-0.025161669
4	0xbd808fd8	-0.06277436
5	0x3d9e3261	0.07724453
6	0xbd64552b	-0.055745285
7	0xbda1ea85	-0.07906059
8	0x3ceed1fc	0.029152863
9	0xbda6dc35	-0.0814747
10	0xbdeeecc5	-0.11666254
11	0xbe005d90	-0.12535691
12	0xbe08a28d	-0.13343258
13	0x3d0a26c0	0.03372836
14	0x3d2df84b	0.04247312
15	0xbdc5eeb6	-0.09664671
16	0xbd65a413	-0.056064676
17	0xbe19ed59	-0.15031947
18	0xbd46d866	-0.048546217
19	0x3d3d563b	0.046224814
20	0x3d3c8774	0.046027616
21	0xbd6ff02b	-0.05857865
22	0xbdc67a99	-0.096913524
23	0x3d3b0c44	0.045665994
24	0x3b1d888c	0.0024037687
25	0xbd3fd6c9	-0.046835694
26	0x3da03ce5	0.07824115
27	0x3cbef08a	0.023308057
28	0x3da52ce8	0.08065206
29	0xbb850539	-0.0040594605
30	0x3ca521b5	0.020157674
31	0x3d9ccd7e	0.07656382
32	0xbd878172	-0.066164866
33	0x3bfcd8fd	0.0077162967
34	0x3db826e1	0.089917906
35	0x3b4bfac2	0.0031124805
36	0xbd1ffa6f	-0.03905719
37	0xbd8c62d1	-0.06854785
38	0xbe014837	-0.12625204
39	0xbbe47696	-0.0069721444
40	0x3d7c980b	0.061668437
41	0x3c657ad0	0.014006332
42	0x3db279f6	0.087146685
43	0xbcbf5a23	-0.02335841
44	0xbd3d19fe	-0.046167366
45	0x3cf3b8c5	0.02975119
46	0xbd121e91	-0.03567368
47	0x3dbfc3b2	0.09363498
48	0x3d5cb6f0	0.0538854
49	0x3d6899ad	0.05678718
50	0xbabefeb6	-0.0014571759
51	0x3dc0b636	0.09409754
52	0x3c2626d7	0.010141096
53	0x3b99f24a	0.0046980726
54	0x3e099dd8	0.13439119
55	0x3ce35eef	0.027755229
56	0x3dd482bd	0.10376499
57	0x3e0c177e	0.13680837
58	0x3e12ec0c	0.14347857
59	0x3e05f276	0.13080773
60	0xbd786744	-0.060645357
61	0x3ddd2619	0.10798282
62	0x3ca25220	0.01981455
63	0xbdd4c9c2	-0.10390045
64	0x3d954225	0.07288007
65	0x3c718dc9	0.014743277
66	0x3d7fae87	0.0624223
67	0x3d92573c	0.07145545
68	0xbdbd635c	-0.09247467
69	0xbd4697fe	-0.048484795
70	0x3ddd10ba	0.10794206
71	0xbcfe4fb3	-0.031043863
72	0xbd0c43bb	-0.03424428
73	0xbd7fab88	-0.062419444
74	0xbd3115e1	-0.043233756
75	0xbd882e8c	-0.06649503
76	0xbd89c245	-0.06726507
77	0x3d4f822d	0.050661255
78	0x3c8a3faa	0.01687606
79	0xbd6eb2c4	-0.058275953
80	0xbd00fd10	-0.03149134
81	0xbe01fcd3	-0.12694101
82	0xbcdecd85	-0.027197609
83	0x3ce2e381	0.027696373
84	0x3ddbc953	0.10731759
85	0xbdb342b9	-0.08752961
86	0xbe1276cd	-0.14303131
87	0x3d9f178c	0.07768163
88	0x3ded3498	0.11582297
89	0x3d94f45c	0.0727317
90	0xbdd63dcc	-0.104610056
91	0xbdd5ae99	-0.104336925
92	0x3b9b92a1	0.004747704
93	0x3b27be0b	0.0025595452
94	0x3d9d1630	0.076702476
95	0xbc9b2c67	-0.018942071
96	0xbd9722fc	-0.073797196
97	0xbdd38dcd	-0.10329781
98	0x3cf9a11d	0.030472333
99	0x3df0ec5e	0.117638335
100	0x3cc106b7	0.023562772
101	0xbd00c1ca	-0.03143481
102	0xbdec8003	-0.11547854
103	0x3cb51889	0.022106426
104	0x3df6cd94	0.1205093
105	0x3c8f5e18	0.017500922
106	0xbded1424	-0.11576107
107	0x3d24942c	0.04018037
108	0x3e0199ac	0.12656277
109	0x3b11838d	0.0022203655
110	0xbc876894	-0.016529359
111	0xbdfb37ac	-0.12266478
112	0xbd3d84e7	-0.046269324
113	0x3e37563b	0.17903988
114	0x3a6f8807	0.0009137396
115	0x3c0bbea2	0.008529337
116	0xbdea535f	-0.11441683
117	0x3df4f08a	0.11959942
118	0x3dce2d4b	0.10067233
119	0x3e20a5aa	0.15688196
120	0xbd49e44b	-0.049289983
121	0xbdab06d4	-0.08350912
122	0x3dcb5d5c	0.09929916
123	0xbd60a986	-0.05484917
124	0x3dddfe32	0.108394995
125	0xbd869bb1	-0.065726645
126	0xbccdcdbf	-0.025122521
127	0xbcc3b2fc	-0.023889057
128	0x3dd15bd1	0.10222591
129	0xbcc8cc0b	-0.024511358
130	0x3da10436	0.07862131
131	0xbe291945	-0.16513546
132	0x3cefe64a	0.029284615
133	0x3e1ed2b2	0.15510061
134	0x3e01e60d	0.12685414
135	0xbd7d43a5	-0.06183209
136	0xbe0f9da3	-0.14024977
137	0xbd3f4ab0	-0.046702087
138	0x3d55f72c	0.052237675
139	0xbcd0d0a0	-0.025490105
140	0xbde805f7	-0.11329263
141	0x3d291838	0.041282862
142	0x3dccefcd	0.10006676
143	0xbc96275e	-0.018329319
144	0x3cc1582c	0.023601614
145	0xbdd37ac9	-0.10326154
146	0xbbed9db8	-0.0072514676
147	0xbd6e23ae	-0.058139496
148	0xbce1b07e	-0.027549978
149	0x3c9dbdfb	0.019255629
150	0x3e3365ee	0.17519352
151	0x3db3c4dc	0.08777782
152	0x3e1d1e27	0.15343533
153	0x3e326187	0.17420016
154	0x3e2ad34e	0.16682169
155	0x3d95aba9	0.07308132
156	0x3d907063	0.07052686
157	0xbced6fbb	-0.028983941
158	0xbd1bf02d	-0.038070846
159	0x3ca46c2e	0.020071115
160	0x3deaba13	0.11461272
161	0xbd936d00	-0.071985245
162	0xbc327e30	-0.010894343
163	0xbd1e0397	-0.038577642
164	0x3dcb79c0	0.09935331
165	0x3d2bd646	0.041952394
166	0xbdc38a05	-0.095478095
167	0xbddaae08	-0.10677725
168	0xbd83f88b	-0.0644389
169	0x3b558833	0.0032582402
170	0x3dbf570c	0.09342775
171	0xbd9bb2c9	-0.0760246
172	0xbcc3b6c4	-0.02389086
173	0xbe11ac51	-0.1422589
174	0x3d9cfbd7	0.07665222
175	0xbd0ca2b1	-0.034334842
176	0xbdf0bd3e	-0.11754845
177	0xbe10177f	-0.14071463
178	0x3d92748e	0.07151137
179	0x3dc7fe4c	0.097653
180	0xbdc30acf	-0.09523546
181	0xbd8352fb	-0.06412312
182	0xbe1c9eef	-0.15295003
183	0xbe1f448b	-0.15553491
184	0xbd91e599	-0.071238704
185	0x3d1718d9	0.03688893
186	0xbe3c3dd9	-0.18382968
187	0xbd295d47	-0.04134872
188	0xbd6fc07f	-0.058533188
189	0xbdbbee55	-0.091763176
190	0xbe04cfeb	-0.1296994
191	0xbe11a08d	-0.14221402
192	0x3c916a4b	0.01775088
193	0xbe06eb1b	-0.13175623
194	0xbd32cdc1	-0.043653253
195	0xbd05e7a9	-0.03269163
196	0xbe157738	-0.1459626
197	0xbe07583e	-0.13217255
198	0xbdbeff98	-0.093260944
199	0x3d7ecbd5	0.062206108
200	0xbd9a3b57	-0.075308494
201	0x3d7c5a22	0.061609395
202	0xb9c7951c	-0.00038067333
203	0xbcd54a40	-0.026036382
204	0xbd9a003d	-0.07519577
205	0xbd842525	-0.06452397
206	0x3d7178a6	0.05895295
207	0xbd5a9328	-0.053362995
208	0xbd2277da	-0.03966508
209	0xbc6b0ce6	-0.014346337
210	0x3db53ea7	0.088498406
211	0x3ce7a3c5	0.028276334
212	0xbc3e9afa	-0.011633629
213	0xbe19f4d4	-0.15034801
214	0xbdf2f87f	-0.11863803
215	0xbd8a6879	-0.06758208
216	0x3c960f19	0.018317746
217	0xbd19d57b	-0.037557106
218	0xbdb88667	-0.0901001
219	0xbd2fb29d	-0.04289495
220	0x3dd9a21b	0.10626622
221	0xbd13e2a2	-0.036104806
222	0x3d631a6b	0.055445116
223	0xbd434161	-0.047669772
224	0x3df9a6aa	0.12189992
225	0x3b958709	0.0045632166
226	0xbe0807f1	-0.1328428
227	0xbe22efbe	-0.15911767
228	0xbe1913e6	-0.14948997
229	0xbe20c0bf	-0.15698527
230	0xbdde6978	-0.1085996
231	0x3d8c27ea	0.068435505
232	0xbd0bc280	-0.034121037
233	0x3d11f434	0.03563328
234	0xbbcc3588	-0.0062319674
235	0xbde0eff2	-0.10983266
236	0x3ccd58d1	0.025066765
237	0x3d079130	0.033097446
238	0xbb21e098	-0.0024700519
239	0x3dc7a16e	0.09747587
240	0x3e15450a	0.14577118
241	0x3d6620a2	0.056183465
242	0x3da35ba8	0.079764664
243	0x3df331ba	0.11874719
244	0xbc76598e	-0.015036
245	0x3d03398c	0.032037303
246	0x3d8850a2	0.066560045
247	0x3d867045	0.065643825
248	0x3d9dc89b	0.07704278
249	0x3cce11c4	0.025154956
250	0x3cc92517	0.024553819
251	0xbd4894ef	-0.04897016
252	0x3c559936	0.013037017
253	0xbd7eda64	-0.062219992
254	0xbdf2db2a	-0.118582085
255	0xbc868869	-0.016422467

conv1.bias f4 [6]
0	0xbd453407	-0.04814532
1	0x3c8fa143	0.01753295
2	0xbb100151	-0.002197344
3	0xbd40da4b	-0.04708318
4	0x3e3d4b71	0.1848581
5	0x3e48137b	0.19538681

conv2.weight f4 [16, 6, 5, 5]
0	0x3d61dc8e	0.055141978
1	0xbd15a2b7	-0.03653213
2	0x3cc1cb51	0.02365652
3	0x3c206fd6	0.009792289
4	0x3dca7803	0.09886172
5	0xbcab14dc	-0.02088397
6	0x3d12d80c	0.03585057
7	0x3cce8933	0.025211906
8	0xbd4cff6b	-0.050048273
9	0x3d98eb67	0.074667744
10	0xbb603bcf	-0.0034215336
11	0xbd4c7e98	-0.049925417
12	0xbd77ca86	-0.060495876
13	0x3c86bcbd	0.01644742
14	0xbd0e0dc3	-0.034681093
15	0x3c8dbbe3	0.017301505
16	0x3c027295	0.007961889
17	0xbd666270	-0.05624622
18	0x3ce096a6	0.027415585
19	0x3c44718f	0.011989965
20	0x3ca69960	0.020336807
21	0xbdaeb9da	-0.08531542
22	0xbd22c24b	-0.039736073
23	0xbb0bfa53	-0.0021358922
24	0x3d5704f9	0.052494977
25	0xbc06a127	-0.008217133
26	0xbdcdbb84	-0.100455314
27	0xbccb43bf	-0.024812577
28	0xbd0e34e1	-0.034718398
29	0x3bd4a4e0	0.006489381
30	0x3d12ac45	0.03580882
31	0xbdd4e246	-0.10394721
32	0xbd76c4e1	-0.060246352
33	0xbcd8eff8	-0.026481614
34	0xbc4d34aa	-0.012524763
35	0x3b57a1ce	0.003290284
36	0x3cbad06f	0.022804467
37	0xbcac4063	-0.021026796
38	0x3cc06104	0.02348376
39	0xbdcf9686	-0.10136132
40	0x3d8b128d	0.06790648
41	0xbd661587	-0.056172874
42	0xbd83e79b	-0.064406596
43	0x3c87c1bf	0.016571878
44	0xbd1d8b96	-0.038463198
45	0x3d3059bd	0.04305433
46	0xbd90a85f	-0.07063364
47	0xbd6f14ba	-0.058369376
48	0xbb5de361	-0.0033857452
49	0xbd7865cd	-0.06064396
50	0x3d8356b4	0.06413022
51	0xbc2b7515	-0.010464926
52	0x3d1f72a4	0.03892769
53	0xbd9e6078	-0.07733244
54	0xbccc42df	-0.02493423
55	0x3c351d51	0.011054353
56	0xbbf8ef68	-0.007596899
57	0x3d662584	0.05618812
58	0x3d9d7e83	0.07690146
59	0x3d00ffff	0.031494137
60	0xbd4d8467	-0.050175097
61	0x3d8c1ae0	0.068410635
62	0xbacff86b	-0.0015866881
63	0x3d9b4d66	0.07583122
64	0xbd8134be	-0.06308888
65	0x3b5d753d	0.0033791803
66	0x3d79e1c9	0.06100634
67	0x3da81427	0.08206969
68	0x3ccc0533	0.024904823
69	0x3cb8018f	0.02246168
70	0xbc9ea6f6	-0.019366723
71	0x3cde3b4c	0.027127884
72	0xbc8472f2	-0.016168091
73	0xbd56efc7	-0.052474763
74	0xbd4e88ee	-0.050423555
75	0x3d5c78b3	0.053826045
76	0x3da5755b	0.080790244
77	0xbd61aaf3	-0.05509467
78	0x3d93fdfd	0.07226179
79	0x3bf8317d	0.007574259
80	0x3db51655	0.0884215
81	0x3dc3c45c	0.09558937
82	0xbd0da5d7	-0.034581985
83	0xbd211e86	-0.03933575
84	0x3d384775	0.04499002
85	0x3dd45473	0.1036767
86	0x3dbeeaea	0.0932215
87	0x3b372c06	0.0027949824
88	0xbbbcace5	-0.0057579153
89	0x3dbe07d5	0.092788376
90	0x3d837d8d	0.06420431
91	0x3dd1c9eb	0.10243591
92	0xbcb8b1ca	-0.022545714
93	0x3dc53a41	0.09630252
94	0x3d06c3c3	0.032901537
95	0x3da289ca	0.079364374
96	0x3de32704	0.11091426
97	0xbcf68da0	-0.030096829
98	0x3bfa94d5	0.0076471367
99	0x3dc35923	0.09538486
100	0x3d08ff3d	0.03344654
101	0xbbc57f33	-0.006027126
102	0x3da6beec	0.08141884
103	0x3dd98b1a	0.10622235
104	0x3dd95984	0.10612777
105	0x3d9f9aef	0.07793223
106	0x3ce31aae	0.027722683
107	0xbca25e9c	-0.019820504
108	0x3da26584	0.07929519
109	0xbb971524	-0.0046106745
110	0x3dbbbb27	0.09166556
111	0x3d7ad271	0.06123585
112	0xbd2c4349	-0.042056356
113	0xbd1b5aa0	-0.037928224
114	0xbc850f9e	-0.016242798
115	0x3dcc6cfa	0.09981723
116	0x3d9402d7	0.07227104
117	0xbd56a3dd	-0.052402366
118	0x3d528962	0.05140055
119	0x3d909109	0.07058913
120	0xbc633d57	-0.013869605
121	0xbc5d14cd	-0.013493729
122	0x3dbb1b7e	0.09136103
123	0x3d3dc5d6	0.04633125
124	0x3c8f11c1	0.01746452
125	0x3db088a9	0.08619816
126	0xba5fee1b	-0.00085422554
127	0x3d101250	0.035173714
128	0xbb9a9d4b	-0.004718458
129	0x3dd9bb38	0.10631412
130	0xbad93874	-0.001657261
131	0x3d95868e	0.07301055
132	0xbd9884dc	-0.07447216
133	0xbd227cc2	-0.03966976
134	0xbcee3482	-0.029077772
135	0x3da5acfc	0.08089635
136	0x3c92b659	0.017909216
137	0xbd7cb6b7	-0.061697688
138	0x3d2445e9	0.040105734
139	0xbd91505e	-0.07095407
140	0x3da6faa9	0.081532784
141	0xbcd3dda0	-0.025862515
142	0x3d8525c1	0.065013416
143	0x3c7175e1	0.014737577
144	0x3d70d239	0.058794234
145	0x3c934247	0.01797594
146	0xbba5abfa	-0.0050559016
147	0x3d503e66	0.050840758
148	0x3d65509d	0.055985082
149	0xbd118336	-0.035525523
150	0x3b8ccf22	0.004297153
151	0xbc9ada4f	-0.018902926
152	0x3c001467	0.007817364
153	0x3c2fa2a0	0.010719925
154	0x3cad7fbb	0.02117907
155	0x3b542ea3	0.003237643
156	0x3d2b774d	0.04186182
157	0xbd5ed1f3	-0.054399442
158	0x3d21b34b	0.039477628
159	0x3cf8019e	0.030274209
160	0xbd98b2e7	-0.07455998
161	0xbd0de229	-0.03463951
162	0x3cc56270	0.02409479
163	0x3c872b10	0.016500026
164	0x3bb5c2bc	0.005546896
165	0x3d0a2e18	0.033735365
166	0x3d5b911d	0.053605188
167	0xbcf2fb74	-0.029660918
168	0xbda08060	-0.078369856
169	0xbcdce9fb	-0.02696704
170	0xbcc8ea62	-0.024525825
171	0xbc36eaf7	-0.011164418
172	0xbd5d1e52	-0.053983994
173	0x3d6a32db	0.057177406
174	0x3bdceadc	0.0067418646
175	0xbd38ca87	-0.04511502
176	0x3d85d91b	0.0653555
177	0xbd56b701	-0.05242062
178	0x3c93597c	0.017987005
179	0x3d125657	0.03572687
180	0xbd4b74df	-0.049672004
181	0x3cb31d98	0.021864697
182	0x3d2e4d60	0.04255426
183	0xbd6687e8	-0.056281954
184	0x3d2b838d	0.041873503
185	0xbd8fbf44	-0.07018903
186	0x3d55dcf4	0.05221267
187	0xbd4a5131	-0.049393836
188	0x3d5763e1	0.052585486
189	0x3d8e460a	0.06946953
190	0x3d3e6ff6	0.046493493
191	0x3d23ef21	0.040022973
192	0xbda7f5e3	-0.08201196
193	0xbd829b17	-0.06377237
194	0xbc51f516	-0.012814781
195	0x3bc63a4e	0.006049431
196	0x3c713163	0.014721247
197	0xbd790f64	-0.060805693
198	0xbd1f85cb	-0.038945954
199	0xbc6ae2f6	-0.014336338
200	0xbc9dbff8	-0.019256577
201	0x3de15db4	0.110042006
202	0xbd0f7b36	-0.035029612
203	0xbcabc59d	-0.020968253
204	0x3d981996	0.07426755
205	0x3cce05a3	0.025149172
206	0x3cd7d706	0.026347648
207	0x3d0ff639	0.035146926
208	0x3dcba625	0.09943799
209	0x3cf7ff30	0.03027305
210	0xbcc0e5e0	-0.023547113
211	0xbab4c074	-0.0013790266
212	0xbda32a6a	-0.07967074
213	0x3c93ffd9	0.018066334
214	0x3b356fdb	0.002768508
215	0x3d360478	0.044437855
216	0xbd994a65	-0.07484893
217	0xbd96700b	-0.07345589
218	0xbd4d710b	-0.050156634
219	0xbd8c523e	-0.06851624
220	0xbcbc8cd6	-0.023016375
221	0xbb9f9dea	-0.0048711197
222	0x3c59ce7a	0.013293857
223	0x3d80b601	0.062847145
224	0xbc9440f8	-0.018097386
225	0x3bd056f5	0.0063580223
226	0xbe060d3a	-0.13090983
227	0xbe0c1725	-0.13680704
228	0xbe165d09	-0.14683928
229	0x3a804e56	0.0009788971
230	0xbd1dda66	-0.03853836
231	0xbcb61a8d	-0.022229457
232	0x3da0c410	0.07849896
233	0x3d8f2d75	0.06991092
234	0x3bfb0f6f	0.007661752
235	0x3e26be0c	0.16283435
236	0x3dd6f48d	0.10495863
237	0x3df3955c	0.118937224
238	0x3d0c4a71	0.03425068
239	0x3d11c715	0.03559025
240	0x3cef902c	0.029243551
241	0x3d2949d1	0.041330162
242	0x3dfa2a45	0.122150935
243	0x3ddbbde2	0.10729577
244	0x3d31ee84	0.043440357
245	0xbd0cdd8a	-0.034390964
246	0x3d44acf7	0.048016515
247	0xbc8be40b	-0.017076513
248	0x3d9c3e77	0.07629102
249	0x3c10af41	0.008830846
250	0x3b47fbf3	0.0030515164
251	0x3bb0a77d	0.00539106
252	0xbc06dccb	-0.008231352
253	0xbd655097	-0.05598506
254	0xbd20cd3e	-0.039258234
255	0xbdddad59	-0.10824079

conv2.bias f4 [16]
0	0xbd492573	-0.04910798
1	0xbdb40a6a	-0.08791049
2	0xbcfbab49	-0.030721324
3	0x3e139fca	0.14416423
4	0xbdd27433	-0.102760695
5	0x3c502980	0.012705207
6	0x3e521ff0	0.20519996
7	0xbd475556	-0.048665367
8	0x3d87b586	0.0662642
9	0xbd87a711	-0.06623662
10	0x3d97de60	0.074154615
11	0x3c30ba2d	0.010786575
12	0xbda695d0	-0.08134043
13	0xbe01e553	-0.12685136
14	0x3e496ce6	0.19670448
15	0xbe2bf456	-0.16792426

fc1.weight f4 [120, 400]
0	0x3cdc1060	0.026863277
1	0x3c5e9ff6	0.013587942
2	0x3cb8638b	0.022508403
3	0x3bb46c69	0.0055060876
4	0xbce9ea4d	-0.028554106
5	0x3d138910	0.036019385
6	0xbd0c826c	-0.034304067
7	0xbcd0bb7f	-0.02548003
8	0xbcbd0e06	-0.023077976
9	0x396b225d	0.00022424148
10	0x3c4a6eed	0.012355548
11	0x3d132a56	0.035929047
12	0xbd18a65d	-0.03726803
13	0x3d1fbe69	0.03899995
14	0x3cc56fe3	0.024101203
15	0xbd2c8b33	-0.04212494
16	0x3c907c92	0.017637525
17	0x3c987ef8	0.01861523
18	0x3d10cc2d	0.035350967
19	0xbd50a5d5	-0.0509394
20	0xbc924cf8	-0.017858967
21	0xbc53e5cd	-0.012933207
22	0x3d10decb	0.035368722
23	0xbb82f5d5	-0.0039965906
24	0xbd44f9f6	-0.048089944
25	0xbc3ec214	-0.0116429515
26	0xbcfbd92b	-0.030743202
27	0x3c1ccfa9	0.009570994
28	0x3cd601d4	0.026123919
29	0xbbff2bea	-0.0077872174
30	0xbc6677d6	-0.014066657
31	0x3b8bb4c5	0.0042634928
32	0x3bad2e51	0.0052850624
33	0x3ca1bbcc	0.019742869
34	0xbd7ddfcb	-0.061981004
35	0x3d0b6bc0	0.034038305
36	0xbb1e31a0	-0.0024138466
37	0x3d04c957	0.032418575
38	0xbb8e1ea0	-0.004337147
39	0xbd009076	-0.03138777
40	0xbbfd9475	-0.0077386447
41	0xb890f7cb	-6.91261e-05
42	0x3cf4b35f	0.029870687
43	0x3cec218a	0.028824586
44	0xbcae9562	-0.021311466
45	0x3c6237ac	0.0138072185
46	0x3d6b66dc	0.05747114
47	0xbc7d8736	-0.015474131
48	0x3d05d50b	0.032673877
49	0x3cdf30cf	0.027244953
50	0xbce661fa	-0.02812289
51	0x3d346385	0.04404022
52	0xbca629a6	-0.020283531
53	0x3d813331	0.06308592
54	0xbc962fbd	-0.01833331
55	0x3d756c0e	0.059917502
56	0x3d15163a	0.03639815
57	0x3c7d5caf	0.015463992
58	0x3787cd2e	1.6188798e-05
59	0x3c51b98a	0.012800584
60	0xbba43a6a	-0.0050118463
61	0xbd34b756	-0.044120155
62	0x3cc60619	0.02417283
63	0xbbfa82d2	-0.0076449895
64	0xbd209950	-0.03920871
65	0x3d1debcb	0.038554948
66	0x3ae8c7ce	0.0017759742
67	0x3ccd34a1	0.02504951
68	0xbd1e43ed	-0.038638998
69	0xbd0e43cb	-0.03473262
70	0x3d3685c3	0.04456116
71	0x3d62960d	0.05531888
72	0x3bfb2d98	0.0076653473
73	0x3cecb616	0.02889542
74	0x3d42e419	0.047580812
75	0x3c7d3086	0.015453463
76	0xbc846dcc	-0.016165636
77	0x3d412ab0	0.04715985
78	0x3cb17a24	0.021664687
79	0xbd5652b3	-0.052324962
80	0x3d2bbd6c	0.041928694
81	0x3c073738	0.008252911
82	0xbd498a2a	-0.04920403
83	0x3aa1117b	0.0012288535
84	0xbd6f76f9	-0.05846307
85	0x3d0f2a26	0.034952305
86	0xbd21cf53	-0.03950436
87	0x3d1265cb	0.03574161
88	0x3d055139	0.032548163
89	0xbcd9f50e	-0.026606109
90	0xbd77612b	-0.0603954
91	0xbd5bd7bd	-0.05367254
92	0xbd08c14b	-0.033387464
93	0xbad35302	-0.0016122761
94	0xbd665afc	-0.056239113
95	0xbd3c9de2	-0.046049006
96	0xbd29be6f	-0.041441377
97	0x3b2170ca	0.0024633878
98	0xbd50652e	-0.050877742
99	0xbd9baec0	-0.0760169
100	0xba0d4673	-0.0005389221
101	0xbd0b45c3	-0.034002077
102	0xbc8c9d30	-0.017164797
103	0xbc616f9a	-0.013759518
104	0x3c5226c3	0.012826624
105	0xbca41f18	-0.020034358
106	0x3d372276	0.0447106
107	0x3cddc694	0.027072228
108	0xbd26f4bf	-0.04076075
109	0xb946c109	-0.00018954663
110	0x3c263d2c	0.01014642
111	0xbd32a6fc	-0.04361628
112	0x3c19b9a8	0.009382643
113	0xbaca0a58	-0.001541446
114	0x3cacde8a	0.021102209
115	0xbd20bb08	-0.039240867
116	0xbc5142e4	-0.012772296
117	0xbd168ea0	-0.03675711
118	0x3d2f0ffe	0.04273986
119	0x3c41057e	0.011781095
120	0xbc68b2b7	-0.014202765
121	0x3c31b57f	0.010846495
122	0xbc531849	-0.012884208
123	0x3d77d825	0.060508866
124	0x3a9bdb67	0.0011890949
125	0x3ca0bef7	0.01962231
126	0x3cef7462	0.0292303
127	0x3c8ed500	0.01743555
128	0xbce1e325	-0.027574131
129	0x3c831555	0.016001383
130	0x3cf1b870	0.029506892
131	0x3d0bdd0b	0.03414635
132	0xbcaf41e4	-0.021393724
133	0x3c2d2168	0.010567047
134	0x3c8b6695	0.017016688
135	0x3b8f824d	0.0043795467
136	0x3cd01270	0.025399417
137	0x3d171912	0.036889143
138	0xbc7a2bf1	-0.0152692655
139	0x3ce38038	0.0277711
140	0x3c231514	0.009953756
141	0x3ca2f908	0.019894138
142	0x3cf830ad	0.030296648
143	0xbd03fb27	-0.03222194
144	0x3d02098d	0.03174739
145	0x3cef7177	0.029228909
146	0x3cfc1570	0.030771941
147	0xbca915aa	-0.020640213
148	0xbcf08463	-0.029360002
149	0xbc92b9cb	-0.017910859
150	0x3d562bac	0.052287742
151	0xbaaa27cd	-0.0012981832
152	0x3b8326ba	0.0040024193
153	0x3c83684c	0.016040944
154	0x3d8d3f14	0.06896797
155	0x3d281449	0.04103497
156	0x3ca65597	0.020304484
157	0xbd8354bd	-0.06412647
158	0xbd115f60	-0.035491347
159	0x3cd24a57	0.025670214
160	0xbc48bd75	-0.012252201
161	0x3cb39efe	0.0219264
162	0xbac56958	-0.0015061302
163	0x3c9aca35	0.018895248
164	0x3d570b9b	0.052501302
165	0x3c23c3d4	0.0099954195
166	0x3c998c69	0.01874371
167	0xb9f64311	-0.00046970745
168	0x3d257206	0.040391944
169	0xbb66130a	-0.0035106563
170	0x3c0e623a	0.008690411
171	0xbc8c80fd	-0.01715135
172	0x3c1f9bc3	0.009741726
173	0xbd0d358a	-0.034474887
174	0xbc80926f	-0.015694825
175	0x3d028afd	0.03187083
176	0x3d1522ec	0.036410257
177	0xbcb45df5	-0.022017458
178	0xbbee362c	-0.0072696414
179	0xbd29ab60	-0.0414232
180	0x3b98c9a9	0.0046627116
181	0x3c0ee615	0.008721848
182	0x3ceecd9a	0.029150773
183	0xbbbcadb4	-0.0057580117
184	0x3c0e2124	0.0086748935
185	0xbcad3a28	-0.021145895
186	0xbc3414b7	-0.010991267
187	0x3ccddab5	0.025128702
188	0xbceca0bf	-0.028885243
189	0x3c3a2618	0.011361621
190	0xbc4aeeb8	-0.012386017
191	0xbc8d2352	-0.017228756
192	0xbd300711	-0.04297549
193	0x3c95c6aa	0.018283207
194	0x3b5a4e71	0.0033310915
195	0xbc282776	-0.0102633145
196	0xbd4b759a	-0.0496727
197	0xbd64eb07	-0.055888202
198	0xbc1acc8b	-0.009448181
199	0xbd10e93c	-0.03537868
200	0x3d810664	0.06300047
201	0x3d6f5d5b	0.05843864
202	0x3b17d8d5	0.0023170013
203	0x3c983f49	0.018584864
204	0x3d13be51	0.03607017
205	0xbd09e50f	-0.033665713
206	0xbc491a5a	-0.012274349
207	0xbd23c2c2	-0.039980657
208	0x3cb4af3c	0.022056215
209	0xbbc2f20d	-0.005949265
210	0x3d41949b	0.04726086
211	0xbce8f005	-0.028434763
212	0x3d082541	0.033238653
213	0x3c16bb67	0.009199954
214	0x3d0985d6	0.0335749
215	0x3d60a42d	0.05484407
216	0xbc5b254c	-0.0133755915
217	0xbc4baa7f	-0.012430786
218	0xbd10b468	-0.0353283
219	0x3c254cad	0.010089082
220	0x3dafddda	0.08587237
221	0x3dab672b	0.08369287
222	0x3d4d33be	0.050098173
223	0x3dbba590	0.09162438
224	0x3d1a55c7	0.03767946
225	0x3d0206d0	0.03174478
226	0x3d927784	0.07151702
227	0x3d058798	0.032600015
228	0x3c2059fd	0.00978708
229	0x3d482d20	0.04887116
230	0xbbda4a80	-0.006661713
231	0xbd113c13	-0.035457682
232	0xbd8c178f	-0.06840431
233	0x3c7c7b64	0.015410278
234	0x3d72b22f	0.05925196
235	0xbd1c3057	-0.038132038
236	0xbd2248e3	-0.03962029
237	0xbd148d91	-0.03626782
238	0x3cede3ff	0.029039381
239	0xbc8b1960	-0.016979873
240	0xbd3e26eb	-0.046423834
241	0x3c83ec43	0.01610387
242	0x3b65707d	0.0035009675
243	0x3d022724	0.03177561
244	0xbc53cf9b	-0.012927915
245	0x3d0399cd	0.032129098
246	0x3d94cb66	0.07265358
247	0x3d548ab6	0.051890098
248	0x3c8fbda6	0.017546486
249	0x3b410c88	0.0029456932
250	0xba50f4a3	-0.0007971024
251	0xbc62955f	-0.013829558
252	0x3d2bf331	0.041979972
253	0x3c3f2b4b	0.011668037
254	0xbc34a45b	-0.0110255135
255	0xbb8239fb	-0.003974197

fc1.bias f4 [120]
0	0xbaee4b09	-0.0018180321
1	0xbb9febd7	-0.004880409
2	0x3d089948	0.033349305
3	0xbd7abb85	-0.06121399
4	0xbdc836fb	-0.09776112
5	0x3e2892c7	0.16462241
6	0x3dd565d7	0.10419815
7	0x3d0ae827	0.033912804
8	0xbd50dfa0	-0.050994515
9	0x3d7a2e36	0.061079226
10	0xbc7d5855	-0.0154629545
11	0x3dad7f13	0.08471503
12	0xbc3c3312	-0.0114867855
13	0x3d8735fc	0.066020936
14	0xbd9fb34c	-0.0779787
15	0xbd0a94d2	-0.033833332
16	0x3d888cf3	0.06667509
17	0x3e25e6d9	0.16201343
18	0x3df43300	0.1192379
19	0xbd0a59a6	-0.0337769
20	0x3d434041	0.0476687
21	0x3d8aa1bf	0.06769132
22	0xbd801469	-0.06253893
23	0x3deb3027	0.11483794
24	0x3dd0a7c4	0.10188249
25	0x3d08dcef	0.033413824
26	0xbdd02b39	-0.10164494
27	0x3e227538	0.15865028
28	0xbb0b528f	-0.0021258926
29	0x3d7bcc09	0.06147388
30	0x3daceb39	0.08443303
31	0xbd1c73c6	-0.038196348
32	0xbc5a9d54	-0.013343174
33	0xbdd54654	-0.10413805
34	0xbd09250e	-0.033482604
35	0xbc11d8a7	-0.008901752
36	0xbdc5e15a	-0.09662123
37	0x3defbfac	0.117064804
38	0xbc3e6caf	-0.011622592
39	0xbdd41b30	-0.10356748
40	0xbd06454e	-0.032780938
41	0x3c4a5fa8	0.012351908
42	0x3d08adb0	0.033368766
43	0x3daec370	0.085333705
44	0xbe1eb54c	-0.15498847
45	0x3e2081a2	0.15674451
46	0xbc78d312	-0.015187042
47	0xbc74100a	-0.014896402
48	0xbda6aa09	-0.081379004
49	0xbdc7b108	-0.09750563
50	0x3bfcecb8	0.0077186488
51	0x3d290fbc	0.04127477
52	0x3d929f02	0.071592346
53	0xbe1bd89b	-0.15219347
54	0x3cfa16d0	0.030528456
55	0x3d9fe0bf	0.07806539
56	0x3ddda822	0.108230844
57	0x3ddfa429	0.10919983
58	0x3d42ebac	0.047588035
59	0x3d5143f1	0.051090185
60	0x3c974208	0.018464103
61	0xbc70d0ec	-0.014698248
62	0xbd111c06	-0.035427116
63	0x3dbf16d2	0.093305245
64	0x3dcd92ca	0.100377634
65	0xbdd2bb03	-0.10289576
66	0xbd4999d7	-0.04921898
67	0x3dc3da36	0.09563105
68	0xbbdd2d6a	-0.0067497985
69	0x3d87c7c6	0.06629901
70	0xbe17486c	-0.1477372
71	0x3c8b51a3	0.0170067
72	0x3d370a19	0.044687364
73	0xbdb1b014	-0.08676162
74	0xbc904f83	-0.01761604
75	0x3db0cf09	0.08633239
76	0xbd508d23	-0.05091585
77	0xbc3ba6e1	-0.011453361
78	0x3cf2436c	0.029573165
79	0xbd8b8843	-0.06813099
80	0xbcdfb0fd	-0.027306074
81	0x3df733e0	0.12070441
82	0xbd278de3	-0.040906798
83	0x3b4cc21d	0.003124363
84	0xbd49371a	-0.049124815
85	0x3df144e7	0.1178072
86	0x3dc0ccb5	0.09414045
87	0xbbf01107	-0.0073262486
88	0x3d74d018	0.059768766
89	0xbccfee41	-0.025382163
90	0x3db4bdcd	0.08825264
91	0xbcc0ed35	-0.02355061
92	0xbc842638	-0.016131505
93	0xbd636db0	-0.055524528
94	0xbdee8d07	-0.116479926
95	0x3e0a7f1f	0.13525055
96	0xbce91988	-0.028454557
97	0x3dd7b1cd	0.1053196
98	0x3ded0284	0.115727454
99	0xbd2fdce6	-0.042935275
100	0xbca89398	-0.02057819
101	0xbd85e397	-0.0653755
102	0x3d98257d	0.07429025
103	0xbe0075d2	-0.12544945
104	0xbc072319	-0.008248114
105	0xbd8ff337	-0.070288114
106	0x3e1cdf85	0.15319641
107	0x3c1ec8ed	0.009691459
108	0x3d300f4f	0.04298335
109	0x3c51d9d9	0.012808287
110	0x3dcb71b4	0.099337965
111	0x3d4c2e0d	0.049848605
112	0xbdcf0ce1	-0.10109878
113	0x3c92cd41	0.017920138
114	0x3e005215	0.12531312
115	0xbda852aa	-0.08218892
116	0x3d5c4f1e	0.05378639
117	0x3d62403b	0.055237036
118	0xbc835f9e	-0.016036805
119	0x3d084e50	0.03327781

fc2.weight f4 [84, 120]
0	0x3d99b24c	0.075047106
1	0xbd847ddf	-0.064693205
2	0xbb2b6af2	-0.0026156274
3	0xbc74d089	-0.014942297
4	0xbd81dac8	-0.06340557
5	0x3e073d7d	0.1320705
6	0x3d11b1e7	0.03557005
7	0x3d97759d	0.0739548
8	0xbd37933c	-0.044818148
9	0x3d9cdbd0	0.076591134
10	0x3d9842ee	0.07434641
11	0x3d88d73c	0.06681678
12	0xbd2cca93	-0.042185377
13	0xbd98dccf	-0.07463991
14	0xbd92f1bd	-0.07175014
15	0x3d88c63a	0.06678434
16	0xbd448317	-0.04797658
17	0x3dcd70c6	0.100312755
18	0x3dd38075	0.103272356
19	0x3d898d23	0.06716373
20	0x3d96f3ea	0.07370742
21	0x3d28aa3c	0.041177973
22	0x3c441bfe	0.0119695645
23	0xbd386580	-0.045018673
24	0x3d5d3bb7	0.054012027
25	0x3cf0315c	0.029320411
26	0x3c9ec055	0.01937882
27	0x3d1e085d	0.038582195
28	0x3b01d5af	0.0019811203
29	0x3ccbb04f	0.024864344
30	0xbc93d55a	-0.01804607
31	0xbc94ca74	-0.018162943
32	0x3d47c038	0.0487673
33	0xbdaca6c9	-0.08430249
34	0xbdaf1dc6	-0.08550601
35	0xbdd0f5d2	-0.102031365
36	0xbd95671b	-0.072950564
37	0xbb3831d0	-0.0028105862
38	0x3d701d0c	0.05862145
39	0xbdb5a0e9	-0.08868582
40	0x3a7a2e00	0.00095435977
41	0x3c90e207	0.017685903
42	0x3dae5589	0.08512408
43	0x3d7ebcc7	0.06219175
44	0x3d98f79a	0.07469101
45	0x3cc388f7	0.02386902
46	0x3d4ad6cf	0.049521264
47	0x3d7e60b8	0.062103957
48	0x3d1a8ead	0.037733722
49	0xbb6402a0	-0.0034791604
50	0xbbdc3c35	-0.0067210444
51	0xbd85227e	-0.065007195
52	0xbc466349	-0.012108632
53	0xbd4bcbd6	-0.04975494
54	0xbbe14237	-0.0068743485
55	0xbd6c5dd5	-0.057706673
56	0x3dba48c9	0.09095914
57	0x3d3bc9ac	0.045846626
58	0x3af71db5	0.0018853458
59	0x3cc17013	0.023613011
60	0xbce3a850	-0.027790219
61	0x3da8f94d	0.08250675
62	0xbdb711eb	-0.089389645
63	0xbd862e08	-0.065517485
64	0xbd47a091	-0.048737112
65	0xbd0ced4f	-0.034406003
66	0xbcd82a47	-0.026387347
67	0xbb853c40	-0.0040660203
68	0x3d9f5931	0.07780684
69	0xbb31605f	-0.0027065498
70	0xbcf980e2	-0.030456964
71	0x3df2936b	0.11844524
72	0x3d44988b	0.04799704
73	0xbdce11be	-0.10061978
74	0xbcd062c4	-0.02543772
75	0x3d70f61e	0.058828466
76	0xbdcadeb5	-0.09905759
77	0x3cf92dca	0.030417342
78	0xbd222428	-0.039585263
79	0x3c3ffeb3	0.01171844
80	0x3d89f19c	0.067355365
81	0x3dbe0407	0.09278112
82	0x3caddded	0.021223987
83	0x3d92e459	0.0717246
84	0x3cbc7297	0.02300386
85	0x3d7a10fe	0.06105136
86	0x3cbac3a0	0.02279836
87	0x3c318175	0.010834088
88	0x3c4f4f25	0.012653147
89	0xbdbfcadb	-0.093648635
90	0xbd84068e	-0.06446563
91	0x3d111cc4	0.035427824
92	0x3d73d29c	0.059527025
93	0x3d9e127f	0.077183716
94	0xbdc8d65e	-0.09806512
95	0x3d6c37cb	0.057670396
96	0x3d464250	0.048403084
97	0x3d8ff4d1	0.07029117
98	0x3db7a691	0.08967317
99	0xbd8d4b56	-0.06899135
100	0x3d76f1ed	0.060289312
101	0x3d41548d	0.047199775
102	0x3cf5affe	0.029991146
103	0xbd04d285	-0.03242733
104	0xbce2a9f8	-0.027668938
105	0x3d25ddec	0.040494844
106	0x3dddb307	0.108251624
107	0xbcd97b15	-0.026547948
108	0xbc0f4820	-0.008745223
109	0xbd6cbe39	-0.057798598
110	0x3da5151f	0.08060669
111	0xbd0b2748	-0.03397301
112	0x3d36aabe	0.044596426
113	0x3de19076	0.11013882
114	0xbd0a0bd2	-0.03370268
115	0x3da9620e	0.082706556
116	0x3caefc92	0.02136067
117	0x3ca09ff0	0.019607514
118	0x3d14b197	0.036302175
119	0xbd848f08	-0.064725935
120	0xbd17a0c4	-0.037018552
121	0x3d3d2818	0.046180815
122	0x3d974f3e	0.07388161
123	0x3af00ccb	0.001831436
124	0xbc4b672f	-0.012414738
125	0x3dd75ebc	0.10516116
126	0x3d9751cc	0.073886484
127	0xbd4dc739	-0.05023882
128	0xbd79ce09	-0.060987506
129	0x3c38791e	0.011259345
130	0x3d9e650a	0.077341154
131	0xbd38afad	-0.045089412
132	0xbd7bae56	-0.061445557
133	0xbd24cf43	-0.040236723
134	0x3db5e5c2	0.088817134
135	0x3db3ceeb	0.08779701
136	0xbcb12eac	-0.0216287
137	0x3d255b34	0.04037018
138	0xbd018f73	-0.031630944
139	0xbd85bc96	-0.065301105
140	0x3d9c0b50	0.07619345
141	0xbb6d0e00	-0.0036171675
142	0x3cbd9ce3	0.023146098
143	0x3cd8cdef	0.026465384
144	0xbda432de	-0.08017515
145	0x3b423fc0	0.0029640049
146	0xbd1122fe	-0.03543376
147	0xbd91a1ab	-0.07110914
148	0xbda2ef58	-0.079558074
149	0x3cb6d50d	0.022318387
150	0x3d972f84	0.0738211
151	0x3d9684ba	0.07349534
152	0xbd5b027b	-0.053469162
153	0x3d182682	0.0371461
154	0xbdba991f	-0.09111237
155	0xbca12dd3	-0.019675171
156	0x3d511d1e	0.05105316
157	0x3d79f0db	0.061020713
158	0x3cb38560	0.021914184
159	0xbd207407	-0.039173152
160	0x3d9eab33	0.077474974
161	0xbd2a8f03	-0.041640293
162	0x3d7ab53c	0.061207995
163	0x3c1d3dd0	0.009597257
164	0xbd5de350	-0.05417186
165	0x3d4922e8	0.049105555
166	0x3cd17b17	0.02557139
167	0xbd2e7f73	-0.042602014
168	0xbc4ed2ab	-0.012623469
169	0xbd9a331a	-0.07529278
170	0xbd73b65a	-0.059500076
171	0x3cce93a3	0.025216883
172	0xbd4b938c	-0.04970126
173	0x3ceae581	0.02867389
174	0x3c7f556a	0.015584329
175	0x3c0d7039	0.008632713
176	0x3b8839fb	0.0041573024
177	0xbcd5ab09	-0.026082532
178	0x3c8f2379	0.01747297
179	0x3ca2bf3c	0.019866578
180	0xbd5a715a	-0.053330757
181	0x3c03637c	0.008019324
182	0xbbaf55f0	-0.0053508207
183	0x3c0cabf0	0.008585915
184	0xbdb31a93	-0.08745303
185	0x3c11a032	0.008888291
186	0x3cb04c29	0.021520691
187	0xbca573c1	-0.020196797
188	0x3d844197	0.06457823
189	0xbc9a66c1	-0.018847825
190	0xbd2d1960	-0.042260528
191	0xbb8e1596	-0.0043360693
192	0x3ccdd559	0.025126146
193	0x3c27a5e3	0.010232422
194	0xbc00f8bd	-0.007871804
195	0xbc840d26	-0.01611955
196	0xbd34c498	-0.0441328
197	0xbcca6c5b	-0.024709871
198	0x3cb7888e	0.022403982
199	0xbcf2a817	-0.029621167
200	0x3d04b0c3	0.032395136
201	0xbd11a67a	-0.035559155
202	0xbd681907	-0.056664493
203	0xbd4fa8a9	-0.050697956
204	0xbd9dc921	-0.07704378
205	0x3da317c3	0.079635166
206	0xbd6fe850	-0.05857116
207	0x3c1be6b0	0.009515449
208	0x3d89e537	0.067331724
209	0xbd6a690d	-0.05722909
210	0x3cc18258	0.023621723
211	0x3d9e6200	0.07733536
212	0x3d225310	0.039629996
213	0x3cb627fd	0.022235865
214	0xbbdc2efd	-0.0067194686
215	0xbd704600	-0.058660507
216	0xbd8a9877	-0.067673616
217	0xbda63a41	-0.0811658
218	0x3cb5c36c	0.022187911
219	0x3d4208fe	0.047371857
220	0xbda9843a	-0.08277173
221	0xbd533070	-0.051559865
222	0xbd42c40b	-0.047550242
223	0xbcde9aed	-0.027173484
224	0x3da96d9f	0.08272862
225	0x3dbe6b31	0.09297789
226	0xbda263cd	-0.07929192
227	0x3d65cae0	0.05610168
228	0x3db7ffb8	0.08984321
229	0x3ca5c916	0.020237487
230	0xbce7f25f	-0.028313814
231	0x3cdabe86	0.026702177
232	0xbd6dd2cb	-0.058062356
233	0x386e9d2e	5.6890007e-05
234	0xbd06a632	-0.03287334
235	0xbd73e9e3	-0.059549224
236	0xbd67c27c	-0.05658196
237	0xbd4bade3	-0.04972638
238	0xbda2f55a	-0.07956953
239	0x3d5a3bfc	0.05327986
240	0xbd4e91f1	-0.05043215
241	0xbd929889	-0.07158
242	0x3da59928	0.08085853
243	0x3d08f864	0.03344001
244	0x3cab13c3	0.020883447
245	0x3d7592a8	0.059954315
246	0x3d593646	0.053030275
247	0xb9b71800	-0.0003492236
248	0xbd38831f	-0.04504692
249	0xbda8377d	-0.082137085
250	0xbd4c5e3c	-0.049894556
251	0xbd38f9de	-0.045160167
252	0x3cbefa88	0.023312822
253	0xbd21c87e	-0.039497845
254	0x3d30bd41	0.043149237
255	0xbdb2b990	-0.087267995

fc2.bias f4 [84]
0	0x3e01b339	0.12666024
1	0xbdbbe769	-0.09174997
2	0xbd38d5c0	-0.045125723
3	0x3e1428e8	0.1446873
4	0x3d706743	0.058692228
5	0x3d553275	0.052050073
6	0xbdc8e032	-0.09808387
7	0x3d24892e	0.040169887
8	0xbd371da2	-0.044705994
9	0x3d316d1a	0.043316938
10	0x3e1a9a13	0.15097837
11	0xbd35ab8e	-0.04435306
12	0x3bc4c4e2	0.0060049156
13	0xbd7c3e30	-0.061582744
14	0x3e69002c	0.22753972
15	0xbb874c31	-0.004128956
16	0xbde90ad1	-0.11379016
17	0xbd0f0c8e	-0.034924082
18	0xbdbb27ea	-0.091384724
19	0xbd878553	-0.066172265
20	0x3db01b42	0.08598949
21	0x3d9b6cab	0.07589086
22	0xbd9ef7b7	-0.077620916
23	0x3ccc0482	0.024904493
24	0xbd7afa8d	-0.0612741
25	0xbd2f2d59	-0.042767856
26	0xbda7a114	-0.0818502
27	0x3bd01210	0.0063498095
28	0xbc3a9cd4	-0.01138993
29	0x3dec63ac	0.115424484
30	0x3ded5e49	0.11590249
31	0x3d49d705	0.049277324
32	0xbd989fb7	-0.07452338
33	0x3dada8b0	0.0847944
34	0xbda7d35b	-0.0819461
35	0xbd2735f6	-0.040822946
36	0x3d4914e8	0.049092203
37	0xbd5d9ed6	-0.054106556
38	0xbd056689	-0.03256849
39	0xbb6c2279	-0.003603129
40	0x3d92b21d	0.07162879
41	0x3d96cbd2	0.073630944
42	0xbc539062	-0.0129128415
43	0xbd53b83f	-0.051689383
44	0xbdb40cdb	-0.087915145
45	0x3e0d9492	0.13826206
46	0xbd1ef1e9	-0.038804922
47	0x3d4ddef7	0.050261464
48	0x3dc8ec79	0.098107286
49	0x3d8df17c	0.06930825
50	0xbce7e58c	-0.028307699
51	0xbd823bcd	-0.06359062
52	0xbd091a9a	-0.033472635
53	0x3d078eec	0.033095285
54	0xbdd28661	-0.10279537
55	0x3de38c8f	0.11110794
56	0x3dbbc5f8	0.09168619
57	0x3b2ee0c0	0.0026684254
58	0x3b1a53b9	0.0023548438
59	0x3e03b764	0.12862927
60	0x3e142286	0.14466295
61	0xbd18290c	-0.03714852
62	0xbd475f49	-0.048674855
63	0x3c91d0d0	0.017799765
64	0x3d9da750	0.07697928
65	0xbd9ec1aa	-0.07751782
66	0x3dd59422	0.10428645
67	0x3a18faa6	0.00058356894
68	0x3dd68f34	0.104765326
69	0xbdf9ffda	-0.12207003
70	0x3da7cf08	0.08193785
71	0xbd9debdb	-0.077110015
72	0xbd2ac864	-0.041695014
73	0x3b03473b	0.002003147
74	0x3e1e513f	0.1546068
75	0x3c45fc31	0.012084053
76	0xbe052472	-0.13002184
77	0x3dae0f0c	0.08498964
78	0xbde6ae9a	-0.11263771
79	0x3e18e013	0.14929228
80	0xbd503f48	-0.0508416
81	0xbd0c3234	-0.034227565
82	0xbd4162a1	-0.0472132
83	0xbe0cd478	-0.13752925

fc3.weight f4 [10, 84]
0	0xbca027aa	-0.019550163
1	0x3dc62fdc	0.09677097
2	0x3dd2f0a5	0.102998056
3	0xbdcf573c	-0.101240605
4	0xbb893ff2	-0.004188531
5	0xbd898b88	-0.067160666
6	0x3d611c13	0.054958414
7	0x3c6f9830	0.014623687
8	0x3d257ab1	0.04040021
9	0x3cedbb13	0.029019868
10	0x3dd88cb6	0.105737135
11	0x3d67bdcb	0.056577485
12	0x3ce059c7	0.02738656
13	0xbc97e760	-0.018542945
14	0x3da7bbda	0.08190127
15	0xbc8fefc6	-0.017570388
16	0x3dcf03e3	0.10108163
17	0x3d7d2b25	0.061808724
18	0x3d67f486	0.05662968
19	0x3e0acca6	0.1355463
20	0x3dc66ef1	0.09689129
21	0xbdba5cee	-0.09099756
22	0x3d4fd548	0.05074051
23	0xbe02b1af	-0.12763093
24	0x3d4970ff	0.049180027
25	0xbd23feda	-0.040037967
26	0x3d2b2a1f	0.041788217
27	0xbdec4872	-0.11537255
28	0x3dc1741c	0.09445974
29	0x3d67a7ca	0.0565565
30	0x3c830e21	0.015997948
31	0xbd09cd18	-0.03364286
32	0xbd9c63da	-0.07636233
33	0x3de2d41b	0.11075612
34	0xbd27f394	-0.04100378
35	0xbdacff7c	-0.08447167
36	0x3d326258	0.04355082
37	0x3a800dde	0.0009769758
38	0x3c5c0ce1	0.013430805
39	0xbd17f53e	-0.037099116
40	0xbdb1235c	-0.086493224
41	0xbc986751	-0.018603953
42	0x3c13b2a3	0.009014758
43	0x3d11e1b9	0.035615657
44	0x3d9252bc	0.071446866
45	0xbd38db88	-0.045131236
46	0xbde5f640	-0.11228609
47	0x3d0546d0	0.032538235
48	0xbd65bb28	-0.05608669
49	0x3da3c03b	0.079956494
50	0x3dd66e64	0.10470274
51	0xbcaf6ae1	-0.021413269
52	0x3c2142d9	0.009842598
53	0xbd821b6e	-0.06352888
54	0x3d8e6560	0.069529295
55	0xbd0e9172	-0.034806676
56	0x3ca4b1fe	0.020104405
57	0xbe01b072	-0.12664965
58	0x3d96143f	0.073280804
59	0xbd085d14	-0.03329189
60	0xbdc99333	-0.09842529
61	0xbc8240e4	-0.015900083
62	0x3a48799a	0.00076475146
63	0xbbbe27ed	-0.0058030994
64	0x3c3c4542	0.011491122
65	0x3d2cfbcb	0.042232316
66	0xbddf7bb9	-0.1091227
67	0xbd770178	-0.060304135
68	0x3b83d974	0.004023725
69	0xbd1d1407	-0.038349178
70	0x3ae103cc	0.0017167269
71	0x3de1e76d	0.11030469
72	0xbd6313a2	-0.055438645
73	0x3d39baf2	0.0453443
74	0xbd38ce70	-0.04511875
75	0x3dfebfa8	0.12438899
76	0x3d5bd6b8	0.05367157
77	0xbddcdeaf	-0.10784661
78	0xbdf5c3bf	-0.12000226
79	0xbd86278b	-0.06550511
80	0x3dad7b3f	0.08470773
81	0x3e034a45	0.128213
82	0xbd9f83c2	-0.07788803
83	0x3daa4865	0.083145894
84	0xbd7586ca	-0.059942998
85	0x3db23dd0	0.08703196
86	0x3bc59bef	0.0060305516
87	0xbe02832f	-0.12745355
88	0xbe08a5be	-0.13344476
89	0xbd90fa08	-0.0707894
90	0xbd688a13	-0.056772303
91	0xbdd0844f	-0.10181486
92	0x3de20d0f	0.11037647
93	0xbb083816	-0.0020785383
94	0xbd540861	-0.051765803
95	0xbd985fa2	-0.074401155
96	0x3c8a0efa	0.016852845
97	0x3dd3cd9d	0.10341952
98	0xbdbfe7f6	-0.09370415
99	0x3da2d28e	0.07950316
100	0x3d9a008d	0.07519636
101	0xbd8d80d1	-0.069093354
102	0xbcf70658	-0.030154392
103	0xbe11cb5b	-0.1423773
104	0xbdddf206	-0.10837178
105	0x3b4857cf	0.0030569916
106	0xbd74abc9	-0.05973414
107	0xbcaec917	-0.021336121
108	0xbc90fcea	-0.017698724
109	0xbd1fee4f	-0.03904563
110	0x3dab3960	0.08360553
111	0xbde77328	-0.11301261
112	0xbcd1794a	-0.02557053
113	0xbe00bc2b	-0.1257178
114	0x3e01bfd1	0.12670828
115	0xbdf3c579	-0.11902899
116	0x3d077cc8	0.033077985
117	0xbdf7c638	-0.12098354
118	0xbdece8d9	-0.1156785
119	0xbdb008e5	-0.085954465
120	0xbd49a94f	-0.04923373
121	0xbd86eeea	-0.06588538
122	0xbdb73a88	-0.08946711
123	0xb90538c5	-0.00012705017
124	0xbd3459ea	-0.04403106
125	0xbdffc1bf	-0.12488126
126	0xbde2ea06	-0.11079793
127	0x3e0ff1ac	0.14057034
128	0xbd2af6ac	-0.04173915
129	0xbd38115f	-0.04493844
130	0x3db79031	0.08963049
131	0xbdfe5d64	-0.124201566
132	0x3d90d7a1	0.07072378
133	0x3dedd784	0.11613372
134	0xbd61285b	-0.054970127
135	0xbdc2e68c	-0.095166296
136	0x3dbb0eec	0.091337055
137	0xbdc22506	-0.09479718
138	0x3c979993	0.018505847
139	0x3d6754a1	0.056477193
140	0xbdab439e	-0.08362506
141	0x3d8c8654	0.068615586
142	0xbd5775f9	-0.052602742
143	0x3dd85414	0.10562912
144	0xbde13d6a	-0.10998042
145	0x3db6f0b8	0.08932632
146	0x3c77fdb7	0.015136174
147	0x3dbdf74f	0.09275686
148	0xbc941c22	-0.018079821
149	0x3c9b39ed	0.01894852
150	0x3c388c2c	0.011263888
151	0xbd908d53	-0.070582055
152	0xbc525406	-0.012837416
153	0x3db1ef38	0.086882055
154	0x3a8f6081	0.0010938795
155	0xbcaa9d06	-0.020826828
156	0x3cc39fdd	0.02387994
157	0x3df26dc4	0.118373424
158	0xbdc30ada	-0.09523554
159	0xbdea0e16	-0.11428468
160	0x3dad8fe8	0.084747136
161	0xbdab6737	-0.08369296
162	0xbbfd9571	-0.007738762
163	0xbd311722	-0.04323495
164	0x3d09a2df	0.03360259
165	0xbd67834a	-0.05652169
166	0xbb43e9a2	-0.0029893895
167	0x3d6d8655	0.057989437
168	0x3cf4b998	0.029873654
169	0xbdc26ac0	-0.09493017
170	0xbd440dc7	-0.0478647
171	0x3d2ff706	0.04296019
172	0xbd8d62ff	-0.06903648
173	0x3dc9167b	0.09818741
174	0xbdb1adef	-0.08675753
175	0x3d85d184	0.065341026
176	0x3d0e65ae	0.034764938
177	0xbcaa891e	-0.020817336
178	0x3ce1b490	0.02755192
179	0x3dc40213	0.09570708
180	0x3da4ed40	0.08053064
181	0xbb97289a	-0.0046129944
182	0x3e0d5c02	0.1380463
183	0x3d525817	0.05135354
184	0x3dc661c5	0.09686617
185	0x3da4d15b	0.08047744
186	0x3dbe6f5a	0.092985824
187	0x3c1ef8bc	0.009702858
188	0x3c40bcf0	0.011763796
189	0xbdbabea0	-0.0911839
190	0xbc485819	-0.012228035
191	0x3c472f51	0.012157277
192	0xbdb0ec18	-0.08638781
193	0xbdaab8a7	-0.08336001
194	0xbd434257	-0.04767069
195	0x3998eaea	0.00029166724
196	0xbd56af3f	-0.05241322
197	0x3da0ae55	0.07845751
198	0xbda4c2c8	-0.08044964
199	0x3c330684	0.010926846
200	0xbbfedb54	-0.007777611
201	0x3c860d22	0.016363684
202	0xbe0711e0	-0.13190413
203	0xbd0afbc0	-0.033931494
204	0xbe016d6e	-0.126394
205	0x3d74a06c	0.059723303
206	0xbbaa4aab	-0.0051968894
207	0xbb9cbb99	-0.0047831056
208	0x3dde4075	0.10852138
209	0x3df8c01e	0.121460184
210	0x3df23114	0.11825767
211	0xbcf0300b	-0.029319784
212	0x3ba37d90	0.0049893335
213	0x3dd6c41d	0.104866244
214	0xbd8931e1	-0.06698967
215	0x3dd6eef0	0.104947925
216	0x3ce8fd8d	0.028441215
217	0x3b87ce97	0.0041445005
218	0xbdca57b0	-0.09880006
219	0x3d276397	0.04086646
220	0x3dc2d7d3	0.095138215
221	0x3d13f1c4	0.036119238
222	0xbd30de92	-0.04318101
223	0xbd4786a2	-0.04871238
224	0x3e193438	0.14961326
225	0xbc76c2ce	-0.0150610935
226	0xbe2bb4e9	-0.1676823
227	0x3dc041b6	0.09387533
228	0x3d7801c0	0.060548544
229	0xbe08a265	-0.13343199
230	0x3dccc20b	0.09997948
231	0x3d7487ef	0.05969995
232	0x3a2001e3	0.0006103797
233	0xbcf681c9	-0.030091183
234	0xbc5c7add	-0.013457027
235	0x3d97d7cb	0.07414206
236	0x3d9c65de	0.07636617
237	0xbd2bc1c7	-0.041932847
238	0xbd886e89	-0.06661708
239	0x3dbeea66	0.09322052
240	0xbdce3f7b	-0.10070702
241	0x3db6eb91	0.089316495
242	0x3d302ca1	0.04301131
243	0xbd7b742c	-0.061390087
244	0xbd993358	-0.07480496
245	0xbd351767	-0.04421177
246	0x3d245a06	0.040124916
247	0x3cb96a41	0.022633674
248	0xbd110d3b	-0.03541301
249	0x3dc3e282	0.09564687
250	0x3cdfc2ae	0.02731451
251	0xbc9bbe43	-0.019011622
252	0xbdada0b1	-0.08477915
253	0x3d09ac5c	0.03361164
254	0xbbbcb19c	-0.0057584774
255	0x3d82fcf9	0.06395907

fc3.bias f4 [10]
0	0xbcc7f80c	-0.02441027
1	0xbc209e64	-0.009803388
2	0x3cf5d535	0.030008892
3	0x3d89d71b	0.06730481
4	0x3d332def	0.043744978
5	0xbdc00e57	-0.09377735
6	0xbc39086b	-0.011293511
7	0xbe20ee84	-0.15715986
8	0x3e189081	0.14898874
9	0xbd8fc1cc	-0.07019386
