resources/lenet_e10b50_clean_model.pt (torch_old, 249645 bytes, 10 tensors)

conv1.weight f4 [6, 3, 5, 5]
0	0xbd5c5af2	-0.05379767
1	0x3d67c3d5	0.056583244
2	0x3d143d52	0.036191292
3	0x3c4b538f	0.012410059
4	0xbce5a9a4	-0.028034993
5	0xbd9fa679	-0.07795424
6	0x3d8323d8	0.06403321
7	0x3e2eacc0	0.17058086
8	0x3d7b24d2	0.06131441
9	0x3dcc8af3	0.0998744
10	0x3b216a11	0.002462987
11	0x3d1d1b6b	0.038356226
12	0x3e3a500c	0.18194598
13	0x3d61fd77	0.055173364
14	0xbda99e99	-0.08282203
15	0x3c97b6bb	0.01851975
16	0x3d7f0262	0.06225813
17	0x3e45f1c5	0.19330509
18	0x3dcbce65	0.09951476
19	0x3da1174c	0.07865772
20	0x3da3126f	0.079625
21	0x3e200a2c	0.1562888
22	0xbc2ab3b5	-0.010418822
23	0xbcabd7ac	-0.020976864
24	0x3decf413	0.11569991
25	0xbde118c0	-0.10991049
26	0x3e150d44	0.14555842
27	0x3d4e892c	0.050423786
28	0x3dbdd7dd	0.09269688
29	0x3e050b97	0.12992702
30	0xbd251b04	-0.040308967
31	0x3dfff4f9	0.12497897
32	0x3e625549	0.22102846
33	0x3e41b4ba	0.18916598
34	0x3e083563	0.13301615
35	0xbda749ea	-0.08168395
36	0x3d25626e	0.040377073
37	0x3e5a9895	0.21347268
38	0x3e33f9cd	0.1757576
39	0x3cf268c3	0.02959097
40	0x3d0ab46d	0.033863474
41	0x3d61e236	0.055147372
42	0x3e064c62	0.13115075
43	0x3e1c2861	0.15249778
44	0x3dce07e8	0.10060102
45	0xbd55ece7	-0.05222788
46	0x3df3d2b5	0.119054236
47	0x3e1106a2	0.14162686
48	0x3d775759	0.060386036
49	0xbd7fcc29	-0.06245056
50	0xbe327939	-0.17429055
51	0x3db3b0d3	0.08773961
52	0x3e073acb	0.13206021
53	0x3ce3a521	0.0277887
54	0x3d870a28	0.06593734
55	0xbd0bdbd3	-0.034145188
56	0x3d9687c6	0.073501155
57	0x3d9ade2a	0.07561906
58	0x3d74fce2	0.05981148
59	0xbda191d1	-0.078891404
60	0xbe310c9f	-0.17289971
61	0xbd36986e	-0.044578962
62	0x3e3be9a6	0.18350849
63	0x3e0a8046	0.13525495
64	0xbdede8af	-0.116166465
65	0x3c2dd33b	0.010609443
66	0x3d8194d2	0.06327213
67	0xbd95e3b1	-0.07318819
68	0x3d297621	0.041372422
69	0xbccbebf2	-0.02489278
70	0xbcbb681a	-0.022876788
71	0x3c0246a2	0.0079514105
72	0xbda9bd96	-0.08288114
73	0x3b69b849	0.003566282
74	0xbca00fb5	-0.01953874
75	0x3d10ab4a	0.035319604
76	0x3e09d1c4	0.13458925
77	0x3e243d19	0.16038932
78	0xbca199a0	-0.019726574
79	0x3e013503	0.12617879
80	0xbd85cc83	-0.06533148
81	0xbdbecebb	-0.093167745
82	0x3af16a18	0.0018418459
83	0xbd4741e6	-0.04864683
84	0xbd4b4c20	-0.049633145
85	0x3b5f8244	0.0034104744
86	0xbe004c15	-0.12529023
87	0xbe1ff5de	-0.15621135
88	0xbe423b1b	-0.1896786
89	0xbde33c40	-0.11095476
90	0xbd0f91e0	-0.035051227
91	0x3e0bde7d	0.13659091
92	0x3c2697c3	0.010168019
93	0xbd223148	-0.03959778
94	0x3dc742ec	0.09729561
95	0xbd51018d	-0.05102687
96	0xbdd33246	-0.10312323
97	0x3e0bef2c	0.13665456
98	0x3d3b4b88	0.04572633
99	0xbca61055	-0.02027146
100	0x3c87b0c7	0.016563786
101	0x3b9b9359	0.00474779
102	0x3dc47695	0.0959293
103	0x3c7148c0	0.014726818
104	0x3ded7ad0	0.1159569
105	0xbd03b0b8	-0.032150954
106	0x3bd1d5e2	0.0064036706
107	0xbda43d6e	-0.08019529
108	0x3cb20f12	0.021735702
109	0x3e0cb87a	0.13742247
110	0xbcef8114	-0.029236354
111	0xbcc31d95	-0.023817817
112	0xbdb8160b	-0.08988579
113	0xbd9f0936	-0.07765429
114	0xbd993d49	-0.07482392
115	0x3dd1829f	0.10229992
116	0x3d905070	0.07046592
117	0x3e00538e	0.12531874
118	0xbdc28313	-0.09497657
119	0x3db83f8d	0.08996496
120	0x3da719c4	0.08159211
121	0xbc4b22a1	-0.012398393
122	0x3d3c0904	0.045907035
123	0xbde72b4a	-0.112875536
124	0x3e111d52	0.14171341
125	0xbdbbf77f	-0.091780655
126	0x3d80dd4c	0.06292209
127	0xbd8e0e23	-0.0693629
128	0xbc1cf417	-0.00957968
129	0xbc951dff	-0.01820278
130	0xbda54224	-0.08069256
131	0x3cc35c8e	0.023847844
132	0x3db86a28	0.09004623
133	0x3d7b50d8	0.061356395
134	0x3d13486e	0.035957746
135	0x3daaa6f9	0.08332629
136	0xbd0428d3	-0.032265496
137	0xbd7add46	-0.06124618
138	0xbe2c4685	-0.16823776
139	0xbdd2a4e5	-0.102853574
140	0xbd032d00	-0.032025337
141	0xbd481663	-0.048849475
142	0x3e14a721	0.1451688
143	0x3dc92c14	0.0982286
144	0x3d5524e7	0.052037146
145	0xbd6ccf23	-0.05781473
146	0xbd779445	-0.060444135
147	0x3dee9cda	0.11651011
148	0xbe0ae39a	-0.13563386
149	0x3d21436d	0.039370943
150	0x3c3f5d17	0.011679909
151	0xbe3ac749	-0.18240084
152	0xbe810afc	-0.25203693
153	0xbe1d1fec	-0.15344208
154	0xbc8900d6	-0.016724031
155	0x3d458fb0	0.048232734
156	0xbcbde474	-0.023180224
157	0xbe0efe2b	-0.13964145
158	0xbdf5181e	-0.119674906
159	0xbd023e2e	-0.03179758
160	0x3dc6e6c2	0.09711982
161	0x3d8fa8a0	0.070145845
162	0x3d1f3e45	0.038877744
163	0xbd26451f	-0.040593263
164	0xbc726e39	-0.014796787
165	0x3dedf647	0.11619239
166	0x3e15f20a	0.14643112
167	0x3e480b1a	0.19535485
168	0x3dd84d97	0.10561674
169	0x3d88c2d3	0.06677785
170	0x3d2fa6bc	0.04288362
171	0xbc969f96	-0.018386643
172	0x3deac6bf	0.11463689
173	0x3e0d2556	0.13783774
174	0x3db11b81	0.08647824
175	0x3c3268b4	0.010889221
176	0xbe3dc002	-0.18530276
177	0xbe1fbd96	-0.15599665
178	0xbd3d8757	-0.04627165
179	0x3c89f5a0	0.016840756
180	0xbdbb2360	-0.091376066
181	0xbb29b058	-0.0025892463
182	0xbd565118	-0.05232343
183	0xbe4bbf53	-0.19897203
184	0xbda51b92	-0.08061899
185	0x3d8c4c94	0.068505436
186	0x3da91768	0.082564175
187	0x3d992484	0.07477668
188	0xbc8c531f	-0.017129479
189	0xbe192029	-0.14953674
190	0x3dd8bb3b	0.105825864
191	0x3e46ef49	0.19427218
192	0x3e1df3c6	0.15425023
193	0x3d9a4c27	0.07534056
194	0xbe1495dc	-0.14510292
195	0x3d3721a7	0.044709828
196	0x3d2220e4	0.03958215
197	0x3d79c8b7	0.060982432
198	0x3df66ed1	0.12032855
199	0x3d2214dc	0.039570674
200	0x3dbd1147	0.09231811
201	0xbd9d3127	-0.07675391
202	0xbe1925f7	-0.14955889
203	0xbe1f8833	-0.155793
204	0x3e29d534	0.16585237
205	0x3d82bd0b	0.06383713
206	0x3b12b5d4	0.002238621
207	0xbd1783d5	-0.03699096
208	0xbe3a7e72	-0.18212298
209	0x3d42e191	0.0475784
210	0xbd8d1592	-0.0688888
211	0x3db88e1f	0.090114824
212	0x3d5be821	0.053688172
213	0xbd824c82	-0.06362249
214	0xbe43ae17	-0.19109379
215	0x3cba1cc9	0.022718804
216	0x3e235beb	0.15953033
217	0x3e415a97	0.18882214
218	0x3e36d0a8	0.17853034
219	0x3d7a1b86	0.061061405
220	0x3babd79f	0.00524421
221	0x3df4d9f8	0.11955637
222	0x3db6be86	0.08923058
223	0x3d50234e	0.05081492
224	0x3da75e52	0.08172287
225	0x3ddfa250	0.109196305
226	0x3d2ab153	0.041673016
227	0xbcbeb8aa	-0.023281414
228	0x3c471fae	0.012153549
229	0x3d249120	0.040177464
230	0xbca59dd9	-0.02021687
231	0x3dd4b891	0.10386766
232	0x3d40187e	0.046898358
233	0xbd08eff3	-0.03343196
234	0x3d82de5c	0.06390068
235	0x3b1929e9	0.0023370928
236	0x3d975a4c	0.0739027
237	0xbd2ba538	-0.04190561
238	0xbcbd1bef	-0.023084609
239	0xbe056586	-0.1302701
240	0x3d5c37a1	0.05376399
241	0xbd8edba7	-0.06975489
242	0xbdf6c67a	-0.12049575
243	0xbdb8b559	-0.09018964
244	0xbc62688a	-0.013818869
245	0xbad95f2d	-0.0016584151
246	0xbc8fcb59	-0.017553018
247	0xbc6ddb0b	-0.014517556
248	0xbdb0e96c	-0.08638272
249	0x3da190e3	0.07888963
250	0xbc41e049	-0.011833259
251	0xbce125a1	-0.027483763
252	0xbd097f1e	-0.033568494
253	0x3c530eb0	0.01288192
254	0xbdf55953	-0.11979928
255	0x3e00325f	0.12519215

conv1.bias f4 [6]
0	0x3dfb0b6d	0.12258039
1	0xbc2419d7	-0.010015926
2	0xbd0590e5	-0.032608885
3	0x3d5fc334	0.05462952
4	0xbd4468e2	-0.047951587
5	0xbd222f0f	-0.03959566

conv2.weight f4 [16, 6, 5, 5]
0	0xbcd96a39	-0.026539909
1	0xbd904544	-0.07044461
2	0xbd16a00b	-0.036773723
3	0x3c876566	0.016527843
4	0x3c8ed4aa	0.01743539
5	0xbbe1ac0e	-0.0068869656
6	0xbd3e8c96	-0.046520792
7	0x3c4edfda	0.012626613
8	0xbd8894eb	-0.06669029
9	0xbd3f715f	-0.04673898
10	0x3d010a93	0.031504225
11	0x3d16de86	0.03683331
12	0x3d34d76a	0.044150747
13	0xbc9ab857	-0.018886728
14	0x3d960b0a	0.07326324
15	0x3d6fdc3d	0.058559645
16	0x3d8b11e1	0.067905195
17	0xbd5aabf0	-0.05338663
18	0x3d0ae6e8	0.033911616
19	0xbc89e23e	-0.016831513
20	0xbd1e27e0	-0.038612247
21	0xbce255f3	-0.027628874
22	0x3da80a0a	0.0820504
23	0xbb91efb4	-0.0044536237
24	0xbd2602ea	-0.040530123
25	0x3df43a7b	0.11925217
26	0x3d0d67fd	0.034523
27	0x3dc7bc69	0.09752733
28	0x3e2d4f84	0.16924864
29	0x3dcf252e	0.10114513
30	0x3e34d8a4	0.17660767
31	0x3e912c2b	0.2835401
32	0x3e7a2fea	0.2443234
33	0x3e53692b	0.20645587
34	0x3e0ddf54	0.13854724
35	0x3c4180ff	0.01181054
36	0x3d8fae79	0.070157
37	0x3c82a5cb	0.015948197
38	0x3c959c1a	0.018262912
39	0x3bc248b1	0.0059290756
40	0x3bfd821a	0.0077364566
41	0x3a7ba9b8	0.000960018
42	0x3ab6d631	0.0013949332
43	0xbd31aee7	-0.04337969
44	0x3d08f4e8	0.033436686
45	0xbe411516	-0.188557
46	0xbe6b60f0	-0.22986197
47	0xbe4d81c3	-0.20069031
48	0xbe6ba52f	-0.23012231
49	0xbde43137	-0.111421995
50	0xbc666a25	-0.014063393
51	0xbd058a56	-0.03260263
52	0xbcbb2eee	-0.022849526
53	0xbc1f1b5e	-0.009711115
54	0xbdb1c6d5	-0.08680502
55	0x3dfed181	0.124423034
56	0x3d026205	0.03183176
57	0x3dd867fa	0.10566707
58	0x3da0a9a5	0.07844857
59	0x3debfd4d	0.11522923
60	0x3dbf0681	0.093274124
61	0x3d962809	0.07331855
62	0x3e2be2a1	0.16785671
63	0x3e453698	0.19259107
64	0x3e5af7b2	0.21383551
65	0xbddf7bff	-0.10912322
66	0xbe223833	-0.15841751
67	0xbe2affde	-0.16699168
68	0xbd9043a4	-0.070441514
69	0xbce4da74	-0.027936198
70	0xbdd89fc9	-0.105773516
71	0xbdb8241b	-0.089912616
72	0xbe12425b	-0.14283125
73	0xbdaf97d8	-0.08573884
74	0xbcd338cf	-0.025783924
75	0x3db42218	0.08795565
76	0x3dd43fe9	0.103637524
77	0x3e2f2d9b	0.17107241
78	0x3e2cf836	0.1689156
79	0x3e1cc5bf	0.15309809
80	0x3c9a1515	0.01880888
81	0x3e03aca1	0.12858821
82	0x3a9e53a6	0.0012079373
83	0x3bfaebfc	0.007657526
84	0x3de8883d	0.113541104
85	0xbd3bd71d	-0.045859445
86	0xbc7bb09b	-0.01536193
87	0xbd23199f	-0.039819356
88	0x3dcf9cc5	0.10137323
89	0x3ccec183	0.025238758
90	0x3c30c82b	0.010789911
91	0xbe467e05	-0.1938401
92	0xbdb4ada1	-0.088221796
93	0xbde39be9	-0.11113722
94	0xbdb55cae	-0.08855568
95	0xbc9b70ac	-0.018974625
96	0xbdad3093	-0.084565304
97	0xbd9525cc	-0.072826
98	0xbe1f8720	-0.1557889
99	0xbdaf0e79	-0.08547682
100	0x3d1df034	0.038559154
101	0x3d8ea7df	0.069656126
102	0x3d48cdbf	0.04902434
103	0x3de7c8d3	0.11317601
104	0x3ded7d58	0.11596173
105	0xbc1992ad	-0.009373349
106	0xbcbd4bce	-0.023107436
107	0x3d96d5c5	0.07364992
108	0x3caa88d6	0.020817202
109	0x3d966149	0.073427744
110	0x3d42625c	0.047457084
111	0x3c87827a	0.016541708
112	0xbbd0a2e4	-0.0063670743
113	0x3aefdb6d	0.0018299647
114	0x3ce624a7	0.02809365
115	0xbde667a1	-0.112502344
116	0xbcf53443	-0.029932147
117	0x3cc1a77c	0.023639433
118	0xbdc2ce7b	-0.09512039
119	0x3dc85656	0.09782092
120	0xbdca3333	-0.09873047
121	0xbca15968	-0.019695953
122	0xbca56440	-0.020189404
123	0xbdb3abe5	-0.08773021
124	0x3d14407d	0.036194313
125	0x3d8e744d	0.06955776
126	0x3d399407	0.045307186
127	0xbda434f1	-0.0801791
128	0xbd9f89f7	-0.077899866
129	0xbdb74ef0	-0.08950603
130	0xbd808930	-0.062761664
131	0xbe1cab12	-0.15299633
132	0xbe60c8de	-0.21951625
133	0xbe57bdfe	-0.2106857
134	0xbe65b967	-0.22434007
135	0xbdc2f580	-0.09519482
136	0x3d18e960	0.03733194
137	0x3d27fa09	0.041009936
138	0x3c5b3c98	0.013381146
139	0xbd9cf91d	-0.07664702
140	0x3c8a85b9	0.016909467
141	0x3db19cfb	0.0867252
142	0x3e05077b	0.12991135
143	0x3d4a356d	0.049367357
144	0x3d0f988f	0.0350576
145	0xb9f40768	-0.00046544825
146	0x3e15c6c3	0.14626603
147	0x3d895e46	0.06707434
148	0x3d65f8f4	0.056145623
149	0x3d287954	0.041131333
150	0x3d786904	0.060647026
151	0x3da41337	0.080114774
152	0xbd4f37db	-0.050590377
153	0x3bc5dad0	0.0060380474
154	0xbc193984	-0.009352092
155	0x3df24106	0.118288085
156	0x3d3f9449	0.046772275
157	0x3da74163	0.081667684
158	0xbd1f8910	-0.038949072
159	0x3d9ddae8	0.07707769
160	0x3d9796b7	0.074017935
161	0xbc1a7a5e	-0.009428589
162	0x3dce3e1d	0.10070441
163	0x3d371d8c	0.044705912
164	0x3cea0b87	0.02856995
165	0x3dfb09c3	0.12257721
166	0xbc6de80e	-0.014520658
167	0x3dbd620d	0.09247217
168	0x3d07b19b	0.033128362
169	0xbd313e90	-0.043272555
170	0x3d5d2fe3	0.054000746
171	0x3d9984cb	0.074960314
172	0x3d85c6a5	0.06532029
173	0x3df344fa	0.118783906
174	0x3d9a7368	0.07541543
175	0xbe943303	-0.2894517
176	0xbec48366	-0.383815
177	0xbef01e91	-0.4689832
178	0xbee549d5	-0.44782892
179	0xbe960f2f	-0.2930846
180	0xbec02d34	-0.37534487
181	0xbec17a34	-0.37788546
182	0xbed735ba	-0.42033178
183	0xbef385bd	-0.47562972
184	0xbe964b87	-0.29354498
185	0xbe8c6602	-0.27421576
186	0xbeb15a4a	-0.34639198
187	0xbe822e50	-0.2542596
188	0xbe7ce7f1	-0.24697854
189	0xbe6022c4	-0.21888262
190	0xbe1fb0bd	-0.15594764
191	0xbde9cf9e	-0.11416553
192	0xbd3742ca	-0.04474143
193	0x3ab14f93	0.0013527743
194	0xbd11e512	-0.03561885
195	0xbe547950	-0.20749402
196	0xbe1ac43d	-0.15113921
197	0xbdce90ed	-0.10086236
198	0x3c96d93e	0.018414136
199	0xbd7d9221	-0.061906938
200	0xbd4a6eb2	-0.049421974
201	0xbd7d668a	-0.061865367
202	0xbe05030d	-0.12989445
203	0xbe189065	-0.14898832
204	0xbe2575d6	-0.16158232
205	0xbe27607b	-0.16345398
206	0xbe55d151	-0.20880629
207	0xbe96a234	-0.29420626
208	0xbe9ec89d	-0.3101243
209	0xbe5f1d38	-0.2178849
210	0xbdae7816	-0.08518998
211	0xbe173033	-0.1476448
212	0xbe3b37fb	-0.18283074
213	0xbd95c4a4	-0.07312897
214	0xbda76dbf	-0.08175229
215	0xbde7ac26	-0.113121316
216	0xbe2df4a5	-0.16987856
217	0xbd24e34b	-0.040255826
218	0xbdb8eb58	-0.09029263
219	0xbb2b86d7	-0.00261729
220	0xbc7ea7f8	-0.015542977
221	0x3ae3ec7b	0.0017389202
222	0x3c166a22	0.0091805775
223	0x3d0f6525	0.03500857
224	0xbd3b4b4e	-0.045726113
225	0xbe1d329c	-0.15351337
226	0xbd3b4087	-0.045715835
227	0xbcf6973c	-0.030101411
228	0x3c8aa692	0.01692513
229	0x3e07444f	0.13209651
230	0xbe0de44f	-0.13856624
231	0xbe38df9b	-0.18054049
232	0xbdffb729	-0.12486107
233	0xbdc0cbb0	-0.0941385
234	0x3dc25668	0.09489137
235	0xbe530292	-0.20606449
236	0xbe214b19	-0.15751304
237	0xbe1d3c73	-0.15355091
238	0x3d402acb	0.04691581
239	0x3d751ec1	0.059843782
240	0xbe08d5e0	-0.13362837
241	0xbe32e322	-0.17469457
242	0xbcab9f04	-0.020949848
243	0x3d3376db	0.04381452
244	0x3dc61ca8	0.096734345
245	0xbe3bc372	-0.18336275
246	0xbda6a9fe	-0.08137892
247	0xbda19ff2	-0.07891835
248	0x3d6ca90d	0.057778407
249	0x3c07732a	0.008267203
250	0xbd8a848e	-0.06763564
251	0xbd701ba1	-0.0586201
252	0xbd140d94	-0.03614576
253	0x3cb264bd	0.021776551
254	0x3d0e2b8c	0.0347095
255	0xbc10e65b	-0.0088439835

conv2.bias f4 [16]
0	0xbe22331f	-0.15839814
1	0xbd1db963	-0.038506877
2	0xbe17a2a2	-0.14808133
3	0x3dfbbb46	0.12291579
4	0x3e5bba9b	0.21457903
5	0xbd8154af	-0.0631498
6	0x3c6c67f6	0.014429083
7	0x3e481dd7	0.19542633
8	0x3e05f500	0.13081741
9	0xbdb0a89b	-0.08625909
10	0xbe66eb44	-0.22550684
11	0x3eaa19ee	0.33222908
12	0xbe08a179	-0.13342847
13	0x3d4d82b2	0.05017347
14	0x3e75ab6d	0.23991175
15	0xbd84b1e0	-0.064792395

fc1.weight f4 [120, 400]
0	0x3cd8d728	0.026469782
1	0x3d271940	0.040795565
2	0x3ce0c452	0.027437363
3	0x3cd0e593	0.025500095
4	0x3c9e8ffa	0.019355763
5	0xbe27bcf8	-0.1638068
6	0xbd4f591f	-0.050622102
7	0xbd8e66df	-0.06953215
8	0xbd56f384	-0.05247833
9	0xbd8e4824	-0.069473535
10	0xbe4695c7	-0.19393073
11	0xbe022ab0	-0.12711596
12	0xbe01e706	-0.12685785
13	0xbce536d2	-0.027980242
14	0xbc685754	-0.014180977
15	0xbd7fb40c	-0.062427565
16	0xbcd87b8b	-0.026426097
17	0xbbf4a14a	-0.007465516
18	0x3d68b10e	0.056809478
19	0x3d1fd70f	0.039023455
20	0xbd4e8fa8	-0.05042997
21	0xbcd34256	-0.025788467
22	0x3bc3aba1	0.0059713875
23	0xbc46c54e	-0.012132002
24	0xbcb3d6a5	-0.021952936
25	0x3dd4b778	0.103865564
26	0x3c942783	0.018085247
27	0x3d3db500	0.046315193
28	0x3da03fa0	0.078246355
29	0x3d98115f	0.07425188
30	0x3d634088	0.055481464
31	0x3ba2983e	0.0049619963
32	0x3d665b4b	0.056239408
33	0x3d9b2892	0.075760975
34	0xbcf7e286	-0.030259382
35	0x3d3fea00	0.04685402
36	0x3d135f41	0.035979513
37	0x3d74e208	0.059785873
38	0x3d3c2351	0.045932118
39	0xbc18ab2e	-0.009318156
40	0xbc26fa51	-0.010191516
41	0x3ca8ae56	0.020590942
42	0x3980470c	0.00024466997
43	0x3d95ba4f	0.07310926
44	0xbd4bd95c	-0.049767837
45	0x3d8021db	0.062564574
46	0x3d422f7f	0.047408577
47	0xbc70203b	-0.014656122
48	0xbcde881c	-0.027164511
49	0x3d1904ed	0.037358213
50	0x3da99bec	0.08281693
51	0x3d9ec7ec	0.07752976
52	0x3d41b66b	0.047293108
53	0x3c1dd589	0.00963343
54	0x3d8d8a93	0.069111966
55	0x3d94d7eb	0.072677456
56	0x3d025d5d	0.03182732
57	0xbc99a387	-0.018754734
58	0xbd8b2457	-0.06794041
59	0x3d3e47b7	0.04645511
60	0x3d8ba5d1	0.06818736
61	0xbc29a9d6	-0.010355433
62	0xbc059416	-0.008152982
63	0x3cafa8d5	0.02144281
64	0x3d213a0e	0.039362006
65	0x3daffc17	0.08593004
66	0x3d0fd263	0.03511275
67	0x3d8783af	0.066169135
68	0x3df39b8e	0.11894904
69	0x3d846c62	0.06465985
70	0x3dba026e	0.09082495
71	0x3da14e2d	0.07876239
72	0x3db647f5	0.089004435
73	0x3d95d520	0.07316041
74	0x3e032c31	0.12809826
75	0xbeacdd36	-0.3376252
76	0xbea30232	-0.31837612
77	0xbe380d66	-0.17973861
78	0xbe294ac8	-0.16532433
79	0xbde12807	-0.10993963
80	0xbe015986	-0.12631807
81	0xbe58c404	-0.21168524
82	0xbdd3146d	-0.1030663
83	0xbda19ef3	-0.07891645
84	0xbd17f4ab	-0.037098568
85	0xbc44e2bf	-0.012016951
86	0xbd245473	-0.0401196
87	0xbe031cea	-0.12803999
88	0xbdcbb266	-0.09946136
89	0xbd642498	-0.05569896
90	0x3d0272f0	0.031847894
91	0x3c91cdd1	0.017798336
92	0xbe019453	-0.12654237
93	0xbdf39889	-0.11894328
94	0xbd3504b5	-0.044193942
95	0x3d560125	0.052247185
96	0xbdb55a53	-0.088551186
97	0xbe30be58	-0.1726011
98	0xbe3d30f6	-0.18475708
99	0xbd9eefb8	-0.077605665
100	0x3c96f26d	0.018426144
101	0xba838795	-0.0010034913
102	0xbd4aa32c	-0.04947202
103	0xbd3111a6	-0.04322972
104	0xba5f027b	-0.00085071445
105	0x3b835514	0.004007945
106	0xbd2e6b62	-0.042582877
107	0xbd5b294a	-0.053506173
108	0x3d6fa1f1	0.05850405
109	0x3d1ae048	0.037811548
110	0x3c45e9f1	0.012079702
111	0x3d4c0615	0.049810488
112	0xbcecc7b6	-0.028903823
113	0x3d14deec	0.036345407
114	0x3d89a512	0.06720938
115	0xbc70cb1a	-0.014696861
116	0x3d9741d6	0.07385604
117	0x3d3fce22	0.046827443
118	0xbb82be6d	-0.0039899857
119	0x3c0e6c2d	0.008692783
120	0xbd857428	-0.06516296
121	0xbd40dc56	-0.04708513
122	0x3cdb534f	0.026773123
123	0x3c91493c	0.017735116
124	0xbcb13bf5	-0.021635035
125	0x3c3b19b0	0.011419699
126	0xbc432ad4	-0.0119120665
127	0x3c290302	0.0103156585
128	0x3c8b71fb	0.017022124
129	0x3d3cbbcb	0.04607753
130	0xbddb2157	-0.106997184
131	0xbcdb5004	-0.026771553
132	0xbdb0d4b4	-0.0863432
133	0xbdab9751	-0.08378471
134	0xbd7c7c10	-0.061641753
135	0xbd6601e4	-0.056154147
136	0x3d710e98	0.05885181
137	0x3ce32fce	0.027732756
138	0xb83a82c3	-4.4467637e-05
139	0xb9aab916	-0.00032562827
140	0xbd94a141	-0.07257319
141	0x3c2b401f	0.010452299
142	0x3dbba805	0.091629066
143	0x3bccd460	0.006250903
144	0xbca646c0	-0.020297408
145	0xbd202059	-0.03909335
146	0x3c814cc7	0.01578368
147	0x3cfd7a6a	0.03094216
148	0x3d62554b	0.055257123
149	0xbd6223b0	-0.055209816
150	0x3c1005b9	0.008790427
151	0xbd1ef975	-0.03881212
152	0xbd07b59b	-0.033132177
153	0x3d47773b	0.04869769
154	0x3d4752ee	0.048663072
155	0xbd0d58b3	-0.03450842
156	0xbb62aa8c	-0.0034586517
157	0xbd11f02d	-0.03562944
158	0x3ce13694	0.027491845
159	0x3d057e44	0.03259112
160	0x3cf50a8b	0.029912254
161	0x3c86abe0	0.016439378
162	0xbd577ca1	-0.05260909
163	0xbc99c4b6	-0.018770557
164	0x3dcf8bc3	0.10134079
165	0x3d9861f7	0.0744056
166	0x3b8effb5	0.0043639787
167	0xbad4882b	-0.0016214898
168	0xbc18f7d3	-0.00933643
169	0x3d1ff4c0	0.03905177
170	0x3d722821	0.0591203
171	0x3d48c9e9	0.04902068
172	0x3c4377e0	0.011930436
173	0x3cba4ca5	0.022741625
174	0x3cf7b321	0.030236783
175	0x3dbabef4	0.09118453
176	0xba8524ce	-0.0010158063
177	0xbca55bd1	-0.020185383
178	0x3c9e7596	0.019343179
179	0xbc014903	-0.0078909425
180	0x3d523f4a	0.05132989
181	0xbd94e12a	-0.07269509
182	0xbca90d28	-0.020636156
183	0x3cd2e862	0.025745574
184	0x3d20ff1e	0.0393058
185	0x3ccd5d0e	0.025068786
186	0xbda58843	-0.080826305
187	0xbda13593	-0.078715466
188	0xbc9f4d1f	-0.019445954
189	0xbb67fbf5	-0.003539798
190	0x3d007f2b	0.031371277
191	0xbcf367f3	-0.029712653
192	0xbcb2c330	-0.021821588
193	0xbd293ac9	-0.041315828
194	0xbbdf77c1	-0.0068196957
195	0x3caf7d73	0.021422124
196	0x3d1cfc9b	0.03832684
197	0xbc090956	-0.008364042
198	0x3d8ec33f	0.06970834
199	0x3e1219c1	0.14267637
200	0x3c9d9d63	0.019240087
201	0x3d14abed	0.036296774
202	0x3ddd742d	0.108131744
203	0x3d8f9ad3	0.07011952
204	0x3cb22fba	0.021751273
205	0xbd88a35e	-0.06671785
206	0xbde17f5e	-0.110106215
207	0xbd36f2c4	-0.044665113
208	0xbdc302d7	-0.09522026
209	0x3b1ee0a8	0.0024242792
210	0xbd7e9c3f	-0.062160727
211	0xbdc19e9c	-0.094540805
212	0xbe1cfc6c	-0.15330666
213	0xbd8c7097	-0.06857412
214	0xbd96a7ce	-0.07356225
215	0xbd76278a	-0.0600963
216	0xbe056f20	-0.13030672
217	0xbde4fdef	-0.111812465
218	0xbcebc574	-0.028780676
219	0xbd8bb723	-0.0682204
220	0xbc5f683b	-0.01363569
221	0xbda88fe3	-0.08230569
222	0xbca006a1	-0.01953441
223	0xbd572b22	-0.05253137
224	0xbc2e2984	-0.010630015
225	0x3df98a34	0.12184563
226	0xbcaff558	-0.021479294
227	0xbb533d3c	-0.0032232543
228	0x3b5a6a48	0.0033327509
229	0x3c11af35	0.00889187
230	0xba21e81d	-0.000617625
231	0xbdc01710	-0.09379399
232	0xbd383a76	-0.044977628
233	0xbdb037af	-0.08604371
234	0xbd4e0ec7	-0.05030706
235	0x3b60460b	0.0034221436
236	0xbcffd79c	-0.03123074
237	0xbda248ef	-0.07924067
238	0xbd74510f	-0.059647616
239	0x3bb950ce	0.0056553846
240	0xbd3b72b3	-0.045763683
241	0xbcd1c66a	-0.025607307
242	0x3c82c569	0.015963273
243	0xbcfe46d2	-0.03103963
244	0xbc0cf258	-0.008602701
245	0x3d5b69ce	0.0535677
246	0x3d462d76	0.0483832
247	0x3de28629	0.11060745
248	0x3dbb3b2f	0.09142148
249	0x3d5d14e6	0.05397501
250	0xbd07c605	-0.03314783
251	0x3bc97a9a	0.0061486484
252	0xbb198414	-0.0023424672
253	0x3d7b9ff5	0.061431844
254	0x3cc091c3	0.023507005
255	0x3e35b570	0.17744994

fc1.bias f4 [120]
0	0xbdb650f1	-0.08902157
1	0xbbab94f1	-0.005236261
2	0x3d6b822e	0.057497196
3	0xbdfd3dac	-0.123652786
4	0xbda610cf	-0.08108675
5	0x3e121f1c	0.1426968
6	0xbd139936	-0.036034785
7	0x3e21e448	0.15809739
8	0x3e0d62f6	0.13807282
9	0xbb75287d	-0.0037408166
10	0x3d13c39d	0.036075223
11	0xbe2a25e4	-0.16616017
12	0x3e16bfc9	0.14721598
13	0xbd14582e	-0.036216907
14	0x3e518006	0.20458993
15	0xbd051ac6	-0.032496236
16	0x3dad29a4	0.08455208
17	0x3db757f0	0.089523196
18	0x3e66da94	0.22544318
19	0x3e99b6ac	0.3002218
20	0x3e637ede	0.22216365
21	0xbd1aa04f	-0.03775054
22	0x3da66279	0.08124251
23	0x3aaebe35	0.0013331833
24	0x3ca6049b	0.020265868
25	0xbd85a71d	-0.06526015
26	0x3d0e46b1	0.034735385
27	0x3d51810d	0.051148463
28	0x3b99f702	0.004698635
29	0x3b98505b	0.004648251
30	0xbd4bbf20	-0.049742818
31	0x3e07ed50	0.13274121
32	0x3e5c6178	0.21521556
33	0x3c8c321f	0.017113743
34	0x3da043c6	0.07825427
35	0x3c783f3d	0.015151796
36	0xbc8da77b	-0.017291775
37	0x3cba5ad6	0.022748392
38	0x3e12aef1	0.14324547
39	0xbd2aab8e	-0.041667514
40	0x3cb8ffdd	0.022582943
41	0xbc2c1834	-0.010503817
42	0xbe397b4b	-0.18113439
43	0x3d636c97	0.05552348
44	0x3d89ff66	0.067381665
45	0x3e1a35bb	0.15059559
46	0xbe2cf43c	-0.16890043
47	0xbe8f76bf	-0.28020284
48	0xbe8a4be2	-0.2701102
49	0x3d00ad38	0.031415194
50	0xbc3c8ba0	-0.011507899
51	0x3a9eaa55	0.0012105206
52	0x3ca03eb9	0.019561158
53	0x3cb4570e	0.022014167
54	0x3e3fa63d	0.18715759
55	0x3d8110c5	0.06302027
56	0x3e04baf1	0.12961937
57	0xbe15cd6d	-0.14629145
58	0xbd0f8f0c	-0.03504853
59	0x3e0ae48b	0.13563745
60	0x3e1cea30	0.1532371
61	0xbd6bc9cb	-0.05756549
62	0x3d816e18	0.06319827
63	0xbe5e11fc	-0.21686548
64	0xbe2327d6	-0.15933165
65	0xbc98fce9	-0.018675284
66	0x3de4125c	0.11136314
67	0x3e095926	0.13412914
68	0x3deafa83	0.114735626
69	0xbd72c288	-0.05926755
70	0xbe03da0e	-0.1287615
71	0xbab9a6e5	-0.0014164118
72	0x3b01aa4f	0.001978535
73	0xbd51518e	-0.051103167
74	0x3db818d4	0.089891106
75	0x3e314590	0.17311692
76	0xbe066b6a	-0.13126913
77	0x3d2bd5a5	0.041951794
78	0x3e38c7c7	0.18044959
79	0x3ba2318d	0.0049497546
80	0x3e05a0b4	0.13049585
81	0xbd0d3882	-0.03447772
82	0xbcf77a52	-0.030209694
83	0xbd114746	-0.035468362
84	0x3e0f6288	0.1400243
85	0xbd49ed0b	-0.049298327
86	0x3c7c0320	0.015381604
87	0x3aa93b2f	0.0012911315
88	0x3d147408	0.03624347
89	0xbb85db0b	-0.00408495
90	0xbe3bd39a	-0.18342438
91	0x3e1b8728	0.15188277
92	0xbde77d4a	-0.11303194
93	0xbce0384b	-0.027370593
94	0x3e26f034	0.16302568
95	0x3dad7a93	0.08470645
96	0x3e0ac282	0.13550761
97	0xbcdc3e1a	-0.026885081
98	0xbe39de65	-0.18151243
99	0xbdcb9a0a	-0.0994149
100	0xbd2804b0	-0.041020095
101	0xbd06d201	-0.03291512
102	0xbdb9a03c	-0.090637654
103	0xbd2905aa	-0.041265167
104	0xbe0573fb	-0.13032524
105	0xbd160f1b	-0.0366355
106	0xbe4e39f3	-0.20139293
107	0x3e6323da	0.22181645
108	0x3e374021	0.17895557
109	0x3e8333ce	0.2562546
110	0x3caa38f6	0.020779114
111	0x3d305843	0.043052923
112	0xbde2fc22	-0.11083247
113	0x3e0b66a7	0.13613378
114	0xbdb3a6d1	-0.08772052
115	0xbbde49aa	-0.006783684
116	0x3b9e7955	0.0048362412
117	0xbd3d233c	-0.04617618
118	0x3b7a09a2	0.0038152714
119	0xbdf63799	-0.12022323

fc2.weight f4 [84, 120]
0	0xbcdb474c	-0.026767395
1	0x3c82b9c9	0.01595773
2	0xbcc9e65a	-0.024645973
3	0x3d5e0c54	0.054210976
4	0xbcecf3f0	-0.028924912
5	0x3e1ef11e	0.15521666
6	0x3c554052	0.013015823
7	0x3e205b03	0.15659718
8	0x3be35a3f	0.0069382484
9	0x3d94bcee	0.07262598
10	0xbd28995e	-0.041161887
11	0x3d45757d	0.04820775
12	0xbe24e028	-0.16101134
13	0x3d996420	0.074898005
14	0xbd17bd35	-0.037045676
15	0xbd8b8648	-0.068127215
16	0x3dacc9d9	0.08436937
17	0xbc1ef960	-0.00970301
18	0xbe0a1099	-0.13482894
19	0x3e3b8c18	0.1831516
20	0x3d0af205	0.033922214
21	0xbdb5cd45	-0.08877043
22	0xbdbf2b78	-0.09334463
23	0xbe4bb029	-0.19891419
24	0x3d84a271	0.06476296
25	0xbd9c1b90	-0.07622445
26	0x3dcb83a3	0.09937217
27	0x3d5ba968	0.053628355
28	0x3d8969ff	0.0670967
29	0x3e0e3b4c	0.13889807
30	0xbe666c74	-0.22502309
31	0xbca18b87	-0.019719852
32	0x3e1271e3	0.14301257
33	0xbdade230	-0.084904075
34	0x3ac31a3b	0.0014885137
35	0xbdeafa60	-0.114735365
36	0x399febc8	0.00030502514
37	0x3dcea713	0.10090461
38	0x3db3c66f	0.087780826
39	0xbd0edc41	-0.03487802
40	0x3c589715	0.0132196145
41	0xbb5f4428	-0.0034067724
42	0xbd9a0652	-0.07520737
43	0x3e331661	0.17489006
44	0x3d53571f	0.051596757
45	0xbd865da8	-0.06560832
46	0xbd4ab47d	-0.049488533
47	0x3cb532f3	0.022119021
48	0x3c846d0f	0.016165284
49	0xbc798499	-0.015229368
50	0xbd722c09	-0.059124026
51	0x3bccde00	0.0062520504
52	0xbba2879f	-0.004960015
53	0x3d175602	0.036947258
54	0xbd12a500	-0.035801888
55	0x3cfd06a3	0.030886954
56	0x3e353641	0.17696477
57	0x3d1af794	0.037833765
58	0xbcd259d7	-0.025677605
59	0xbdbf05c0	-0.093272686
60	0xbde4e66a	-0.111767605
61	0xbd48e567	-0.0490469
62	0xbdff8e8b	-0.1247836
63	0x3e264cca	0.1624023
64	0x3de9f65f	0.11423945
65	0xbd95ff4b	-0.07324084
66	0x3cb78e80	0.022406816
67	0x3d85c121	0.06530977
68	0x3ddd5f14	0.1080915
69	0x3c4a6112	0.012352245
70	0x3e258e18	0.16167486
71	0xbe05c661	-0.13063957
72	0x3d0096ea	0.031393923
73	0xbe08a0fd	-0.13342662
74	0x3e22d5cf	0.15901874
75	0x3d170415	0.036869127
76	0x3d737bdb	0.05944429
77	0x3cea55e1	0.028605403
78	0xbe04d6f4	-0.12972623
79	0xbcc99472	-0.024606917
80	0x3d4ecf24	0.050490513
81	0xbca3ca2b	-0.019993862
82	0xbc58afc8	-0.013225503
83	0x3e692f36	0.22771916
84	0x3e2fb4bc	0.17158788
85	0x3d254729	0.040351067
86	0xbd461ed4	-0.048369244
87	0xbc06c9b7	-0.0082268035
88	0xbc041964	-0.008062694
89	0xbdaa0a8b	-0.08302792
90	0x3de94bc5	0.11391405
91	0xbd23fc0b	-0.04003529
92	0x3dd34728	0.10316306
93	0x3cded990	0.027203351
94	0xbe58823f	-0.21143435
95	0xbc920ef3	-0.017829394
96	0x3e61d8e5	0.22055395
97	0xbd8065c8	-0.06269413
98	0x3ca13e2a	0.019682962
99	0xbd68ec89	-0.056866203
100	0x3d4284d8	0.04748997
101	0x3c734528	0.014848031
102	0xbda4563a	-0.08024259
103	0xbdc7400b	-0.09729012
104	0xbd63ee01	-0.0556469
105	0xbcfabe93	-0.030608451
106	0x3e7c0b3b	0.24613659
107	0xbe724cd6	-0.23662123
108	0x3e3732a7	0.17890416
109	0x3ccedcd1	0.025251778
110	0xbdd7c4f6	-0.10535614
111	0x3e24f98a	0.16110817
112	0x3da15361	0.078772314
113	0x3bfddd82	0.007747353
114	0x3d8e8ae5	0.06960086
115	0xbdd2bd02	-0.10289957
116	0x3c7b87fa	0.015352244
117	0x3dcbdc1b	0.09954091
118	0x3dcb3517	0.099222355
119	0x3cc60ced	0.024176085
120	0xbdb2c04c	-0.08728084
121	0xbd5c5d68	-0.053800017
122	0x3d92ecbf	0.07174062
123	0x3d434295	0.04767092
124	0x3b88f95f	0.004180118
125	0xbe57e026	-0.210816
126	0x3e3a08e3	0.18167453
127	0x3dff4373	0.12464037
128	0xbddada02	-0.10686113
129	0xbd890958	-0.06691235
130	0xbd21a6b2	-0.039465614
131	0x3dd530c7	0.10409694
132	0x3e8dc50e	0.27689403
133	0x3d81138b	0.06302556
134	0xbc63d554	-0.013905842
135	0x3ba12b34	0.0049184803
136	0x3e179d7a	0.14806166
137	0x3bc1acf9	0.0059105125
138	0x3da2e449	0.07953698
139	0x3c7839db	0.015150513
140	0xbd673aac	-0.05645244
141	0x3e04a8fb	0.12955086
142	0x3de855b1	0.11344469
143	0x3e61dc92	0.22056797
144	0x3db18e77	0.08669751
145	0x3d865d88	0.065608084
146	0x3dd89835	0.10575906
147	0x3dc50ab7	0.09621184
148	0x3cd628ce	0.026142504
149	0xbd087de6	-0.03332319
150	0xbd826a66	-0.0636795
151	0xbc253fa4	-0.010085974
152	0xbe5dada4	-0.2164827
153	0x3d41bc0c	0.047298476
154	0xbcb8bed4	-0.022551931
155	0x3d8722ef	0.0659846
156	0x3de6e167	0.11273461
157	0x3cc2e318	0.023789927
158	0x3d756dbf	0.059919115
159	0x3a0e15d6	0.0005420124
160	0x3d5f6b85	0.054545898
161	0x3e0b853a	0.1362504
162	0x3e041909	0.12900175
163	0xbe38d6b2	-0.1805065
164	0x3d7e7687	0.062124755
165	0x3c069ed8	0.008216582
166	0xbd73f34c	-0.059558198
167	0x3d54bece	0.051939778
168	0xbdcc6c35	-0.09981576
169	0x3d9501b6	0.07275717
170	0x3c14f8fd	0.009092567
171	0xbd9669e2	-0.07344414
172	0xbd327c46	-0.043575548
173	0xbe44c265	-0.1921478
174	0xbd2de973	-0.042458963
175	0x3d862513	0.0655004
176	0x3e037ca9	0.12840523
177	0xbd8d9fa1	-0.069152124
178	0x3ceb1b74	0.028699614
179	0x3d04d1b5	0.032426555
180	0xbde15a65	-0.110035695
181	0x3d7d9575	0.06191011
182	0xbd8a4e5d	-0.06753228
183	0x3e4946d5	0.19655927
184	0x3c78898d	0.015169513
185	0xbcb14d02	-0.021643165
186	0x3e4bb65f	0.19893788
187	0x3a13b396	0.00056343654
188	0x3d1867a9	0.037208233
189	0xbd56745f	-0.052357074
190	0x3beb0be0	0.0071730465
191	0x3d9b0fe2	0.07571389
192	0xbdc15732	-0.09440459
193	0x3e027c81	0.12742807
194	0xbc82f138	-0.015984163
195	0x3d7c0ead	0.061537433
196	0x3a52d9b2	0.00080433034
197	0xbdb16a32	-0.08662833
198	0xbd78eb33	-0.06077118
199	0x3c84f29e	0.01622897
200	0xbd998f49	-0.074980326
201	0xbcfa0722	-0.03052098
202	0xbd47e41e	-0.048801534
203	0xbda09809	-0.078414984
204	0xbe0bc5fa	-0.13649741
205	0xbd73f730	-0.05956191
206	0x3e267e71	0.16259171
207	0xbb10d5f2	-0.0022100178
208	0xbca00808	-0.01953508
209	0x3db715a1	0.08939672
210	0x3e1f7ad5	0.155742
211	0x3ddf9cc6	0.10918574
212	0x3db4e2f1	0.08832348
213	0xbda45ed0	-0.080258965
214	0x3e7f8c28	0.24955809
215	0xbd02d80f	-0.03194433
216	0xbe39408b	-0.18091027
217	0x3cde3ddf	0.027129112
218	0xbd2783ad	-0.04089706
219	0xbda42ab6	-0.08015959
220	0x3da27101	0.0793171
221	0xbc7bf94c	-0.015379261
222	0x3c84730c	0.01616814
223	0x3d9e96c2	0.077435985
224	0x3d8d851f	0.069101565
225	0x3dfdafe5	0.12387065
226	0xbea902d2	-0.33009964
227	0xbd917ea5	-0.07104234
228	0xbcaea262	-0.021317665
229	0xbd341195	-0.04396208
230	0x3e28e28b	0.1649267
231	0xbdb491a3	-0.088168405
232	0x3c7ee6c0	0.015557945
233	0xbcdd3ac5	-0.027005563
234	0xbd0724c6	-0.032994054
235	0x3d9a47b4	0.075332075
236	0x3c3726d3	0.01117869
237	0xbd6fe648	-0.058569223
238	0xbd03b862	-0.032158263
239	0x3dabf0b3	0.08395519
240	0x3e7ddc5c	0.24791092
241	0xbdabc5ae	-0.08387314
242	0x3df4cc27	0.119530015
243	0x3da11c12	0.07866682
244	0xbd331f90	-0.043731272
245	0xbd63c829	-0.05561081
246	0xbd17d4fd	-0.037068356
247	0xbdc8e4e2	-0.09809281
248	0xbd91d000	-0.07119751
249	0xbd8a1c0d	-0.067436315
250	0x3e955653	0.29167423
251	0x3c9cbfdb	0.019134453
252	0x3d2f2f31	0.042769615
253	0xbd9f135a	-0.07767363
254	0xbdc065e5	-0.09394435
255	0xbcaffe34	-0.021483518

fc2.bias f4 [84]
0	0x3dc8bf64	0.0980213
1	0x3d61adcd	0.05509739
2	0x3d27cbf1	0.040965978
3	0xbb8489cc	-0.004044747
4	0x3d09947e	0.03358888
5	0x3e82aa2d	0.2552046
6	0x398a7d3a	0.00026414712
7	0xbe1e5286	-0.15461168
8	0x3d8eefab	0.06979307
9	0xbe1c788f	-0.15280364
10	0x3e7be6d1	0.24599768
11	0xbe5006f1	-0.20315148
12	0x3e04204c	0.12902945
13	0xbd137b0c	-0.03600602
14	0x3dcf8ec8	0.10134655
15	0xbddaa6ed	-0.1067637
16	0x3e363565	0.17793806
17	0x3e6cc357	0.23121391
18	0xbd820c68	-0.063500226
19	0x3ea6b1f6	0.32557648
20	0x3b808fb6	0.0039233817
21	0xbcbec67a	-0.023288
22	0x3cc1258c	0.023577474
23	0xbcd42bb3	-0.025899744
24	0x3ddc0b4a	0.10744341
25	0xbd0f139d	-0.034930814
26	0xbe0e9f25	-0.13927896
27	0x3e89fdf0	0.2695155
28	0x3da1c172	0.07898225
29	0xbbbbd04c	-0.005731618
30	0x3e905f9d	0.28197947
31	0xbd9fab10	-0.077962995
32	0xbd99b706	-0.07505612
33	0xbb5393a8	-0.0032284055
34	0xbe66eae9	-0.22550549
35	0x3e2d9017	0.16949497
36	0xbc480f05	-0.012210612
37	0x3df8e558	0.12153119
38	0x3d733b6e	0.05938285
39	0x3d4057f4	0.04695888
40	0x3dbc0f23	0.091825746
41	0xbc94144f	-0.01807609
42	0xbb944526	-0.0045248447
43	0x3d2f4ee5	0.04279985
44	0xbe1cd43b	-0.15315334
45	0x3cbe43c6	0.023225676
46	0x3d3e6b65	0.04648914
47	0xbce8a39f	-0.028398333
48	0xbdc73d88	-0.09728533
49	0xbd85f814	-0.06541458
50	0xbe4f3f73	-0.20239048
51	0x3dcd6b0d	0.10030184
52	0x3cb5dc68	0.022199824
53	0x3e440984	0.19144255
54	0xbda8d72e	-0.08244167
55	0x3e179423	0.14802603
56	0x3df3e9f8	0.119098604
57	0x3d9d1e5a	0.07671805
58	0x3db29b81	0.08721066
59	0x3e0c1ee4	0.13683659
60	0xbd41cb21	-0.04731286
61	0xbc7422e8	-0.0149009
62	0xbd719894	-0.0589834
63	0xbd3409c3	-0.043954622
64	0x3e035d70	0.12828612
65	0x3dcda2b1	0.100407965
66	0xbe0feed5	-0.14055951
67	0xbe1407b0	-0.14456058
68	0x3cad9380	0.021188498
69	0x3d8b5dee	0.06805025
70	0x3e0cfefa	0.13769141
71	0xbd974a13	-0.073871754
72	0x3d70aaa2	0.058756478
73	0xbe70a706	-0.23501214
74	0xbd74a3f9	-0.05972669
75	0x3d90a16b	0.07062038
76	0x3bdb7956	0.006697814
77	0x3e1a7e8c	0.15087336
78	0xbc985c01	-0.018598558
79	0xbcf5484a	-0.029941697
80	0xbdd84176	-0.10559361
81	0x3e2e6afc	0.17032999
82	0xbcc2ce0c	-0.023779891
83	0x3e633c88	0.2219106

fc3.weight f4 [10, 84]
0	0xbe12ff8e	-0.14355299
1	0xbd9cd3da	-0.07657595
2	0x3e18b8a5	0.14914186
3	0x3e4eaac5	0.20182331
4	0xbd4c7d20	-0.049924016
5	0xbe84ac09	-0.25912502
6	0xbdc4280b	-0.0957795
7	0x3ed01b58	0.40645862
8	0xbd901c79	-0.07036681
9	0x3d1d060e	0.038335852
10	0xbe507a5c	-0.20359176
11	0x3e22e315	0.15906937
12	0x3e04fac4	0.12986284
13	0x3e065feb	0.13122527
14	0xbe36c789	-0.17849554
15	0x3c9dd7d5	0.019267956
16	0xbee7b6e4	-0.45256722
17	0xbda43d50	-0.08019507
18	0x3ce9dba9	0.028547125
19	0x3e04af45	0.12957485
20	0xbdaaeb74	-0.0834569
21	0xbd740d1c	-0.059582815
22	0xbcb1d221	-0.021706643
23	0x3e65bf8f	0.22436355
24	0x3df09cc3	0.1174865
25	0x3ea00ce3	0.31259832
26	0x3e12648c	0.14296168
27	0xbe229cf8	-0.15880191
28	0xbe83003e	-0.25586122
29	0x3dbdb240	0.09262514
30	0x3d4d44e0	0.050114512
31	0xbd509191	-0.050920073
32	0xbd5b64a4	-0.053562775
33	0xbdcb5b60	-0.09929538
34	0x3eebc9e8	0.4605248
35	0xbd9d2c7a	-0.07674499
36	0xbdece597	-0.11567228
37	0xbdf083fa	-0.117439225
38	0xbe942ac8	-0.2893889
39	0xbe931d7a	-0.28733426
40	0xbe40f644	-0.18843943
41	0x3dc5e001	0.09661866
42	0xbdde21d1	-0.10846294
43	0x3daae7f8	0.08345026
44	0x3bf46316	0.007458101
45	0xbe5282f6	-0.2055777
46	0xbe0d4c4d	-0.13798638
47	0xbe151b3a	-0.14561167
48	0x3e394b30	0.18095088
49	0xbd9ace7d	-0.07558916
50	0x3e735635	0.23763354
51	0x3ddf92e3	0.10916688
52	0x3e0dc14a	0.13843265
53	0x3df6a3c8	0.120429575
54	0xbcabde14	-0.020979919
55	0xbea8f00b	-0.32995638
56	0xbe227a12	-0.15866879
57	0xbcc2ce15	-0.023779908
58	0x3e8f92f1	0.28041795
59	0xbcb0a538	-0.021563157
60	0x3dd96013	0.10614028
61	0xbdee557b	-0.11637398
62	0xbd53bcfa	-0.051693894
63	0xbdf52192	-0.11969294
64	0xbcfef964	-0.031124778
65	0xbe2c65d6	-0.16835722
66	0xbd0b7ed1	-0.03405649
67	0x3edc9112	0.4307943
68	0x3ba70843	0.0050974204
69	0x3e6be6af	0.23037218
70	0xbe7141d6	-0.2356027
71	0xbdc17ec4	-0.09448007
72	0xbc1fe384	-0.009758834
73	0x3e329474	0.17439443
74	0xbd27f594	-0.041005686
75	0x3df31237	0.118687086
76	0xbda1ee05	-0.07906727
77	0x3e97b2ed	0.29628697
78	0x3ec1aabb	0.3782557
79	0x3e058780	0.1303997
80	0x3d2e307f	0.04252672
81	0x3dc150c8	0.09439236
82	0x3dda1dd4	0.106502205
83	0x3da5b499	0.08091087
84	0xbcf3282f	-0.029682247
85	0x3d90363c	0.070415944
86	0xbe4c6ca6	-0.19963321
87	0xbe053f8e	-0.13012525
88	0x3e096051	0.13415648
89	0xbec2e99d	-0.38068858
90	0xbe327107	-0.17425929
91	0xbd279799	-0.04091606
92	0xbea33251	-0.31874326
93	0x3e0073a9	0.12544121
94	0xbe032de5	-0.12810476
95	0x3e3b8ccb	0.18315427
96	0x3e309e50	0.17247891
97	0x3e0b7931	0.1362045
98	0xbe9edba3	-0.31026945
99	0xbe534d46	-0.20634946
100	0x3e10a25e	0.14124438
101	0xbe8eac45	-0.27865806
102	0xbc37e9c9	-0.011225172
103	0x3d5e0124	0.054200307
104	0xbd0137d9	-0.0315474
105	0xbae0bc39	-0.0017145938
106	0x3d5ca964	0.05387248
107	0xbee2528e	-0.4420361
108	0xbe53a23b	-0.20667355
109	0x3d4e6d7d	0.050397385
110	0xbe7b387c	-0.24533266
111	0xbea3bba9	-0.3197911
112	0x3e11a25e	0.14222094
113	0xbe2b3d97	-0.16722713
114	0xbe6e5892	-0.23275974
115	0x3da30b6f	0.07961165
116	0xbe9438b1	-0.28949502
117	0xbd399fef	-0.04531854
118	0xbc221666	-0.0098930355
119	0x3e1d89a6	0.1538454
120	0xbd615900	-0.055016518
121	0xbe43f1f2	-0.19135264
122	0xbe8230c8	-0.25427842
123	0x3e7ba8ef	0.24576162
124	0xbdfd4053	-0.123657845
125	0x3c995c2f	0.018720714
126	0x3e0707ad	0.13186522
127	0xbd8278ff	-0.063707344
128	0xbe672551	-0.22572829
129	0x3d8ea41a	0.06964894
130	0x3dae48da	0.08509989
131	0xbe103e75	-0.14086325
132	0x3d54faef	0.05199712
133	0xbe960a88	-0.2930491
134	0x3ccd4804	0.025058754
135	0xbe9acee8	-0.30235982
136	0xbe72884b	-0.23684804
137	0xba4d935e	-0.0007842089
138	0xbe28371d	-0.16427274
139	0x3d121a35	0.035669524
140	0x3e403da7	0.18773519
141	0x3e312e09	0.17302717
142	0x3dc8c5f4	0.098033816
143	0xbefe8934	-0.49714053
144	0xbe23b4fa	-0.15987006
145	0x3e318666	0.17336425
146	0x3e61acbb	0.22038548
147	0xbe70c3eb	-0.23512237
148	0x3ce850ed	0.0283589
149	0x3ca8cdf3	0.020606017
150	0xbc5a2c26	-0.01331619
151	0x3dffff9b	0.12499925
152	0x3cefb8b4	0.029262878
153	0xbe01c0dc	-0.12671226
154	0x3e2480c5	0.16064747
155	0x3ca29aba	0.01984917
156	0x3e029f6b	0.12756126
157	0xbe0aa9e1	-0.13541366
158	0xbe25bcbe	-0.1618528
159	0xbe774c27	-0.24150144
160	0xbe634f34	-0.22198182
161	0xbe8bf246	-0.27333277
162	0xbeec9ee3	-0.4621497
163	0x3cd6a718	0.026202723
164	0xbe36d859	-0.17855968
165	0x3ca6bbdf	0.020353256
166	0xbdb37897	-0.08763235
167	0x3c00f46b	0.007870774
168	0x3e27a00a	0.16369644
169	0xbd2ccc0e	-0.04218679
170	0x3e826701	0.2546921
171	0xbd19324b	-0.03740148
172	0x3dbe0643	0.09278538
173	0xbdb8f5b4	-0.09031239
174	0xbdb89f84	-0.090148
175	0x3e38a68a	0.1803228
176	0xbdc99166	-0.09842186
177	0x3db82e78	0.08993238
178	0xbabff2a9	-0.0014644462
179	0xbe2f0872	-0.17093065
180	0xbdf5a70f	-0.119947545
181	0xbdd21019	-0.10256977
182	0x3cd081b5	0.025452474
183	0x3ec46ea4	0.38365662
184	0x3d9e5d81	0.07732678
185	0x3d206472	0.039158292
186	0xbd0f2924	-0.034951344
187	0x3d959e93	0.07305636
188	0xbe27d5c8	-0.16390145
189	0x3d4129da	0.047159053
190	0xbe72a135	-0.23694308
191	0x3da585ce	0.08082162
192	0x3c428ded	0.011874658
193	0x3b68fa2e	0.003554951
194	0x3dd3762f	0.10325276
195	0x3e63835f	0.22218083
196	0x3e808324	0.25100052
197	0x3d917ac9	0.071034975
198	0x3ea16540	0.3152256
199	0xbda39762	-0.07987858
200	0x3e5b0ce0	0.2139163
201	0x3c910114	0.01770071
202	0xbe935a1c	-0.28779685
203	0xbe0432f3	-0.1291006
204	0xbc242d46	-0.01002056
205	0x3cc2c97c	0.023777716
206	0xbdab6dcc	-0.083705515
207	0x3d34ecbe	0.044171087
208	0xbdf07880	-0.117417336
209	0xbd498773	-0.04920144
210	0xbceca6a0	-0.028888047
211	0xbda42304	-0.08014491
212	0xbe2087ed	-0.15676852
213	0xbd1677bb	-0.036735278
214	0xbcd7abbb	-0.026327005
215	0x3dc46bda	0.095908836
216	0x3e9ebefc	0.31005085
217	0xbe6d440d	-0.2317049
218	0x3e672072	0.2257097
219	0xbe0dae69	-0.13836063
220	0x3d5e3084	0.054245487
221	0x3e5186ad	0.20461531
222	0x3e1c3ac6	0.15256795
223	0xbd1684a9	-0.03674761
224	0xbe67d915	-0.22641404
225	0xbe0dc55a	-0.13844815
226	0xbe13c096	-0.14428934
227	0x3d3a4c1d	0.045482744
228	0x3dce00b2	0.10058726
229	0xbcad81cc	-0.021180056
230	0x3d2202db	0.039553504
231	0x3d726d3e	0.059186213
232	0x3d1f0dba	0.03883145
233	0xbd18afd1	-0.037277047
234	0x3e8b683d	0.27227965
235	0xbda0d478	-0.07853025
236	0x3cd8ae33	0.026450252
237	0xbe266d1f	-0.16252564
238	0x3e39b9c9	0.18137278
239	0xbe3be5f0	-0.18349433
240	0xbd126413	-0.03573997
241	0x3e163746	0.14669523
242	0xbe53095d	-0.2060904
243	0x3e5b8cf3	0.21440487
244	0xbda4b03d	-0.08041427
245	0x3c6bcbf2	0.014391886
246	0x3ea23a47	0.31685087
247	0xbe20da8f	-0.15708373
248	0x3e8eae17	0.27867195
249	0x3db74312	0.089483395
250	0x3ea7c87f	0.32770154
251	0x3e5195da	0.2046732
252	0x3ddace5f	0.106838934
253	0xbdde37cf	-0.108504884
254	0xbdb61a4a	-0.08891733
255	0xbcb123b9	-0.02162348

fc3.bias f4 [10]
0	0xbe908c7d	-0.28232184
1	0x3b04e5fe	0.0020278688
2	0xbda48e17	-0.08034914
3	0x3ca7f85d	0.020504171
4	0x3d969943	0.07353451
5	0xbd5c10d5	-0.05372699
6	0xbcfff4ae	-0.031244602
7	0xbd0cb428	-0.034351498
8	0x3d8722a9	0.06598408
9	0x3c20af9a	0.009807492
