resources/lenet_e5b128_clean_model.pt (torch_old, 249645 bytes, 10 tensors)

conv1.weight f4 [6, 3, 5, 5]
0	0xbdeb9052	-0.11502136
1	0x3d691468	0.056904227
2	0x3cc6a428	0.024248198
3	0xbdd3059c	-0.10303804
4	0xbdce1022	-0.10061671
5	0xbc8c6d6a	-0.017142016
6	0x3dd50ef4	0.10403243
7	0x3dba43e2	0.09094979
8	0x3d2f0b11	0.042735163
9	0xbc42966e	-0.011876686
10	0x3d9bcf5c	0.0760791
11	0x3d36e658	0.044653267
12	0x3d77e02f	0.060516533
13	0xbddc417b	-0.10754677
14	0xbd0640c1	-0.032776598
15	0x3cc73cc9	0.024320977
16	0xbd22eb89	-0.039775405
17	0x3d0008b4	0.0312583
18	0x3d87dce0	0.066339254
19	0x3c427e5a	0.011870945
20	0x3e062a39	0.13102044
21	0x3dd004c8	0.10157162
22	0xbd84faa7	-0.06493121
23	0x3cb5f79f	0.022212802
24	0x3dc7fbcf	0.097648256
25	0x3d8d6048	0.0690313
26	0xbdd943f7	-0.106086664
27	0xbaa21b88	-0.0012367824
28	0xbda80a78	-0.08205122
29	0xbc00acfc	-0.007853743
30	0xbc656079	-0.014000052
31	0xbdc03735	-0.0938553
32	0x3d10c915	0.035348017
33	0x3d8837c3	0.06651261
34	0x3d461f3b	0.048369627
35	0xbd2d76e7	-0.042349722
36	0xbb478feb	-0.0030450772
37	0xbd96535c	-0.07340118
38	0xbdd3e9d7	-0.10347336
39	0x3da01d4f	0.0781809
40	0xbd4540a2	-0.04815734
41	0xbd97c4b7	-0.07410567
42	0x3d9d113e	0.07669304
43	0x3dae7727	0.0851882
44	0x3dd49a2c	0.103809685
45	0x3db3ab12	0.087728634
46	0x3db82c66	0.08992843
47	0x3def7c70	0.116936564
48	0x3da1d7c1	0.0790248
49	0x3dd8179e	0.105513796
50	0x3de1cd54	0.11025491
51	0xbcc3ba1e	-0.023892459
52	0x3dccfb40	0.1000886
53	0xbd180c05	-0.037120838
54	0x3dc847b6	0.09779303
55	0x3c8da1b9	0.01728903
56	0xbd6ad364	-0.057330504
57	0x3dbe3c42	0.09288837
58	0xbd3c5524	-0.045979634
59	0x3dfcd4db	0.123452865
60	0x3da3d065	0.079987325
61	0xbd46946e	-0.048481397
62	0x3d28871c	0.041144475
63	0xbd3e939b	-0.046527486
64	0x3dcfe629	0.101513214
65	0xbc9454e1	-0.01810688
66	0x3db4fd97	0.08837431
67	0x3d8cbe40	0.06872225
68	0xbd8f9686	-0.07011132
69	0x3d424bf1	0.047435705
70	0x3d4154b1	0.04719991
71	0x3cd588ac	0.026066147
72	0x3cf8f433	0.03038988
73	0xbc7792b5	-0.015110661
74	0xbd309a62	-0.04311598
75	0xbd00ed88	-0.031476527
76	0x3d6a4a3e	0.05719971
77	0x3beb0844	0.007172616
78	0xbd141392	-0.036151476
79	0x3bda3179	0.0066587296
80	0xbd873de6	-0.06603603
81	0x3dedece4	0.11617449
82	0x3d9f3a82	0.07774831
83	0x3cc6d2d2	0.024270449
84	0x3df6d29b	0.120518886
85	0xbcb3fe63	-0.021971887
86	0xbd12c7ec	-0.03583519
87	0x3d815015	0.063141026
88	0x3a744e7f	0.0009319558
89	0x3d8a77ec	0.067611545
90	0x3bcc6ef5	0.006238813
91	0x3d84e741	0.06489421
92	0x3da61e59	0.08111257
93	0xbd9a1fe9	-0.07525618
94	0x3d088e70	0.033338964
95	0xbd3455e5	-0.044027228
96	0xbdb72277	-0.089421205
97	0xbd5d6861	-0.05405462
98	0x3de46454	0.111519486
99	0xbcc993bc	-0.024606578
100	0x3e077b9d	0.13230748
101	0xbcdfc027	-0.027313305
102	0x3c133077	0.008983723
103	0x3e137979	0.14401807
104	0x3e107fa4	0.14111191
105	0xbb87633e	-0.0041317036
106	0x3cd2571f	0.025676308
107	0xbd4ff669	-0.050772104
108	0x3d7da839	0.061928008
109	0x3d9e0275	0.077153124
110	0x3e1077af	0.14108156
111	0xbd93abe4	-0.0721052
112	0x3c033cf7	0.008010141
113	0x3bcab935	0.006186629
114	0x3dd12728	0.102125466
115	0x3d0d9299	0.034563635
116	0xbc261d8b	-0.0101388795
117	0x3d9453a3	0.07242515
118	0x3d63c39e	0.055606477
119	0xbd1cf48e	-0.038319163
120	0x3e08b487	0.13350116
121	0xbc7ce7ba	-0.015436107
122	0xbd0a4b4a	-0.033763207
123	0x3d85fa2c	0.06541857
124	0xbcb2c252	-0.021821175
125	0x3d84092b	0.06447061
126	0x3da101bc	0.07861659
127	0x3dbcb2b9	0.09213776
128	0x3d2e5de3	0.042570006
129	0xbc1db759	-0.009626233
130	0x3e0afcce	0.13573
131	0x3dd5f0b1	0.10446299
132	0x3ca2aef6	0.019858819
133	0xbd39e3f0	-0.045383394
134	0xbd8edc78	-0.06975645
135	0xbd8e79d0	-0.06956828
136	0x3da6e96e	0.08149992
137	0xbdaf26b2	-0.085523024
138	0x3df55e1a	0.11980839
139	0xbc50af28	-0.012737073
140	0xbcb77f96	-0.022399705
141	0xbd9a59c0	-0.0753665
142	0x3e00b890	0.12570405
143	0xbb8bfc6b	-0.004272034
144	0xbd1e39a2	-0.03862918
145	0x3aab0a3b	0.0013049314
146	0x3daaa964	0.0833309
147	0x3c0dc0c5	0.008651917
148	0x3d6b59ae	0.057458572
149	0x3d9f390b	0.07774552
150	0xbd33cb77	-0.04389521
151	0x3ca43ac1	0.020047547
152	0x3d234389	0.03985933
153	0xbd1764c9	-0.03696135
154	0x3d895aae	0.06706749
155	0xbc23b36a	-0.009991506
156	0x3e2dcb6f	0.16972135
157	0x3de435b7	0.11143058
158	0x3e2bdc00	0.16783142
159	0x3d14202e	0.0361635
160	0x3d8ab0bf	0.06771993
161	0xbccc802f	-0.024963466
162	0x3e093e92	0.13402775
163	0x3de97f80	0.11401272
164	0x3dca67ee	0.09883104
165	0xbc9360b4	-0.017990448
166	0xbd2129f5	-0.039346654
167	0xbd11c266	-0.035585783
168	0x3d85ac49	0.065270014
169	0x395b0271	0.00020886377
170	0x3d178992	0.03699643
171	0xbced3189	-0.028954284
172	0xbdc2041b	-0.09473439
173	0xbd8671e3	-0.06564691
174	0x3de99c80	0.11406803
175	0xbdcf56c1	-0.10123969
176	0xbda8709b	-0.08224603
177	0xbbf8a8b8	-0.007588472
178	0x3c42704d	0.011867595
179	0x3d935feb	0.07196029
180	0xbd881837	-0.066452436
181	0x3cfe3fc4	0.031036265
182	0x3da56028	0.08074981
183	0x3d61dc41	0.05514169
184	0x3e123c80	0.14280891
185	0xbc521dda	-0.0128245
186	0x3e0888e7	0.13333474
187	0xbd5f7e28	-0.05456367
188	0x3e17b92b	0.1481673
189	0xbbc5aa10	-0.006032236
190	0xbdbf0e63	-0.09328916
191	0x3d26775a	0.040641166
192	0x3d5653b6	0.052325927
193	0x3cda8a78	0.026677355
194	0x3d90b017	0.070648365
195	0x3d529e53	0.05142052
196	0xbdd7fb44	-0.10545972
197	0x3db35eeb	0.087583385
198	0x3c861c6a	0.01637097
199	0xbda1a7ed	-0.078933574
200	0x3d942927	0.07234412
201	0x3cccaa76	0.024983626
202	0xbda1f5c3	-0.079082035
203	0xbd3c6ccf	-0.046002205
204	0xbd82be7b	-0.063839875
205	0x3de4b3f0	0.11167133
206	0x3d0295d3	0.031881165
207	0x3d66e7df	0.056373473
208	0x3da6b5c7	0.0814014
209	0x3db7e676	0.08979504
210	0x3d92bc8d	0.071648695
211	0x3ca3327b	0.019921532
212	0x3ce4cf04	0.027930744
213	0x3e198848	0.14993393
214	0x3e0fa321	0.14027072
215	0x3d7c797c	0.061639294
216	0x3e04392f	0.12912439
217	0xbd8838d7	-0.06651466
218	0xbc13bd3e	-0.009017287
219	0xbc8b1746	-0.016978871
220	0xbd89aab9	-0.06722016
221	0x3db736ea	0.08946021
222	0xbd90e8ed	-0.07075677
223	0xbd82bf62	-0.063841596
224	0xbc151cb0	-0.009101078
225	0xbcb1a05c	-0.02168291
226	0xbcab5328	-0.020913675
227	0xbda67c68	-0.08129197
228	0x3d891ece	0.06695329
229	0xbd467512	-0.04845149
230	0x3dce4984	0.10072616
231	0x3d2de217	0.042451944
232	0x3d26ecd9	0.04075322
233	0xbd80cd40	-0.06289148
234	0x3d8e241d	0.06940482
235	0xbc838681	-0.016055347
236	0x3cb22610	0.021746665
237	0x3de7085e	0.11280893
238	0xbc4e763e	-0.012601433
239	0x3dfe229c	0.12408945
240	0x3d06635d	0.032809604
241	0x3dcecc09	0.1009751
242	0x3c4edb23	0.012625488
243	0xbd7e750f	-0.062123355
244	0x3ddd4406	0.1080399
245	0x3c0ae048	0.008476324
246	0x3df53a9d	0.1197407
247	0xbd53924d	-0.051653195
248	0x3dfd4b10	0.12367833
249	0xbda7033e	-0.08154915
250	0x3dfeaa55	0.12434832
251	0x3db652bf	0.08902501
252	0xbd2a2e7c	-0.041548237
253	0x3d259352	0.0404237
254	0xbce683af	-0.028138964
255	0xbd62fcaf	-0.05541676

conv1.bias f4 [6]
0	0xbd81204b	-0.063049875
1	0x3dd7e4a7	0.10541659
2	0xbdda9d94	-0.10674587
3	0x3d1db529	0.038502846
4	0x3d7b3866	0.061333083
5	0x3db07d35	0.08617631

conv2.weight f4 [16, 6, 5, 5]
0	0x3c8cac89	0.017172115
1	0x3d453002	0.048141487
2	0xbca3c44c	-0.019991063
3	0xbd537a0c	-0.051630065
4	0x3bf5fd7a	0.0075070234
5	0xbcc2b237	-0.02376662
6	0x3d1bb2e4	0.0380124
7	0x3b8d84f1	0.0043188264
8	0x3d0e835e	0.03479325
9	0x3cc9f2fc	0.024651997
10	0x3d8e74aa	0.06955846
11	0xbc4de577	-0.012566916
12	0x3da9b74e	0.08286916
13	0x3dc7b682	0.097516075
14	0x3ca79e1f	0.02046114
15	0x3b175fb6	0.002309782
16	0xbca5643e	-0.0201894
17	0x3da3c799	0.079970546
18	0xbd516d1a	-0.051129438
19	0x3dc144d0	0.09436953
20	0x3dd10991	0.10206903
21	0x3dd27df7	0.10277932
22	0x3dca244c	0.09870204
23	0x3db4c7b4	0.08827153
24	0x3cad3cc6	0.021147143
25	0x3d89c4e4	0.06727007
26	0x3caab8d9	0.020840095
27	0x3d99af8f	0.07504188
28	0x3d9131c5	0.07089571
29	0x3d70a7c8	0.05875376
30	0x3d11a497	0.035557356
31	0xbce72f89	-0.028220909
32	0x3db8cbe2	0.090232626
33	0xbd019f5f	-0.03164613
34	0xbd47fced	-0.048825193
35	0x3dc83d94	0.0977737
36	0xbced572b	-0.028972229
37	0x3c6b5b9a	0.014365101
38	0xbd43cd7a	-0.04780338
39	0x3d587b56	0.052851997
40	0x3a1bd7ff	0.00059449667
41	0x3d93d254	0.07217851
42	0xbd693372	-0.056933828
43	0xbcb95f90	-0.022628576
44	0x3c8255a8	0.015909985
45	0xbd1b920d	-0.03798108
46	0x3cb947ad	0.022617185
47	0xbce28603	-0.027651792
48	0xbca11bb4	-0.01966653
49	0x3d6df789	0.058097396
50	0x3d50ec66	0.051006697
51	0x3dc8b7d1	0.09800685
52	0xbadb16b5	-0.0016715141
53	0x3c2a866f	0.010408028
54	0x3da93791	0.082625516
55	0x3daaa4a2	0.083321825
56	0x3d96c950	0.07362616
57	0x3da448c7	0.08021694
58	0x3d83933b	0.06424566
59	0x3d714e74	0.05891271
60	0x3d2703b2	0.04077501
61	0x3d70eea7	0.058821347
62	0x3da42811	0.080154546
63	0xbcb30824	-0.021854468
64	0xbc1d6e78	-0.009608857
65	0x3d5e8f25	0.054335732
66	0xbadbd90c	-0.0016773059
67	0xbd8ececc	-0.06973037
68	0xbbcac2e7	-0.006187785
69	0x3c18b9bf	0.009321629
70	0xbd1d80c4	-0.03845288
71	0xbd4bdbbb	-0.0497701
72	0x3d9c8c17	0.076439075
73	0xba481391	-0.000763231
74	0x3d5e1f32	0.05422897
75	0xbb2a13b3	-0.0025951683
76	0x3c67de91	0.014152185
77	0xbd57fa47	-0.052728917
78	0xbda3f978	-0.08006567
79	0x3d1af636	0.03783246
80	0xbd8df208	-0.069309294
81	0xbb4f46c8	-0.0031627882
82	0xbd3b3252	-0.045702286
83	0xbd9ecb6a	-0.07753642
84	0x3cbcbfae	0.023040619
85	0x3d939b66	0.07207374
86	0xbcdf9800	-0.027294159
87	0xbbb2f7f9	-0.0054616896
88	0xbda1801d	-0.07885764
89	0x3d10a609	0.035314593
90	0xbd4d7c2a	-0.05016724
91	0x3b55a1d5	0.003259768
92	0xbd38af9e	-0.045089357
93	0xbc6de7c5	-0.01452059
94	0x3d9f3ff1	0.07775868
95	0x3d1eac4b	0.03873853
96	0xbd4f3bc0	-0.05059409
97	0x3d4ede0c	0.05050473
98	0xbd8574fa	-0.06516452
99	0x3d40f34e	0.047107033
100	0xbcfacef9	-0.03061627
101	0xbb9286cb	-0.004471635
102	0xbd26da3e	-0.040735476
103	0xbcff9dc5	-0.03120316
104	0x3cc89912	0.024487052
105	0xbdc3c414	-0.09558883
106	0x39891088	0.00026142993
107	0xbdda3b7f	-0.10655879
108	0xbdd8ff84	-0.10595611
109	0xbdf964dc	-0.121774405
110	0xbcbc0723	-0.022952622
111	0xbdc9c046	-0.098511264
112	0x3b2e305c	0.0026579117
113	0xbd64d0f1	-0.055863325
114	0xbd4f9730	-0.050681293
115	0xbdae439b	-0.085089885
116	0xbd56d587	-0.05244973
117	0x3d738cbd	0.05946039
118	0x3d9e3cef	0.07726466
119	0xbd404474	-0.046940282
120	0x3d460977	0.04834887
121	0xbd0671f5	-0.03282352
122	0xbce5530c	-0.027993701
123	0x3ca4650a	0.02006771
124	0xbd633d28	-0.055478245
125	0x3d298eeb	0.041396063
126	0xbd40e3e3	-0.04709233
127	0x3c167f97	0.009185693
128	0x3d2e095d	0.0424894
129	0x3d4d7d54	0.05016835
130	0x3d3b944d	0.045795728
131	0xbcb0e970	-0.021595687
132	0xbb9a58b1	-0.00471028
133	0x3c192d63	0.0093492
134	0xbd9309b0	-0.07179582
135	0x3d889ade	0.066701636
136	0xbcee7c04	-0.02911187
137	0x3d1a695d	0.03769814
138	0x3cf5bb97	0.029996676
139	0xbda06eba	-0.078336194
140	0xbd81f16c	-0.06344876
141	0xbc425b7a	-0.01186263
142	0xbd688c43	-0.05677439
143	0xbd85145e	-0.06498025
144	0x3d6ae66d	0.057348657
145	0xbcbf6df4	-0.02336786
146	0xbd754d5e	-0.059888236
147	0x3cdba820	0.026813567
148	0xbd8fb70e	-0.07017337
149	0xbd42000f	-0.047363337
150	0xbc96341d	-0.018335396
151	0x3d9989b1	0.07496966
152	0x3d0f5cca	0.0350006
153	0x3ce26361	0.027635278
154	0x3db87866	0.09007339
155	0xbc8a398d	-0.016873145
156	0x3d688d9b	0.05677567
157	0x3d689648	0.056783944
158	0xbd61efe7	-0.05516043
159	0xbd35bd5c	-0.04437004
160	0xbd0d4fd3	-0.034499954
161	0x3daa8f20	0.0832808
162	0x3d129604	0.035787597
163	0x3d6f7ff3	0.05847163
164	0xbc5b0a38	-0.013369136
165	0xbcb69866	-0.022289466
166	0x3d4bfad9	0.049799774
167	0x3da34157	0.07971447
168	0x3cad6d6a	0.021170337
169	0xbd41c543	-0.047307264
170	0xbcef4e34	-0.029212095
171	0xbcc3bd02	-0.023893837
172	0x3d0d67a5	0.03452267
173	0x3dc8ba7b	0.09801193
174	0xbbf10f13	-0.0073565333
175	0xbca90bfa	-0.020635594
176	0xbd782723	-0.0605842
177	0xbd911dac	-0.070857376
178	0xbd098a2e	-0.033579044
179	0xbd9640af	-0.07336556
180	0xbdaf10aa	-0.085481
181	0x3d4ddf68	0.050261885
182	0x3d5cb60c	0.05388455
183	0xbcb0e28a	-0.021592397
184	0xbbde6770	-0.006787233
185	0xbd3fcf1b	-0.04682837
186	0xbd6fa6d1	-0.058508698
187	0x3d97ed08	0.07418257
188	0x3d948747	0.072523646
189	0xbd12f576	-0.03587862
190	0xbcbaf6b2	-0.022822712
191	0x3cee54b3	0.029093122
192	0xbcd011e4	-0.025399156
193	0x3d3edc61	0.04659689
194	0xbd061ead	-0.0327441
195	0xbd926d4a	-0.071497515
196	0x3c88b29b	0.016686728
197	0x3c753d1d	0.014968184
198	0xbc741f52	-0.0149000455
199	0xbd2edb5c	-0.042689666
200	0xbd1517c2	-0.03639961
201	0x3cab75d4	0.020930208
202	0x3db4b92a	0.0882438
203	0x3d0e68d9	0.03476796
204	0x3cdfd500	0.027323246
205	0x3daaef63	0.08346441
206	0xbd448d79	-0.04798648
207	0x3d6d7524	0.057973042
208	0x3dc4d842	0.096115604
209	0x3cb51ca9	0.022108393
210	0xbbcc6f32	-0.0062388415
211	0x3da954f6	0.08268158
212	0xbd21496c	-0.03937666
213	0x3dbc4fba	0.09194894
214	0xbb779ba2	-0.0037781973
215	0x3da3f5e3	0.080058835
216	0x3d75b3cc	0.05998592
217	0xbcb85408	-0.022501007
218	0x3d5b9508	0.053608924
219	0x3d0aa1e9	0.033845816
220	0x3d893d25	0.067011155
221	0x3db9ed82	0.09078504
222	0x3d29be08	0.041440994
223	0x3d833803	0.06407168
224	0xbcdff3c1	-0.02733791
225	0xbcfdf2f2	-0.030999634
226	0xbcfeb8d5	-0.031093994
227	0x3d9dfc70	0.07714164
228	0x3da993a0	0.0828011
229	0x3d9878e7	0.07444935
230	0xbdf26932	-0.11836471
231	0xbca1fb7c	-0.019773237
232	0xbd0f3241	-0.034960035
233	0x3cf8925a	0.030343223
234	0x3d97ace0	0.0740602
235	0x3a54406d	0.00080967584
236	0xbd727073	-0.05918927
237	0x3a2287c8	0.00062000426
238	0x3d248b22	0.04017175
239	0xbd947f33	-0.07250824
240	0xbdb54ae2	-0.088521734
241	0xbd039f9b	-0.032134634
242	0x3d31f205	0.0434437
243	0xbd520746	-0.051276468
244	0x3ce1865d	0.02752989
245	0xbbadcb49	-0.0053037745
246	0xbd9ab90a	-0.07554825
247	0xbce197b9	-0.027538167
248	0x3cb30b74	0.021856047
249	0x3db75fe5	0.08953837
250	0x3dee76d1	0.11643756
251	0x3d084563	0.033269297
252	0x3c23e322	0.010002883
253	0xbd0a60c2	-0.03378368
254	0x3db95a2b	0.09050401
255	0x3da52b15	0.08064858

conv2.bias f4 [16]
0	0x3d5e354f	0.054250058
1	0xbd7bac93	-0.061443876
2	0x3d96f9b6	0.07371847
3	0xbd41f504	-0.047352806
4	0x3bfc0aed	0.007691732
5	0x3d54f9f2	0.05199618
6	0x3d453efc	0.04815577
7	0xbc2b7bbf	-0.010466515
8	0x3dbcbc11	0.09215558
9	0x3d740bc4	0.059581533
10	0xbd49b8d1	-0.04924852
11	0xbda1ec59	-0.07906408
12	0xbd8722fe	-0.06598471
13	0xbd399651	-0.04530937
14	0x3d8ecc39	0.06972546
15	0x3d6fde96	0.058561884

fc1.weight f4 [120, 400]
0	0xbca375a0	-0.019953549
1	0x3d33b0f4	0.043869928
2	0x3c86ad0c	0.016439937
3	0xbce7a462	-0.028276626
4	0xbca82967	-0.020527555
5	0xbd151649	-0.036398206
6	0xbcab83d9	-0.020936893
7	0xbcccb72a	-0.024989683
8	0xbd01b270	-0.031664312
9	0x3d1200b9	0.03564522
10	0xbc137211	-0.0089993635
11	0xbd07ef74	-0.033187345
12	0x3b97f900	0.0046378374
13	0xbcf09ee1	-0.029372634
14	0xbc5f25f6	-0.01361989
15	0xbcc089c2	-0.023503188
16	0xbbbcafd7	-0.0057582664
17	0x3d1b4d02	0.037915237
18	0xbd381a8b	-0.04494719
19	0x3cab314a	0.020897526
20	0x3d4f640d	0.050632525
21	0xbc4a1fbc	-0.012336668
22	0xbd0ee5b5	-0.034887034
23	0x3d0aed99	0.033917997
24	0xbcb3bd56	-0.021940868
25	0x3d3bfd56	0.045895897
26	0x3d6d0965	0.057870287
27	0x3d0d655b	0.03452049
28	0x3b961e0f	0.00458122
29	0x3cf08e60	0.029364765
30	0x3d8e0185	0.069338836
31	0x3c110acb	0.008852671
32	0x3d66f99a	0.056390382
33	0x3bd8a2cb	0.0066112033
34	0x3d8c6e59	0.06856985
35	0xbb969b86	-0.0045961766
36	0xbc9a1266	-0.018807601
37	0xbc1d6140	-0.009605706
38	0x3d4b8f9e	0.04969751
39	0x3d95b4a0	0.07309842
40	0xbcb32fe3	-0.02187342
41	0xbc2cb87e	-0.010542033
42	0x3d1bcaa8	0.038035065
43	0x3d8aafc6	0.067718074
44	0x3ce15816	0.027507823
45	0x3cdca5c0	0.026934505
46	0xbd23350d	-0.039845515
47	0x3d22149b	0.039570432
48	0x3d6535bc	0.05595945
49	0xbc2ce064	-0.010551546
50	0xbc7d1647	-0.015447206
51	0x3c8b582a	0.017009813
52	0x3da59cd1	0.08086551
53	0x3b0604db	0.0020449671
54	0xbd3524be	-0.044224493
55	0xbc51f0b9	-0.01281374
56	0x3d911cc8	0.07085568
57	0x3d3247c0	0.043525457
58	0xbb863425	-0.0040955716
59	0x3ca4dfe6	0.020126294
60	0x3c6f4987	0.014604933
61	0x3c8e60ae	0.017380085
62	0x3c1d31ce	0.009594394
63	0x3cd5d957	0.026104612
64	0xbb2d475c	-0.0026440239
65	0xbb667ae8	-0.0035168473
66	0xbd2fdc1c	-0.042934522
67	0xbd352aab	-0.044230144
68	0xbd7861d2	-0.060640164
69	0xbcbbcd3c	-0.022925012
70	0xbb085d46	-0.0020807548
71	0xbc0708fd	-0.008241889
72	0xbc2e9df0	-0.010657772
73	0xbc9812bf	-0.018563626
74	0xbc334d8b	-0.010943781
75	0xbcc00eb3	-0.02344451
76	0x3d62e2f9	0.05539224
77	0x3d3be931	0.045876686
78	0x3d47bf01	0.04876614
79	0xbb968194	-0.0045930836
80	0x3cd64e4e	0.026160385
81	0xbcdda949	-0.02705826
82	0x3c36d435	0.011158993
83	0x3d25f7b2	0.040519424
84	0xbd231af0	-0.03982061
85	0x3d3ee41e	0.04660427
86	0xbcf91607	-0.030406011
87	0x3cd6f2b7	0.026238782
88	0xba931a31	-0.0011223016
89	0xbc53eed1	-0.012935356
90	0x3bb88579	0.0056311456
91	0x3c890e86	0.016730558
92	0x3c9eb4ed	0.019373382
93	0xbd039822	-0.032127507
94	0x3ccc1470	0.02491209
95	0x3d5d885f	0.05408513
96	0xbc97024c	-0.018433712
97	0x3cb670a8	0.022270516
98	0x3d1ab955	0.037774403
99	0x3d904364	0.07044104
100	0x3cb6b90c	0.022305034
101	0x3b9cdea1	0.0047872816
102	0x3d57ea0e	0.052713446
103	0x3c17314a	0.00922806
104	0xbc79d808	-0.01524926
105	0xbb9b6c8c	-0.0047431644
106	0xbbb8bc32	-0.005637669
107	0x3c903951	0.017605456
108	0x3d42e523	0.047581803
109	0x3cd64588	0.026156202
110	0x3d338e47	0.043836858
111	0x3d8ab1af	0.06772172
112	0x3ce7e29f	0.028306304
113	0x3cc3c1e8	0.023896173
114	0x3c65c22d	0.014023346
115	0x3c18e9b6	0.009333065
116	0x3da3c850	0.07997191
117	0x3d037d81	0.03210211
118	0xba9cfa38	-0.0011976426
119	0x3ac580e3	0.0015068318
120	0xbbc4cbb1	-0.006005727
121	0x3d95b618	0.07310122
122	0x3d3ae01b	0.04562388
123	0xbcc93804	-0.024562843
124	0x3c97f4cd	0.018549347
125	0x3d23d3eb	0.039997023
126	0xbc3a67f5	-0.011377324
127	0x3d5f4e77	0.05451819
128	0x3c8d9451	0.017282637
129	0xbc4950a6	-0.0122872945
130	0x3c1891a6	0.009312069
131	0x3a8e36dc	0.001085009
132	0x3cf12bcf	0.029439835
133	0x3cbed4e5	0.023294875
134	0x3cd9fead	0.026610697
135	0xbabb5358	-0.0014291806
136	0x3d4e241f	0.050327417
137	0xbc48e142	-0.012260737
138	0xbd453425	-0.048145432
139	0x3d36ae60	0.04459989
140	0xbd47d57c	-0.04878758
141	0x3d0d6698	0.03452167
142	0x3c4641a1	0.012100608
143	0xbd0c8ab8	-0.03431198
144	0xbc9d0b37	-0.019170387
145	0x3a8d0864	0.0010759947
146	0xbd3b5eb2	-0.045744605
147	0xbcf66a57	-0.030080004
148	0xbd6815f0	-0.056661546
149	0xbd5d6822	-0.054054387
150	0x3d45a412	0.048252173
151	0x3d1bdeb7	0.038054194
152	0xbca4cbe6	-0.020116758
153	0xbccf5feb	-0.025314292
154	0x3c5709e8	0.01312492
155	0x3b215564	0.0024617547
156	0x3ca32c54	0.019918598
157	0xbd141c9d	-0.0361601
158	0x3cc21840	0.023693204
159	0xbd13d48b	-0.03609137
160	0x3c6e664f	0.014550759
161	0xbd000899	-0.0312582
162	0xbb32bc9d	-0.0027273067
163	0x3bf0a0bb	0.0073433793
164	0xbcde8f8c	-0.027168058
165	0xbd08295b	-0.033242565
166	0x3d21e3ca	0.039523877
167	0xbd2abb68	-0.04168263
168	0x3d3ff7ec	0.046867296
169	0x3d4af0e7	0.04954615
170	0x3c7f6f37	0.0155904805
171	0xbbabf46f	-0.0052476446
172	0xbcc00dd3	-0.023444092
173	0x3c65aefa	0.014018768
174	0xbd078a78	-0.03309104
175	0x3b98b376	0.0046600653
176	0x3d31bd5a	0.04339347
177	0x3d48c35f	0.049014445
178	0xbc88f118	-0.016716525
179	0x3c27d1f4	0.010242928
180	0xbd117d87	-0.035520103
181	0x3d2f1d84	0.042752758
182	0x3d2ce49f	0.042210218
183	0x3d71ffb4	0.059081748
184	0x3d40a679	0.04703376
185	0xbbbd52cc	-0.0057776924
186	0xbd0b9d7d	-0.03408574
187	0x3c6bbf4a	0.014388869
188	0xbc8124ce	-0.01576462
189	0x3bf8954b	0.0075861565
190	0x3d2323c7	0.03982904
191	0xbc891b11	-0.01673654
192	0x3d211f1c	0.03933631
193	0xbcdc5184	-0.026894338
194	0x3b9e1486	0.004824224
195	0xbd29bf7f	-0.04144239
196	0xbd4c55e3	-0.049886595
197	0x3a88c78d	0.0010435447
198	0xbc947921	-0.018124165
199	0xbcd9b672	-0.026576255
200	0x3d2c5839	0.042076323
201	0xbd1e0551	-0.03857929
202	0x3d02ace7	0.031903174
203	0x3be53bff	0.0069956775
204	0x3cadcfe7	0.0212173
205	0x3d15f624	0.03661169
206	0xbd3d5780	-0.046226025
207	0xbc1a0c1a	-0.009402299
208	0xbbd9f065	-0.0066509717
209	0xbbf336da	-0.0074223103
210	0x39a7f80c	0.00032037531
211	0xbcbcc8d7	-0.023044987
212	0x3d04f29d	0.032457937
213	0xbd834d8e	-0.06411277
214	0xbcfe89a7	-0.031071497
215	0x3bbf1379	0.0058311787
216	0xbbd26d26	-0.006421703
217	0x3b9e94e9	0.004839529
218	0xbc50cede	-0.0127446335
219	0x3c619367	0.013768054
220	0x3d16707c	0.036728367
221	0x3d0fa0de	0.035065524
222	0xbcf5333d	-0.029931659
223	0xbc71d3e6	-0.014759993
224	0x3d14b4f0	0.036305368
225	0x3d4a8fc6	0.04945352
226	0x3cfa0c01	0.030523302
227	0x3d6042a8	0.05475107
228	0x3d15406c	0.03643839
229	0xbca8a7ab	-0.020587763
230	0x3c1b077c	0.009462234
231	0x3d2fc65a	0.042913772
232	0x3d0f79b6	0.035028182
233	0x3c9b9337	0.018991096
234	0xbce35467	-0.027750207
235	0xbc8d542f	-0.017252056
236	0xbbe4c2b5	-0.0069812187
237	0x3cd03f8b	0.025420925
238	0x3d08d19d	0.033403028
239	0x3d0ba0b3	0.0340888
240	0xbcd431b4	-0.025902607
241	0xbd54d662	-0.051962264
242	0x3cffa558	0.031206772
243	0x3b580af2	0.0032965508
244	0x3bb63323	0.005560295
245	0xbc8fb3bf	-0.017541764
246	0xbdbaad70	-0.09115112
247	0xbdb4a9a8	-0.08821422
248	0xbae84e2d	-0.0017723494
249	0xbb9d7aa7	-0.004805881
250	0x3dd5cbf6	0.10439293
251	0x3da7dbe1	0.081962354
252	0x3d9271c9	0.07150609
253	0x3c9bd4bf	0.019022344
254	0x3de2b95a	0.11070509
255	0x3d00fa1a	0.031488515

fc1.bias f4 [120]
0	0xbb919bc8	-0.0044436194
1	0x3d026fdf	0.03184497
2	0x3cc01125	0.023445675
3	0x3ad17c00	0.001598239
4	0xbd86ab4c	-0.06575641
5	0x3da34491	0.079720624
6	0xbcad43bb	-0.02115046
7	0x3cadfbbc	0.0212382
8	0xbd00c98b	-0.031442206
9	0x3d830c8f	0.0639888
10	0x3d718bee	0.058971338
11	0x3cef76df	0.029231487
12	0xbd33fe69	-0.043943796
13	0xbca4d56a	-0.020121295
14	0x3c4d3fcc	0.012527417
15	0xbbd8c20d	-0.0066149295
16	0x3c2ec720	0.010667592
17	0xbcd653d6	-0.026163023
18	0x3d96a3c1	0.07355452
19	0x3c3b67bb	0.0114383055
20	0x3c4bb90e	0.012434257
21	0xbd564bd7	-0.05231842
22	0xbd4a8fd8	-0.049453586
23	0x3d16cb7c	0.03681515
24	0x3d180fe4	0.03712453
25	0xbd4ff8f8	-0.050774544
26	0xbc7d6eb3	-0.015468287
27	0xbd25f78e	-0.04051929
28	0xbc0f3e2e	-0.008742852
29	0x3d18831f	0.03723442
30	0x3bc35046	0.005960497
31	0x3d2873b1	0.041125957
32	0x3d1e8cfa	0.038708664
33	0x3b6afbae	0.003585558
34	0xbd27bb17	-0.040949907
35	0xbbb8eaf9	-0.0056432453
36	0x3c92d207	0.017922414
37	0x3c941d35	0.018080333
38	0xbbf1ac72	-0.0073752934
39	0xbc1b35dc	-0.00947329
40	0xbcc9bbf5	-0.024625758
41	0x3cf59273	0.029977059
42	0x3c16bbbc	0.009200033
43	0x3c6ec0bf	0.014572321
44	0x3c43c2bb	0.011948283
45	0x3d60955c	0.05482994
46	0xbccc80cc	-0.024963759
47	0xbc6dea58	-0.014521204
48	0x3d8c6d43	0.068567775
49	0x3c1e3d86	0.009658223
50	0x3d522ba6	0.051311158
51	0xbd26c921	-0.040719155
52	0xbcc45d08	-0.023970142
53	0x3c0ddf26	0.00865916
54	0x3b207361	0.0024482834
55	0xbd374eee	-0.044753008
56	0xbc6184e8	-0.0137645975
57	0x3cf80cc6	0.030279528
58	0x3b947953	0.0045310645
59	0xbd4de077	-0.050262894
60	0x3d46bec5	0.048521776
61	0xbd1e8685	-0.038702507
62	0xb8c7a716	-9.5201816e-05
63	0x3c90a9f9	0.017659174
64	0xbd75538d	-0.059894133
65	0xbd119023	-0.03553785
66	0x3c968d7a	0.018378008
67	0x3d434f43	0.04768301
68	0x3c96c3a6	0.01840384
69	0xbbcb3677	-0.006201561
70	0x3a050391	0.0005074079
71	0xbbf02ff5	-0.0073299357
72	0x3d713d39	0.058896277
73	0x3cbb4a77	0.022862656
74	0x3d00dc4f	0.031460103
75	0x3d42855f	0.047490474
76	0xbb9bfdf8	-0.0047605
77	0x3cebba67	0.028775407
78	0x3d563152	0.05229313
79	0xbccf6061	-0.025314512
80	0x3d679f00	0.05654812
81	0x3c402560	0.011727661
82	0x3cada4a8	0.021196678
83	0xbd65650d	-0.056004573
84	0xba3694d4	-0.0006964926
85	0x3cacf1da	0.021111418
86	0x3d7a624d	0.061128903
87	0xbca9289e	-0.02064925
88	0xb9908cc3	-0.00027570696
89	0x3b0d4a6e	0.0021559256
90	0xbab8a764	-0.0014087972
91	0x3c63fdce	0.013915492
92	0x3c4932d6	0.012280187
93	0x3abc1c09	0.0014351617
94	0x3d94e014	0.07269302
95	0x3d2a2a91	0.0415445
96	0x3be2b4ee	0.006918541
97	0xbd26f7fc	-0.04076384
98	0x3ca5880d	0.020206476
99	0x396a6e7b	0.00022357136
100	0xbb818076	-0.0039520813
101	0xbc395aa3	-0.011313113
102	0x3d580a39	0.052744124
103	0xbd39184e	-0.045189194
104	0xbd79b6b3	-0.06096525
105	0x3d21f82d	0.03954332
106	0xbbc56b04	-0.00602472
107	0xbc9902be	-0.018678065
108	0x3c4cdd6c	0.012503963
109	0xbd010177	-0.031495538
110	0x3d40216e	0.04690688
111	0xbd34a42a	-0.04410187
112	0x3d468fa7	0.04847684
113	0x3cdceeeb	0.026969394
114	0x3c09b14c	0.008404087
115	0x3d3b1176	0.04567095
116	0xbca4ec02	-0.020132069
117	0x3d6ae847	0.057350423
118	0x3d70037d	0.058597077
119	0xbd00d0e3	-0.03144921

fc2.weight f4 [84, 120]
0	0xbcfcbdde	-0.030852254
1	0x3d6e5b70	0.05819267
2	0x3db72cd5	0.08944098
3	0xbc4239bc	-0.011854585
4	0xbdbb393a	-0.091417745
5	0x3d97755e	0.07395433
6	0xbd9ec750	-0.077528596
7	0xbcdbb376	-0.026818972
8	0x3d34c0fb	0.044129353
9	0x3c6ff921	0.014646799
10	0xbd95bcec	-0.073114246
11	0x3db6db33	0.08928528
12	0x3daee2c0	0.08539343
13	0x3c928118	0.017883822
14	0x3cbd5cfc	0.023115627
15	0x3d840817	0.064468555
16	0xbcdc545b	-0.026895693
17	0xbdacf95c	-0.08445999
18	0x3d4be7b6	0.049781524
19	0xbda6ce28	-0.0814479
20	0xbd14e643	-0.036352407
21	0xbb84d9d4	-0.0040542874
22	0x3cec3c0c	0.028837226
23	0x3d7ab06f	0.061203416
24	0xbd4f6862	-0.050636657
25	0xbdb4b12d	-0.08822856
26	0x3d1c24f4	0.03812118
27	0xbdb91fa9	-0.09039242
28	0xbdb4ebef	-0.08834063
29	0xb9ff0bb3	-0.00048646107
30	0xbd079c6e	-0.033108167
31	0xb9d6e410	-0.0004098718
32	0x3db6df29	0.08929283
33	0x3d5ae5e0	0.053441882
34	0x3c897e90	0.016783983
35	0xbcf73a18	-0.030179068
36	0xbb8d899d	-0.0043193833
37	0xbd090993	-0.033456396
38	0x3cc098fd	0.02351045
39	0x3d0affea	0.033935465
40	0x3c167eb9	0.0091854865
41	0xbd85f425	-0.065407075
42	0xbc823b77	-0.015897496
43	0xbdc9ae1c	-0.09847662
44	0xbb51cac6	-0.0032011732
45	0xbd1b2593	-0.03787763
46	0x3da3033b	0.079596005
47	0xbb4f5065	-0.0031633612
48	0x3d5f8fb5	0.05458041
49	0xbc9be815	-0.019031564
50	0xbd68186a	-0.056663908
51	0x3d165fe2	0.036712535
52	0xbdae08e0	-0.084977865
53	0x3cb5a636	0.022173982
54	0x3cab25e9	0.0208921
55	0x3d94adbe	0.07259701
56	0x3d7a2a00	0.06107521
57	0xbceb7895	-0.028744021
58	0x3d7716f3	0.06032462
59	0x3cc8ef84	0.024528272
60	0xbd0a91dd	-0.033830512
61	0xbd252b0a	-0.04032425
62	0x3d40237f	0.04690885
63	0x3c661918	0.014044069
64	0xbd83a92f	-0.064287536
65	0x3da135aa	0.07871564
66	0x3d90180b	0.07035836
67	0xbcd0c815	-0.025486032
68	0xbd19aed8	-0.03752026
69	0x3d2dbc9a	0.042416193
70	0xbd18e67f	-0.037329193
71	0x3cdeca65	0.027196119
72	0x3de95f1d	0.113950945
73	0x3db63161	0.08896137
74	0xbd605db0	-0.054776847
75	0x3cafbb94	0.021451749
76	0x3bb19e1a	0.0054204585
77	0xbd8f13bc	-0.06986186
78	0xbd5666f7	-0.05234429
79	0xbda0616d	-0.078310825
80	0x3c109f30	0.008827016
81	0xbc4ef9d3	-0.012632805
82	0x3d84c285	0.06482414
83	0xbd0f302c	-0.03495805
84	0xbc88d714	-0.01670412
85	0xbd8a94fe	-0.06766699
86	0x3d3e1242	0.04640413
87	0x3b88b6d6	0.0041721864
88	0x3ba89dc9	0.0051457626
89	0x3d98bf61	0.07458378
90	0x3cc14a11	0.023594888
91	0xbcf78d23	-0.030218666
92	0xbc69c1d3	-0.014267403
93	0x3d76f1d1	0.060289208
94	0x3dee3618	0.11631411
95	0x3d677cc3	0.056515466
96	0xbdc46f27	-0.09591513
97	0xbd9e4faf	-0.07730042
98	0x3db27bf1	0.08715046
99	0x3d1feeba	0.039046027
100	0x3d41b4bd	0.047291506
101	0x3d5a4635	0.05328961
102	0x3dbe23ba	0.09284158
103	0x3d626dda	0.055280544
104	0xbda2190c	-0.079149336
105	0xbb24d8e2	-0.0025153686
106	0x3d6ca8f2	0.057778306
107	0xbdae2f21	-0.08505083
108	0x3d8f0a1a	0.069843486
109	0xbdcb36b7	-0.099225454
110	0x3d474b4d	0.048655797
111	0xbda3a50f	-0.07990467
112	0x3d8b4282	0.06799795
113	0x3daade88	0.08343226
114	0x3c4b5e66	0.012412643
115	0x3da03ed6	0.07824485
116	0xbd65e962	-0.056130774
117	0x3db8fcca	0.09032591
118	0x3d1c3ddc	0.03814493
119	0xbb14cba2	-0.0022704382
120	0x3d913ca0	0.070916414
121	0xbd19dc50	-0.037563622
122	0x3da2d7e2	0.07951333
123	0x3ce78ae8	0.028264478
124	0x3c1cf26a	0.00957928
125	0xbdb035f4	-0.08604041
126	0x3b97bbb5	0.0046305307
127	0x3d64373b	0.055716734
128	0x3dc7ea5b	0.09761497
129	0xbb9534c5	-0.0045534098
130	0xbca4b60a	-0.020106334
131	0x3d75ea19	0.060037706
132	0x3cf9101a	0.030403186
133	0x3daf64b6	0.08564131
134	0x3dab4d43	0.08364346
135	0xbd0f251c	-0.0349475
136	0xbdaab231	-0.083347686
137	0xbdb7b5d7	-0.0897023
138	0xbcfe9b54	-0.031079926
139	0xbc9d63cf	-0.019212632
140	0x3ba31c90	0.00497777
141	0x3d94b158	0.07260388
142	0x3cba2d5b	0.022726705
143	0x3a149612	0.0005668114
144	0x3d30d6c4	0.043173566
145	0xbd30cd73	-0.04316468
146	0x3d398d5f	0.045300838
147	0x3d19cad2	0.03754694
148	0xbd267904	-0.040642753
149	0x3d3e143d	0.04640602
150	0x3c2e5883	0.01064122
151	0x3d17f427	0.037098076
152	0xbd4d5a20	-0.050134778
153	0x3d11d1d6	0.035600506
154	0x3d9cb918	0.07652491
155	0x3c1f6473	0.009728539
156	0xbde25193	-0.11050715
157	0x3d68128f	0.056658324
158	0x3d5cbe86	0.053892635
159	0xbbaf26ff	-0.005345225
160	0xbd3054fa	-0.04304979
161	0xbd60b907	-0.054863956
162	0x3ab87033	0.0014071524
163	0x3bb427c2	0.0054979036
164	0xbbdd1283	-0.0067465915
165	0xbafb95c1	-0.001919441
166	0x3da7c474	0.08191767
167	0x3d856256	0.06512897
168	0x3d83239a	0.06403275
169	0x3d42acd2	0.047528096
170	0x3e02a1cd	0.12757035
171	0xbdcb734c	-0.099341005
172	0xbc6e120f	-0.014530673
173	0xbe04b51b	-0.12959711
174	0x3c850dcc	0.01624193
175	0xbcae4f50	-0.021278054
176	0xbc9d66d4	-0.019214071
177	0xbe01b91e	-0.12668273
178	0xbe04a717	-0.12954365
179	0x3d87f7ec	0.06639084
180	0xbd9db21f	-0.076999895
181	0xbc1aaa89	-0.009440073
182	0x3cbaa27d	0.022782559
183	0x3dad197d	0.08452127
184	0xbd034455	-0.03204759
185	0x3da45b4b	0.08025225
186	0xbd6e3813	-0.058158945
187	0xbe0b01fd	-0.13574977
188	0x3d83d730	0.06437528
189	0xbc2eeb0f	-0.0106761595
190	0x3d3b85fc	0.045782074
191	0x3b9d1e15	0.004794846
192	0xbd81cfa2	-0.06338431
193	0xbd67a51e	-0.056553952
194	0xbd31f501	-0.043446545
195	0x3c9fdff4	0.019515969
196	0xbcd4d2a1	-0.025979342
197	0xbd274ea6	-0.04084649
198	0xbdad43bc	-0.08460185
199	0xbcd714b4	-0.02625499
200	0x3cf9b43e	0.030481454
201	0x3ca09fbf	0.019607423
202	0x3d63e649	0.05563954
203	0x3d8b4393	0.06799998
204	0xbcd478b4	-0.025936462
205	0x3d42e080	0.04757738
206	0xbab87aaf	-0.0014074648
207	0x3d6b76c5	0.057486314
208	0xbd3c8615	-0.046026308
209	0xbc920678	-0.01782535
210	0x3db2b7ae	0.0872644
211	0xbd9cea92	-0.07661928
212	0xbcdbe854	-0.026844181
213	0x3de20cc7	0.11037593
214	0xbdf100c2	-0.11767723
215	0xbd7995a2	-0.060933717
216	0x3d5a0532	0.05322761
217	0x3d8c6a63	0.06856229
218	0xbd316b46	-0.043315195
219	0x3d650127	0.055909302
220	0x3c49798f	0.012297048
221	0x3cd16903	0.025562769
222	0xbda2f161	-0.079561956
223	0xbda79f5a	-0.08184691
224	0x3dd79733	0.10526886
225	0xbdb049b7	-0.0860781
226	0x3dd7e422	0.1054156
227	0x3dd89a95	0.10576359
228	0x3ac18518	0.0014764396
229	0xbd9fcb48	-0.07802445
230	0xbe0c1671	-0.13680436
231	0x3dc33aca	0.095326975
232	0x3d2f0d03	0.04273702
233	0x3cc266b6	0.023730617
234	0xbd99a577	-0.07502263
235	0x3d1a9031	0.037735168
236	0xbc8fa020	-0.017532408
237	0x3b590461	0.0033114182
238	0x3cd78d80	0.02631259
239	0xbda6e2fe	-0.08148764
240	0x3da99f2b	0.08282312
241	0x3cf0c15d	0.029389078
242	0xbcacf87b	-0.021114578
243	0xbd18e6ca	-0.037329473
244	0x3dcf7e3b	0.101314984
245	0xbd2315d5	-0.039815743
246	0xbcbcfb2b	-0.023068985
247	0xbd14b5f9	-0.036306355
248	0xbd945a6c	-0.07243809
249	0x3dc71777	0.097212724
250	0x3cd05693	0.025431907
251	0x3d668362	0.05627764
252	0x3cb32a29	0.02187069
253	0xbd491c50	-0.049099267
254	0xbbaf11e4	-0.005342709
255	0x3d9a289e	0.07527278

fc2.bias f4 [84]
0	0xbd2286d8	-0.03967938
1	0x3d87bce2	0.066278234
2	0x3cfa5d5a	0.030562092
3	0xbd07aaf0	-0.033122003
4	0xbd1bb2f3	-0.038012456
5	0x3c0634dd	0.0081913145
6	0x3cab7931	0.020931812
7	0xbdaf96c5	-0.08573679
8	0xbc975c53	-0.01847664
9	0x3c9743f1	0.018465014
10	0x3d99319b	0.074801646
11	0xbdda1641	-0.10648776
12	0xbd65fb86	-0.056148075
13	0x3dac049f	0.08399319
14	0x3d9aa6ce	0.07551347
15	0xbd853a3d	-0.06505249
16	0xbd831fd6	-0.064025566
17	0x3c9f4993	0.019444263
18	0xbd598e5e	-0.053114288
19	0x3db413e9	0.0879286
20	0xbd66c178	-0.05633685
21	0x3bfbc7e6	0.007683742
22	0xbdabcb5e	-0.083883986
23	0x3d18eb7a	0.037333943
24	0x3d6d0d2e	0.057873897
25	0xbd5ba2cb	-0.05362205
26	0x3d32fc6c	0.04369776
27	0x3add241f	0.0016871727
28	0xbd947951	-0.07249702
29	0xbc3c7678	-0.0115028545
30	0x3cdbc63b	0.026827922
31	0xbc844ca3	-0.016149824
32	0x3d74137e	0.0595889
33	0x3ccfc992	0.02536467
34	0xbd7781d7	-0.06042656
35	0xbdade82d	-0.0849155
36	0x3a9b00be	0.0011825783
37	0x3cd547ba	0.026035178
38	0xbda601e4	-0.08105829
39	0x3dcb1219	0.09915561
40	0x3c3177d7	0.010831795
41	0xbdba6974	-0.09102145
42	0xbdbf68e4	-0.09346178
43	0x3bd626aa	0.006535371
44	0x3d2d6ae0	0.042338252
45	0x3c8d4052	0.017242584
46	0xbd999262	-0.074986234
47	0x3d62bc6a	0.055355467
48	0x3d31b8e6	0.043389224
49	0x3c8d5432	0.017252062
50	0x3d86a5bd	0.06574581
51	0x3cb76aa5	0.02238972
52	0xbd8d0d53	-0.06887307
53	0xbd985a74	-0.074391276
54	0x3dcc589b	0.09977838
55	0x3c05cf6b	0.008167128
56	0x3d84fb3d	0.064932324
57	0xbce2a7c8	-0.027667895
58	0xbd99a19b	-0.07501527
59	0x3de22a4c	0.11043224
60	0xbd995b8e	-0.07488166
61	0x3de6ba3c	0.1126599
62	0xbc45e8b5	-0.012079407
63	0xbcc1b10c	-0.023643993
64	0xbd6f415b	-0.058411937
65	0xbcfab8d7	-0.030605717
66	0x3d99b243	0.07504704
67	0x3e060a3e	0.13089845
68	0x3d7394b7	0.059467997
69	0xbd1bd790	-0.038047373
70	0x3d4046b8	0.046942443
71	0xbd570f12	-0.052504607
72	0xbd7ef360	-0.06224382
73	0xbd5c64ca	-0.053807057
74	0xbdb45a36	-0.08806269
75	0xbd89b7b8	-0.06724495
76	0xbc9ba7b1	-0.01900086
77	0x3d5a0a40	0.05323243
78	0xbb259920	-0.0025268272
79	0x3d26d61c	0.040731534
80	0x3cc37ece	0.023864176
81	0x3d290652	0.041265793
82	0x3da50c7b	0.08059021
83	0x3d043515	0.032277185

fc3.weight f4 [10, 84]
0	0xbddb7b4c	-0.107168764
1	0x3dcba957	0.099444084
2	0x3da65ec7	0.08123546
3	0x3de273d8	0.11057252
4	0x3b9e1827	0.0048246565
5	0xbde949f0	-0.113910556
6	0x3d4edca7	0.0505034
7	0x3c2a9a00	0.010412693
8	0x3db2f2d9	0.08737726
9	0x3d901850	0.07035887
10	0x3cd36210	0.025803596
11	0x3dc1c40d	0.09461222
12	0xbdb2ea77	-0.08736127
13	0x3cb405bc	0.02197539
14	0x3dce1c00	0.10063934
15	0x3d8603b5	0.06543676
16	0x3e122e03	0.14275365
17	0x3d408770	0.047004163
18	0xbd150ac9	-0.03638724
19	0xbd8fa5d2	-0.070140496
20	0x3d7bef27	0.06150737
21	0x3d49547d	0.04915284
22	0xbd8b9873	-0.06816187
23	0x3a29a863	0.000647193
24	0x3db6370d	0.08897219
25	0x3df69fc5	0.12042192
26	0x3d9f5ca0	0.07781339
27	0x3cbd6d28	0.023123339
28	0x3dfd6063	0.123719
29	0xbdb6125e	-0.08890222
30	0x3c00c2d5	0.007858952
31	0x3e007d75	0.12547858
32	0x3db2268c	0.086987585
33	0x3c4688d2	0.012117581
34	0x3d60f948	0.054925233
35	0xbd141182	-0.03614951
36	0x3d9954ab	0.07486852
37	0x3c7096a4	0.014684353
38	0xbd6691f6	-0.056291543
39	0xbcfbee4c	-0.030753277
40	0x3d8d756e	0.069071636
41	0xbe08ec6d	-0.1337144
42	0xbd6e3d61	-0.058164004
43	0xbc6397c0	-0.0138911605
44	0x3d1a0fb3	0.03761263
45	0xbce411ad	-0.02784046
46	0x3da44062	0.080200925
47	0x3dd7c4fd	0.105356194
48	0x3de3f593	0.11130824
49	0x3dba4449	0.090950556
50	0xbcda84a1	-0.02667457
51	0x3ba9dd35	0.0051838406
52	0x3deb1e2f	0.114803664
53	0xbcd95f7f	-0.026534794
54	0x3d484142	0.04889036
55	0xbce19705	-0.027537832
56	0x3da9c57b	0.082896195
57	0xbc896748	-0.016772881
58	0x3e38f2c5	0.18061359
59	0x3d2721da	0.040803768
60	0xbd23cb6a	-0.039988913
61	0xbdb5d75e	-0.08878969
62	0x3d57fbe7	0.052730467
63	0xbdb81ee2	-0.089902654
64	0x3d7e987b	0.062157135
65	0xbd8521bc	-0.06500575
66	0x3c8f3984	0.01748348
67	0xbce1abce	-0.027547743
68	0xbd2bda17	-0.041956034
69	0x3d60933a	0.054827906
70	0x3d131ef0	0.035918176
71	0x3ccb1c13	0.02479366
72	0x3dd6dc2f	0.104912154
73	0xbda06fa3	-0.07833793
74	0xbbcaad00	-0.006185174
75	0xbe0a19ee	-0.13486454
76	0x3da5b862	0.08091809
77	0xbb8913a0	-0.0041832477
78	0xbdca21be	-0.09869717
79	0xbd96f66e	-0.073712215
80	0xbe0348c5	-0.12820728
81	0xbdafd4b6	-0.08585493
82	0xbdf54294	-0.119755894
83	0xbd6e9e44	-0.058256403
84	0xbc2ab9b0	-0.010420248
85	0x3e2a9445	0.16658123
86	0x3d52537f	0.05134916
87	0x3df6e57d	0.1205549
88	0xbd0fab47	-0.035075452
89	0xbd6fb99a	-0.058526613
90	0xbe3a4dde	-0.18193766
91	0xbd75fbb5	-0.0600545
92	0x3e06bce2	0.1315799
93	0x3cd667c8	0.026172534
94	0x3d8e0409	0.069343634
95	0x3e256217	0.161507
96	0x3ddaaed6	0.106778786
97	0x3de114c8	0.10990292
98	0xbd60ee2c	-0.05491464
99	0x3d515616	0.05110749
100	0xbd8fd349	-0.07022721
101	0xbdc2850b	-0.09498032
102	0xbd6fa2ed	-0.058504988
103	0xbd8ba1fb	-0.06818005
104	0xbdc817ac	-0.0977014
105	0x3e190afb	0.14945595
106	0x3cc4d8b2	0.02402911
107	0x3de350c9	0.11099393
108	0x3d0a0eaf	0.03370541
109	0x3d848528	0.0647071
110	0xbe0cf134	-0.13763887
111	0x3a54308d	0.0008094393
112	0xbdaabad6	-0.083364174
113	0x3d6ef0de	0.058335178
114	0xbc5e2350	-0.013558224
115	0xbd9ff7de	-0.07810949
116	0xbb323002	-0.002718926
117	0x3c9c73ec	0.019098245
118	0xbc5932cf	-0.013256743
119	0x3db51b5b	0.08843108
120	0xbdee9b42	-0.11650707
121	0xbdb07bcb	-0.08617362
122	0xbd83d662	-0.06437375
123	0x3d93b400	0.07212067
124	0x3db3dd1d	0.087824084
125	0x3da00124	0.078127176
126	0x3cb2f596	0.02184562
127	0xbbd93149	-0.0066281897
128	0x3cbf8b20	0.02338177
129	0xbd3e798d	-0.04650264
130	0x3dc3284a	0.09529169
131	0x3d7b13d8	0.06129822
132	0x3dc081a7	0.09399729
133	0xbd3a2d4e	-0.045453362
134	0xbdf6ccf9	-0.12050814
135	0xbd5ea2be	-0.05435442
136	0x3dae7fcf	0.08520471
137	0x3e06aa95	0.1315101
138	0xbda55625	-0.080730714
139	0xbdfb81f7	-0.12280648
140	0x3d80d7c2	0.062911525
141	0xbc85c228	-0.016327932
142	0xbd85d57d	-0.0653486
143	0xbda146eb	-0.07874855
144	0x3c98d486	0.018656027
145	0xbbbf4f3e	-0.005838304
146	0xbd616a24	-0.055032864
147	0xbdc1cc33	-0.09462776
148	0x3c490d67	0.012271262
149	0xbc27618b	-0.010216127
150	0xbe252929	-0.16128983
151	0xbdb8e30b	-0.0902768
152	0x3dceafff	0.10092162
153	0x3cde6bd4	0.027151026
154	0xbd9b8812	-0.07594313
155	0x3d76a281	0.06021357
156	0xbdc61386	-0.096716926
157	0x3d0a5d88	0.033780605
158	0x3d29d00e	0.041458182
159	0xbd7efe21	-0.062254075
160	0x3d5aec83	0.05344821
161	0x3d4e8271	0.050417367
162	0x3d04dec5	0.032439012
163	0xbe0a91de	-0.13532206
164	0xbe2e61e4	-0.1702953
165	0x3b16acda	0.002299121
166	0xbd51bb50	-0.051204026
167	0xbbddc234	-0.0067675356
168	0x3dffefca	0.12496908
169	0x3d472dbc	0.0486276
170	0xbdc48aa9	-0.0959676
171	0xbe0b23e6	-0.13587913
172	0xbda03063	-0.07821729
173	0x3d992e50	0.074795365
174	0x3a9eebee	0.0012124756
175	0xbdb0def0	-0.08636272
176	0xbcd6ea58	-0.02623479
177	0x3dfb7951	0.12278999
178	0x3dcbe7af	0.099562995
179	0xbe12c91f	-0.14334534
180	0xbd3f5096	-0.046707712
181	0xbdeb81b4	-0.11499348
182	0xbc2c50be	-0.010517297
183	0xbd38232c	-0.044955418
184	0x3de5aa2e	0.112141
185	0xba84af20	-0.0010122992
186	0xbcc160d2	-0.023605738
187	0x3bb8d669	0.005640794
188	0x3daa82e3	0.08325746
189	0xbe036514	-0.12831527
190	0xbda61a25	-0.081104554
191	0xbe1e2fb1	-0.1544788
192	0x3e05633c	0.13026136
193	0x3bb9ee55	0.0056741633
194	0xbc1c02e6	-0.009522175
195	0xbc93ba31	-0.018033119
196	0x3da9c1eb	0.0828894
197	0x3db1f86b	0.0868996
198	0xbd3fe71e	-0.04685127
199	0xbc9fbc3c	-0.019498937
200	0x3ce5bf18	0.028045222
201	0x3d43ede2	0.047834285
202	0xbdbc4575	-0.091929354
203	0xbd43fb39	-0.047847006
204	0x3db503ef	0.08838641
205	0x3d8b3f12	0.06799139
206	0x3d0bae63	0.034101855
207	0x3dcc2b99	0.09969253
208	0x3d03d102	0.032181747
209	0xbd5ce9f5	-0.053934056
210	0x3d369e06	0.044584297
211	0xbcf0e5b5	-0.029406408
212	0xbb3dc032	-0.0028953669
213	0x3c467c63	0.012114617
214	0x3cb45519	0.022013234
215	0xbde68212	-0.11255278
216	0x3d2e58bc	0.042565092
217	0x3dbe01d9	0.09277696
218	0x3d9548d0	0.072892785
219	0xbd6bd75f	-0.05757844
220	0x3d59bc6a	0.0531582
221	0xbdd72778	-0.10505575
222	0x3d5278ca	0.051384725
223	0xbdb03752	-0.086043015
224	0x3db3a552	0.08771767
225	0xbbfe1db0	-0.007755004
226	0x3e0f7f52	0.14013413
227	0xbceffe67	-0.029296113
228	0x3d4dde8b	0.05026106
229	0x3d27c6cb	0.040961068
230	0x3d8ac500	0.06775856
231	0x3dd51d35	0.104059614
232	0xbe166e0d	-0.14690419
233	0x3c167b97	0.00918474
234	0x3d8c0d26	0.06838445
235	0x3d5ba9dd	0.05362879
236	0x3c595b9a	0.013266468
237	0xbd365474	-0.044514135
238	0xbdbe43c0	-0.09290266
239	0x3bf8dce8	0.0075946935
240	0x3d5ae157	0.053437557
241	0xbddef5a1	-0.10886694
242	0xbccbb6d4	-0.024867453
243	0x3d8d2511	0.068918355
244	0xbde79510	-0.11307728
245	0xbd9aa47c	-0.07550904
246	0x3e087a08	0.13327801
247	0xbd6f9dde	-0.058500163
248	0x3ddf50e4	0.109041005
249	0xbc8ab628	-0.016932562
250	0xbce2b1a3	-0.027672594
251	0xbdd7a372	-0.105292216
252	0x3d42d56d	0.04756682
253	0x3d018743	0.031623136
254	0x3e0601b8	0.13086593
255	0x3d81ef14	0.06344429

fc3.bias f4 [10]
0	0xbda902f4	-0.082525164
1	0xbd96f820	-0.07371545
2	0x3dceb948	0.10093933
3	0x3d934b36	0.0719208
4	0x3bc2d3e4	0.0059456695
5	0xbd1be07b	-0.038055878
6	0x3d4f962c	0.050680324
7	0x3d4aa42f	0.049472984
8	0x3dbc3684	0.091900855
9	0x3d8da01b	0.06915303
