resources/lenet_e100b50_clean_model.pt (torch_old, 249645 bytes, 10 tensors)

conv1.weight f4 [6, 3, 5, 5]
000000 c9 0c 37 bd 6b d5 83 3d 48 cb 23 3d 79 61 85 3c
       -0.044689927 0.064371906 0.039988786 0.01628183
000010 2d 4d d1 bc 06 7c 92 bd 3e 2c 89 3d 76 16 30 3e
       -0.025549496 -0.07152562 0.06697892 0.17196068
000020 71 82 81 3d 60 96 ce 3d d0 64 09 3c 6a d4 20 3d
       0.06323708 0.100872755 0.008385852 0.039265074
000030 59 d9 3a 3e 3d f2 6d 3d 77 7d a3 bd cf 92 9e 3c
       0.18246974 0.058092345 -0.07982915 0.019357113
000040 04 7e 77 3d 2e cb 44 3e 88 dd ce 3d 26 f5 a3 3d
       0.060422912 0.19218132 0.101008475 0.08005743
000050 c1 97 9b 3d b1 c9 1c 3e 1a 36 30 bc 40 61 95 bc
       0.07597304 0.15311314 -0.010755086 -0.018234849
000060 c8 11 f2 3d 63 2b d2 bd ab 7a 1b 3e 7c 37 57 3d
       0.11819798 -0.102621816 0.15183513 0.05254315
000070 5d 2d c1 3d 2c f5 04 3e 99 0a 0f bd f3 0e 03 3e
       0.094324805 0.1298415 -0.034922216 0.12798671
000080 ef 87 64 3e 78 2a 44 3e aa e2 08 3e 4c 89 9d bd
       0.2231748 0.19156826 0.13367715 -0.07692203
000090 fb 8f 2a 3d fa d7 5c 3e 7f a4 38 3e c4 a8 07 3d
       0.041641217 0.21566764 0.180315 0.03311993
0000a0 23 3f 0d 3d 66 d0 5d 3d e4 49 07 3e d9 a2 1f 3e
       0.03448404 0.054153822 0.13211781 0.15589465
0000b0 02 8a d2 3d 36 88 63 bd 47 99 ee 3d f9 05 12 3e
       0.10280229 -0.055549823 0.11650329 0.14260091
0000c0 96 94 83 3d 19 5a 73 bd 95 ba 2a be c2 c5 c0 3d
       0.06424825 -0.059412096 -0.16672738 0.09412719
0000d0 98 5d 08 3e 16 fe e9 3c 44 25 86 3d 5d a1 e1 bc
       0.13316953 0.02856354 0.065500766 -0.027542764
0000e0 28 3b 9f 3d 3e 09 a0 3d ef 57 81 3d a2 87 9c bd
       0.07774955 0.07814263 0.063156 -0.076430574
0000f0 21 3c 2a be 18 f1 27 bd f8 e9 3f 3e 0b 8e 11 3e
       -0.166245 -0.04100141 0.18741596 0.14214341
000100 7d 89 e0 bd 12 90 59 3c db e2 85 3d 80 d6 8d bd
       -0.10963724 0.013278978 0.0653741 -0.06925678
000110 39 8c 44 3d 5f 6b 9b bc f5 dc c4 bc b3 9a 0c 3c
       0.04798529 -0.018972097 -0.024031142 0.008581805
000120 73 be a0 bd 3f c5 39 3c 3f 77 49 bc ff 2a 18 3d
       -0.07848825 0.011338531 -0.012296497 0.03715038
000130 1b 39 08 3e 22 02 23 3e 6e fc 84 bc 47 29 ff 3d
       0.13303034 0.15918782 -0.01623365 0.12459045
000140 6c 26 87 bd a8 21 c3 bd fb f7 ff ba 92 c1 46 bd
       -0.06599125 -0.09527904 -0.001952886 -0.048524447
000150 15 0b 5d bd d6 86 fc 3a 07 68 00 be 26 7c 21 be
       -0.053965647 0.0019266258 -0.12539683 -0.15770015
000160 bd 0c 3f be ae 3f e9 bd 25 65 16 bd eb f1 09 3e
       -0.18657203 -0.11389099 -0.036717553 0.1347119
000170 2d 05 8a 3b 7a a3 20 bd 0a 99 ba 3d ab 48 55 bd
       0.004212043 -0.039218403 0.09111221 -0.052071255
000180 05 ce cf bd 11 ba 09 3e cd bc 4f 3d c1 a7 a7 bc
       -0.10146717 0.13449885 0.050717164 -0.020465733
000190 4f 4f a7 3c 0a a8 8b 3b 2f bc c4 3d da 51 a0 3c
       0.02042356 0.004261975 0.09606206 0.01957028
0001a0 a2 34 eb 3d db 27 f6 bc 38 8f d2 3b 02 5f a7 bd
       0.11484648 -0.030048301 0.0064257644 -0.08172418
0001b0 e5 77 c5 3c a3 7b 09 3e f4 32 e5 bc b9 fa af bc
       0.024105022 0.1342607 -0.027978398 -0.021481859
0001c0 98 55 b5 bd 70 fe 91 bd b8 26 9b bd 9f 0c d2 3d
       -0.08854216 -0.07128608 -0.075757444 0.102563135
0001d0 44 ce 8e 3d 77 ca f6 3d 3e fd bd bd 80 49 ad 3d
       0.06972936 0.12050336 -0.09276818 0.08461285
0001e0 5b 06 ab 3d 19 79 0b bc de 7e 39 3d 07 58 d8 bd
       0.083508216 -0.008512759 0.045287006 -0.10563665
0001f0 71 a7 12 3e a5 28 b7 bd 2a 95 7d 3d 78 f0 8d bd
       0.14321686 -0.08943299 0.061909832 -0.069306314
000200 3f e6 a3 bb 06 c7 9b bc 2a ac a3 bd c4 bd be 3c
       -0.0050018127 -0.0190158 -0.07991822 0.023283847
000210 c6 f1 b3 3d a4 a5 80 3d fb ff 06 3d 07 7f ab 3d
       0.08786349 0.062815934 0.032958966 0.08373838
000220 6a 1c f7 bc 79 d1 77 bd c4 e1 26 be e5 2c d4 bd
       -0.030164916 -0.060502503 -0.1629706 -0.103601255
000230 c7 b1 08 bd 4f 13 4e bd 1a ce 0e 3e 07 f9 ca 3d
       -0.033372667 -0.050311383 0.13945809 0.099107794
000240 80 6a 3d 3d ad 43 6f bd 02 69 6c bd b4 7d eb 3d
       0.046244144 -0.05841415 -0.05771733 0.11498585
000250 e6 9c 04 be ab 6b 25 3d 4e 6b 85 3b 9d 71 36 be
       -0.12950477 0.040385883 0.0040716296 -0.17816778
000260 91 de 76 be ea 92 20 be 65 70 08 bd 11 75 32 3d
       -0.2410834 -0.15681043 -0.033310313 0.043568674
000270 bf be bf bc cc 9e 08 be 8e 43 f1 bd 04 35 24 bd
       -0.023406385 -0.13341826 -0.11780463 -0.040089622
000280 10 94 ca 3d 20 1f 87 3d b6 18 09 3d 12 f2 2f bd
       0.09891522 0.065977335 0.03347083 -0.042955466
000290 4c a2 38 bc 79 84 f7 3d 0f fd 11 3e 15 6c 3f 3e
       -0.011269163 0.12085814 0.1425669 0.18693574
0002a0 fc a5 c6 3d 6b ed 8e 3d 0a 47 42 3d 80 2c 92 bc
       0.09699628 0.06978878 0.04743103 -0.017843485
0002b0 c8 bd e6 3d c8 11 07 3e 19 ed b1 3d e3 38 92 3b
       0.11266667 0.13190377 0.08687801 0.004462348
0002c0 d0 a6 36 be b8 1c 10 be 8d 8a 3e bd 03 ea 07 3b
       -0.17837071 -0.14073455 -0.04651885 0.0020738847
0002d0 2a e1 c2 bd 5f a6 96 ba 79 8d 30 bd 94 74 47 be
       -0.09515603 -0.0011493674 -0.04310367 -0.19478065
0002e0 80 87 b2 bd ce 2f 92 3d 4e 01 a3 3d 48 dd 91 3d
       -0.08717251 0.07138024 0.07959233 0.07122284
0002f0 02 f8 93 bc 58 76 13 be 04 bb e6 3d ed 2a 45 3e
       -0.018062595 -0.14400613 0.11266139 0.19254656
000300 42 bc 17 3e a8 be 8c 3d ba db 0e be 10 99 54 3d
       0.14817908 0.06872302 -0.13951007 0.051903784
000310 69 ee 2f 3d b6 b2 7e 3d c8 5e f0 3d 30 8a 30 3d
       0.042951975 0.06218215 0.11736828 0.043100536
000320 3d 58 b2 3d 94 00 88 bd ff 8c 04 be db 9c 1c be
       0.08708236 -0.06640735 -0.1294441 -0.1529421
000330 fb e5 1b 3e d1 0a 73 3d 8d a9 9b 3b 0f c0 ca bc
       0.1522445 0.059336487 0.0047504366 -0.024749784
000340 be 65 33 be f1 27 2f 3d 1d 75 8c bd ff b6 ae 3d
       -0.1751928 0.0427627 -0.06858275 0.085309975
000350 5c a7 4b 3d 21 be 82 bd 29 4b 3c be 97 fe cf 3c
       0.049720153 -0.063839205 -0.18388046 0.025389953
000360 6c 99 1d 3e 04 2b 38 3e 08 f7 2d 3e e0 aa 87 3d
       0.15390557 0.17985159 0.16988766 0.06624389
000370 87 10 0a 3c 8e 0a f4 3d b8 97 b2 3d ba 6e 37 3d
       0.008426792 0.11916076 0.08720344 0.04478333
000380 f1 d5 aa 3d 26 7f e3 3d f1 88 2f 3d 6c 5e b1 bc
       0.08341587 0.11108236 0.042855207 -0.02165147
000390 34 ec 74 3c 9f 8f 2a 3d b3 6d b9 bc bb f8 d3 3d
       0.014948893 0.041640874 -0.022635316 0.10350176
0003a0 03 c6 43 3d 2a cc 00 bd 98 57 85 3d 54 13 9c 3a
       0.04779626 -0.031444706 0.06510848 0.0011907616
0003b0 9f c9 9a 3d e8 40 18 bd fc 99 8b bc 3f bb 01 be
       0.075579874 -0.037171274 -0.017041199 -0.12669085
0003c0 82 da 54 3d bd 24 8d bd e9 e8 f2 bd 8b 25 b2 bd
       0.051966198 -0.06891773 -0.1186083 -0.08698567
0003d0 4a 25 6b bc 11 b2 17 bb 46 29 8e bc 86 1f 7c bc
       -0.014352152 -0.0023146907 -0.017353665 -0.015388375
0003e0 c4 c3 b1 bd fb b8 9c 3d ff b9 2f bc 4b 18 e6 bc
       -0.086799175 0.0765247 -0.010725497 -0.028087756
0003f0 15 ca 12 bd 3c 84 45 3c d7 2b f2 bd 88 e7 f7 3d
       -0.03583725 0.012055453 -0.11824768 0.12104708

conv1.bias f4 [6]
000000 d4 53 f7 3d eb c3 15 bc 08 af 18 bd 8c 82 3f 3d
       0.12076536 -0.009140949 -0.037276298 0.04675536
000010 b3 fc 65 bd d4 ec 2d bd
       -0.056149196 -0.042462185

conv2.weight f4 [16, 6, 5, 5]
000000 97 0a da bc 4c 7f 89 bd 1f df 0c bd ac c9 a6 3c
       -0.026616378 -0.06713733 -0.034392472 0.020359837
000010 95 31 b2 3c c0 b7 1b bc 6d e5 39 bd 4e 42 61 3c
       0.021752158 -0.009504259 -0.045384813 0.013748718
000020 df b6 85 bd 79 bb 35 bd 42 d8 f2 3c f9 5c 18 3d
       -0.065290205 -0.04436824 0.029644135 0.03719804
000030 07 48 31 3d a1 99 95 bc 4e 6a 98 3d 24 62 6e 3d
       0.04328158 -0.018261733 0.07442151 0.058199063
000040 18 21 8c 3d b7 76 60 bd f9 5e 14 3d 5d 82 80 bc
       0.0684225 -0.054800715 0.036223385 -0.015687162
000050 68 26 2c bd 14 6a ed bc da 8f a4 3d 46 02 55 bb
       -0.042028815 -0.028981246 0.0803525 -0.0032502576
000060 d9 aa 24 bd 90 8d 04 3e 96 83 2a 3d 7d eb dd 3d
       -0.040201996 0.12944627 0.041629396 0.108359315
000070 1d cb 38 3e 78 f8 cf 3d 1c 47 2a 3e e2 22 8b 3e
       0.18046232 0.101548135 0.16628689 0.2717505
000080 49 79 67 3e 3b b7 45 3e 2f 89 ff 3d 7e 91 8e 3b
       0.2260486 0.19308178 0.124773376 0.00435084
000090 d8 e4 8a 3d 70 8c 4f 3c 55 11 e1 3b 90 8e f3 bb
       0.0678193 0.01266776 0.006868521 -0.0074327663
0000a0 58 da c8 3b e7 f3 d6 3b bb ea 02 3c 7d 53 31 bd
       0.006129544 0.006559837 0.007990534 -0.04329251
0000b0 f0 72 0f 3d d2 df 33 be af da 5f be 65 59 40 be
       0.035021722 -0.1756585 -0.21860765 -0.18784101
0000c0 76 c4 5e be 73 dc db bd d0 9c ab bc 21 50 1b bd
       -0.21754631 -0.10735407 -0.020948797 -0.037918214
0000d0 21 6d bb bc 8f 97 47 bc 8b e6 bd bd a2 e3 00 3e
       -0.022879185 -0.0121821305 -0.09272488 0.12586835
0000e0 6e da f1 3c b9 f0 d5 3d 35 db 9d 3d 1d f1 e3 3d
       0.0295231 0.10446305 0.07707826 0.11129973
0000f0 fc 4d c3 3d 44 16 9d 3d f9 f7 2a 3e 84 26 44 3e
       0.09536359 0.076702625 0.16696157 0.19155318
000100 e9 84 5a 3e 61 6a de bd bb 79 1e be d9 e0 25 be
       0.21339764 -0.10860134 -0.15476124 -0.16199054
000110 34 71 84 bd 4b f9 be bc ac 72 e4 bd 2b 27 bd bd
       -0.06466904 -0.023312232 -0.111546844 -0.09235986
000120 c8 75 12 be 47 37 bb bd 4e e3 cd bc 9e ef ab 3d
       -0.14302742 -0.09141403 -0.025132801 0.08395313
000130 ab 52 d7 3d 7d 40 2f 3e ab f7 2d 3e dd 80 20 3e
       0.105138145 0.17114444 0.16989009 0.15674157
000140 31 64 22 3c e5 19 f9 3d cc 2e cc bb 10 ef a0 3a
       0.009911583 0.12163142 -0.0062311646 0.0012278277
000150 56 ad df 3d e7 3e 63 bd 0d 88 c3 bc 15 af 3a bd
       0.10921733 -0.05547991 -0.023868585 -0.045577127
000160 7a 2b c4 3d 61 59 9d 3c 8a e6 2b 3c c4 d8 41 be
       0.09578605 0.019207658 0.0104919765 -0.18930346
000170 85 09 ad bd 02 ae dc bd 5f 78 af bd aa 1a 4b bc
       -0.08449081 -0.10775377 -0.08567881 -0.012396494
000180 f2 84 9e bd 39 b6 87 bd 8b 98 14 be 66 87 9c bd
       -0.07740201 -0.06626553 -0.14511316 -0.07643013
000190 82 6a 09 3d 78 d0 8a 3d 55 6a 3e 3d 0f 90 e8 3d
       0.03354884 0.067780435 0.046488125 0.11355602
0001a0 9e f2 f0 3d be be 72 bc 0f 28 c3 bc 81 5e 91 3d
       0.117650256 -0.014815984 -0.023822812 0.07098103
0001b0 d6 79 9c 3c 3c 22 97 3d 48 9f 4a 3d 9d db a4 3c
       0.019101065 0.073795766 0.04946831 0.020124251
0001c0 ef 73 98 bb b8 62 bd 3b 3f 0b 00 3d fe 00 e0 bd
       -0.0046524922 0.0057795905 0.031260725 -0.10937689
0001d0 f2 85 db bc 2f 50 dc 3c ad 84 b2 bd b7 3e d1 3d
       -0.026797269 0.026893703 -0.08716712 0.1021704
0001e0 95 b3 d8 bd 35 f0 c5 bc 9c b1 c1 bc 26 7a b1 bd
       -0.105811276 -0.024162391 -0.023644261 -0.08665876
0001f0 64 09 15 3d db 9a 94 3d db 1d 35 3d fa fd a5 bd
       0.03638591 0.07256099 0.044217926 -0.08105083
000200 f0 e7 a1 bd d9 09 b9 bd a6 12 6f bd 38 12 1c be
       -0.07905567 -0.090350814 -0.058367394 -0.15241325
000210 18 fd 5d be ed a8 54 be 2b 18 66 be a7 47 cb bd
       -0.21678579 -0.20767565 -0.22470157 -0.09925776
000220 a3 fa e6 3c a9 79 18 3d 56 6f 0d 3c b0 13 b2 bd
       0.028195685 0.0372254 0.008632502 -0.08695161
000230 c7 ab f4 3b 4f db 97 3d 61 7d fa 3d b5 1c 1f 3d
       0.0074667665 0.07414877 0.122309454 0.038845737
000240 1a 3d c6 3c 4b ab ea bb 7a 33 09 3e 19 70 70 3d
       0.024199057 -0.007161533 0.13398543 0.058700655
000250 9f 23 46 3d fe 1e 17 3d d3 b2 7d 3d e7 1a a3 3d
       0.048373815 0.03689479 0.06193812 0.079641156
000260 0e 15 56 bd b8 8d 92 3b 5c c8 16 bc e7 55 ef 3d
       -0.052266173 0.0044724606 -0.009203043 0.116863064
000270 11 b4 38 3d f3 48 a4 3d 32 30 28 bd f3 b8 9f 3d
       0.0450936 0.080217265 -0.041061588 0.07798948
000280 3e 9e 8d 3d f2 81 54 bc e8 06 c8 3d b0 e4 2a 3d
       0.06914948 -0.0129704345 0.09766942 0.041722
000290 9e 98 de 3c cb 22 ee 3d ba 35 9b bc af 0b b7 3d
       0.027172383 0.1162773 -0.018946517 0.08937775
0002a0 43 71 fb 3c 7a bf 37 bd ea e5 3e 3d e8 72 8f 3d
       0.030693656 -0.04486034 0.046605982 0.070043385
0002b0 ee 97 80 3d 0b 65 f1 3d 23 da 9a 3d 61 f7 8e be
       0.06278978 0.117868505 0.075611375 -0.2792311
0002c0 a4 91 b8 be ac 88 e1 be 54 ca d5 be 5e 04 8e be
       -0.36048615 -0.44049585 -0.41755927 -0.27737707
0002d0 cb 79 b5 be 32 f3 b1 be e0 18 c8 be bd 45 e5 be
       -0.35444483 -0.34755856 -0.39081478 -0.4477977
0002e0 06 f0 91 be 89 9b 85 be d4 55 a9 be 24 cf 76 be
       -0.28503436 -0.26095226 -0.33073294 -0.24102455
0002f0 e0 e9 6f be 03 20 58 be 31 e3 20 be 01 50 f4 bd
       -0.2342906 -0.21105962 -0.15711667 -0.11929322
000300 3b 1d 5d bd fd 4d b2 bb 8a c7 2b bd 45 0b 5a be
       -0.053982954 -0.005441426 -0.041938342 -0.21293361
000310 49 43 1e be 4e 90 db bd cc 04 09 3c b5 ec a1 bd
       -0.15455355 -0.10720883 0.00836296 -0.079064764
000320 37 93 64 bd 7e 0c 81 bd 1d 80 06 be d0 df 1d be
       -0.055804458 -0.06301211 -0.13134809 -0.15417409
000330 f6 fc 25 be cb 38 29 be 37 1f 50 be fb 7d 91 be
       -0.16209778 -0.16525571 -0.20324408 -0.28416428
000340 01 b6 9b be b1 bb 5d be 7a 57 b7 bd 50 8a 18 be
       -0.30412295 -0.2165363 -0.08952232 -0.14896512
000350 73 81 3b be 4c d4 8f bd 08 6e b8 bd 4f 7b ec bd
       -0.183111 -0.07022914 -0.09005362 -0.11546957
000360 1b 5e 32 be 50 82 21 bd ab 1a b5 bd d9 28 f7 3a
       -0.17418711 -0.039430916 -0.08842977 0.0018856778
000370 29 34 47 bc 24 c1 30 3b 18 f1 3d 3c 92 78 2b 3d
       -0.012158432 0.002697059 0.011593126 0.04186303
000380 bc 29 35 bd db e0 14 be 32 8e 1d bd 38 19 dd bc
       -0.044229254 -0.145389 -0.038465686 -0.026989564
000390 86 67 7e 3c 35 9c fd 3d 9a 5b fd bd 1f 39 2d be
       0.015527612 0.1238331 -0.12370987 -0.16916321
0003a0 0a 92 f4 bd b8 b2 c5 bd 41 3f b4 3d 75 5e 47 be
       -0.11941917 -0.096532285 0.08801127 -0.19469626
0003b0 a8 3a 1a be 0a e2 1c be 69 14 29 3d a7 e1 4c 3d
       -0.15061438 -0.15320602 0.04127923 0.050019886
0003c0 c7 bc 01 be 38 da 30 be 5a 7b ea bc a3 df e0 3c
       -0.12669669 -0.17270744 -0.028623272 0.027450388
0003d0 99 fc 9c 3d ad ed 3a be f8 e7 b0 bd 7d 5c b9 bd
       0.07665367 -0.18254729 -0.086379945 -0.09050844
0003e0 9a df 2a 3d 83 00 2c bc ca 6e 84 bd 6c d9 6c bd
       0.04171715 -0.010498169 -0.06466444 -0.057824537
0003f0 bb 5c 13 bd b0 0e b0 3c 49 42 0a 3d 0a f8 0c bc
       -0.035977107 0.021491379 0.03375462 -0.008604059

conv2.bias f4 [16]
000000 dd cb 15 be a1 ee 2d bd 52 0e 1b be ae 17 ff 3d
       -0.14628549 -0.042463902 -0.15142182 0.124556884
000010 ab 58 58 3e b3 ab 8e bd 2c 46 9a 3c 08 9b 36 3e
       0.21127574 -0.06966343 0.018832289 0.17832577
000020 18 ff f7 3d 3c 26 ac bd fb 71 66 be d1 15 a3 3e
       0.12109202 -0.0840573 -0.22504418 0.31852582
000030 6d 48 09 be 2a 1b 46 3d a0 ff 6a 3e 49 08 80 bd
       -0.13406534 0.04836575 0.22949076 -0.0625158

fc1.weight f4 [120, 400]
000000 f9 7a ef 3c e3 6c 21 3d 79 a2 ee 3c 2d d2 09 3d
       0.029233443 0.039410483 0.029130207 0.033647705
000010 12 c1 e4 3c aa 92 17 be 4a ef 2b bd 8b 4e 88 bd
       0.027924094 -0.14802042 -0.04197625 -0.06655606
000020 33 14 40 bd 72 b4 63 bd 64 09 3f be 50 35 01 be
       -0.046894263 -0.055592008 -0.18655926 -0.12617993
000030 6f 52 04 be 22 d5 11 bd 4f 4d ac bc 19 28 5b bd
       -0.12922071 -0.03560365 -0.021032957 -0.053505037
000040 c3 8f c2 bc 80 80 29 bc 09 8b 40 3d fe 9e db 3c
       -0.023750192 -0.010345578 0.047007594 0.026809212
000050 98 17 33 bd 5f a7 04 bd 1f ee ea bb 09 a9 fa bc
       -0.043723673 -0.03238618 -0.0071694995 -0.03059818
000060 43 aa f0 bc 50 18 c3 3d 31 01 65 3c 43 5d 45 3d
       -0.029378062 0.095261216 0.013977335 0.048184644
000070 71 9b 9f 3d 65 cb 96 3d cc 34 53 3d cc bc 03 ba
       0.0779332 0.07363013 0.051564023 -0.00050253863
000080 fd ba 57 3d af 2c 9d 3d da 34 d0 bc f3 ce 34 3d
       0.05266856 0.07674538 -0.025415827 0.044142675
000090 a0 b8 10 3d 21 30 82 3d 9e 33 46 3d 45 db 71 bb
       0.035332322 0.06356836 0.04838907 -0.0036904376
0000a0 f6 bc 4f bc 18 6d b9 3c 45 e1 0f 3c 62 aa ab 3d
       -0.012679329 0.022635028 0.008781736 0.08382107
0000b0 8a e7 16 bd 4c da 76 3d a0 cb 40 3d 99 33 cb bb
       -0.036841907 0.060266778 0.047069192 -0.0062012193
0000c0 d3 7a 76 bc 7a b7 48 3d f1 dd a3 3d 74 87 a8 3d
       -0.015043932 0.049003102 0.08001316 0.08228961
0000d0 e8 5e fb 3c b2 22 38 bb 85 aa 87 3d f4 09 94 3d
       0.030684903 -0.0028096852 0.06624321 0.07228461
0000e0 4f 00 0d 3d 4d 1f f8 bc 6f 6a 9d bd 44 f6 42 3d
       0.034424122 -0.030288363 -0.07686316 0.04759814
0000f0 1b 61 89 3d fb 6e e3 bb 76 28 64 bc ad a8 83 3c
       0.067079745 -0.00694072 -0.013925662 0.016071642
000100 3d f4 25 3d c0 be 9e 3d 3d 21 1d 3d cc 6e 80 3d
       0.040516127 0.077512264 0.038361777 0.06271133
000110 d5 72 ed 3d 1e 4b 8f 3d 1a 67 b3 3d 45 97 aa 3d
       0.11594168 0.06996749 0.087598994 0.083296336
000120 09 6e b0 3d bc b5 94 3d 6b f2 02 3e 99 6e a7 be
       0.086147375 0.072612256 0.12787788 -0.32701567
000130 39 10 9d be 1f 44 24 be 5e b4 22 be 58 b1 e5 bd
       -0.3067644 -0.16041611 -0.15889117 -0.11215466
000140 fd 86 f5 bd b5 03 4f be a0 6b ab bd dc 7d 85 bd
       -0.119886376 -0.20216258 -0.08370137 -0.065181464
000150 7a cf f4 bc 29 5a 1b bc 11 71 01 bd d5 8f fe bd
       -0.029884089 -0.009481945 -0.03160197 -0.124297775
000160 24 f9 bc bd 2c fd 52 bd 3d 2e ee 3c e0 f9 4b 3c
       -0.09227207 -0.051510975 0.029074783 0.012449712
000170 34 5e 12 be cb bd f4 bd c6 16 45 bd 72 86 35 3d
       -0.14293748 -0.11950263 -0.04811742 0.04431767
000180 65 1d c5 bd 84 00 37 be ea d3 36 be a6 ba 9f bd
       -0.09624747 -0.1787129 -0.17854276 -0.07799272
000190 22 62 a6 3c 2e ee e2 39 05 a0 49 bd 18 7d 2d bd
       0.020310465 0.00043283537 -0.049224872 -0.042355627
0001a0 c7 7f 03 3b c6 a9 cc 3a be 14 3d bd a0 81 68 bd
       0.0020065175 0.0015614561 -0.04616236 -0.056764245
0001b0 7f 01 6a 3d 84 d7 11 3d 10 95 d6 3b 2e 89 3c 3d
       0.057130333 0.035605922 0.0065485314 0.046029262
0001c0 18 1a fe bc f3 f2 0e 3d fa a0 8a 3d 19 4b 7d bc
       -0.031018302 0.034899663 0.06768985 -0.015459799
0001d0 b5 a7 91 3d 31 ff 3f 3d 99 21 ba bb b7 85 44 3c
       0.07112066 0.04687423 -0.0056802747 0.011994771
0001e0 04 77 6e bd 43 f6 29 bd f3 df e4 3c df e0 b3 3c
       -0.05821897 -0.04149462 0.027938819 0.021957813
0001f0 6f bc 8a bc 12 c9 97 3c 59 e6 ee bb 97 c1 54 3c
       -0.016935555 0.018528495 -0.007290643 0.012985609
000200 db 6a af 3c ce d7 58 3d 2d 71 d4 bd 08 16 b1 bc
       0.021413257 0.052940182 -0.10373149 -0.02161695
000210 17 93 a6 bd 7a 32 aa bd 90 fb 7b bd 19 c4 59 bd
       -0.08133524 -0.08310409 -0.061519206 -0.05316553
000220 1b 22 84 3d 6f ad 12 3d b6 5a ce 3b 14 03 bc 3a
       0.064518176 0.03580993 0.0062974347 0.0014344179
000230 a4 87 8e bd 98 68 3b 3c ff 59 bc 3d 47 34 16 3c
       -0.06959465 0.011438511 0.09196853 0.009167737
000240 0b 92 9a bc 53 e2 00 bd 56 bd 9e 3c 8c 93 0e 3d
       -0.018868467 -0.03146584 0.019377392 0.03480868
000250 b9 40 79 3d 2a 6a 46 bd 43 a6 b5 3b 45 ec 24 bd
       0.06085274 -0.04844109 0.0055435016 -0.040264387
000260 d6 d3 12 bd e0 5a 41 3d 24 2a 46 3d a6 3c 12 bd
       -0.035846554 0.047205806 0.048380032 -0.03570237
000270 20 2e 36 bb 93 55 1d bd f7 55 d0 3c 30 84 07 3d
       -0.0027798489 -0.038411688 0.025431616 0.03308505
000280 f4 04 f8 3c c1 53 99 3c fe 91 57 bd 85 ad 9e bc
       0.0302758 0.018716695 -0.052629463 -0.01936985
000290 53 13 ce 3d 31 d5 98 3d 03 a4 fc 3b af df f1 39
       0.100622796 0.07462538 0.0077099814 0.0004613376
0002a0 1b fe f7 bb c3 93 19 3d 24 ca 6d 3d a2 03 4e 3d
       -0.0075681335 0.037494432 0.058054104 0.050296433
0002b0 21 58 6b 3c 47 1d cc 3c 53 09 de 3c 7b aa b8 3d
       0.014364273 0.024916304 0.027104056 0.090168916
0002c0 df 54 7f ba bd 82 c4 bc 26 38 19 3c 2a 61 b7 bb
       -0.0009740125 -0.023988122 0.009351766 -0.0055962997
0002d0 74 a6 41 3d 52 d2 91 bd d4 32 dc bc 89 53 be 3c
       0.047277883 -0.071201935 -0.026879705 0.023233192
0002e0 59 e2 27 3d be 6f ba 3c 22 fe a1 bd 20 80 a4 bd
       0.040987346 0.022758361 -0.079098 -0.080322504
0002f0 4c 09 9b bc 7b 8d ea ba eb 6f 02 3d 21 14 d1 bc
       -0.018925332 -0.0017894948 0.031845015 -0.025522294
000300 2f cb 99 bc c4 ad 1e bd 44 63 e0 ba 41 62 c9 3c
       -0.018773643 -0.038739935 -0.0017119427 0.024582984
000310 60 23 3d 3d 09 c0 1c bc 88 07 9a 3d 36 d6 10 3e
       0.046176314 -0.009567269 0.07520968 0.14144215
000320 21 4d 85 3c b5 99 0a 3d c3 f4 e4 3d 29 2b a1 3d
       0.01627213 0.033837993 0.11179497 0.0786956
000330 61 71 0b 3d 88 04 56 bd 45 d8 cc bd 7f 6b 1d bd
       0.034043673 -0.052250415 -0.10002188 -0.038432594
000340 9d 3b b6 bd 42 03 6c 3c 2e e2 4e bd a4 bb b0 bd
       -0.08898089 0.014405074 -0.05050867 -0.086295396
000350 d9 36 1d be 22 7c 88 bd e3 c9 87 bd 56 52 4e bd
       -0.15352954 -0.066643015 -0.06630304 -0.05037149
000360 65 0d f0 bd 11 be d9 bd b4 33 b7 bc 99 e7 89 bd
       -0.11721305 -0.106319554 -0.022363521 -0.06733627
000370 26 04 6b bc 00 f1 a5 bd ec e1 af bc fd fb 5c bd
       -0.014344251 -0.08102608 -0.021470033 -0.053951252
000380 38 e7 52 bc 72 ed ee 3d 89 f7 ca bc f7 32 9f bb
       -0.01287251 0.11666383 -0.024776237 -0.0048583704
000390 36 fa 09 bb 31 4a 44 3c 28 74 f7 3a 43 c2 b9 bd
       -0.0021053678 0.011980579 0.0018879222 -0.090702556
0003a0 93 9e 24 bd 60 ba b8 bd f4 48 26 bd dd 6e 75 3b
       -0.04019029 -0.09019923 -0.040596917 0.0037450113
0003b0 e1 4d e8 bc 4c 22 a5 bd a8 a2 7d bd 2a 32 5e 3c
       -0.028357448 -0.08063182 -0.0619227 0.013561765
0003c0 a3 0b 3a bd 07 0e cd bc a0 85 7f 3c fb b0 06 bd
       -0.045421254 -0.025031103 0.0155958235 -0.032883625
0003d0 ab 63 3c bb 90 98 50 3d 1e a0 51 3d 5e b7 e1 3d
       -0.002874593 0.050926745 0.05117809 0.11021303
0003e0 70 15 ba 3d 27 7d 67 3d b0 51 e0 bc 78 ee a2 bb
       0.0908612 0.05651584 -0.027382702 -0.0049722753
0003f0 5a b5 22 bc 26 b9 76 3d f3 b9 df 3c ae 43 33 3e
       -0.009930933 0.060235165 0.027310347 0.17506287

fc1.bias f4 [120]
000000 cd a3 b4 bd 10 5e 0b bc 92 52 5b 3d 42 86 f0 bd
       -0.08820305 -0.008506313 0.053545542 -0.11744358
000010 a3 15 b6 bd 88 5f 0b 3e ba f1 0d bd c6 cc 1c 3e
       -0.088908456 0.13610661 -0.034654357 0.1531249
000020 c9 27 fe 3d 7d 28 75 bb e0 97 1d 3d 33 6b 25 be
       0.12409932 -0.0037408166 0.038474917 -0.16154175
000030 e4 0d 0f 3e 2e 58 14 bd 1f 6e 49 3e c6 1a 05 bd
       0.13970143 -0.036216907 0.19670914 -0.032496236
000040 bc f3 9a 3d 9d 62 a8 3d 47 58 5d 3e 77 dd 94 3e
       0.0756602 0.08221934 0.21615706 0.29075214
000050 85 40 5a 3e e0 8e 11 bd 3a f1 94 3d 15 97 03 bb
       0.21313675 -0.035536647 0.07272573 -0.0020079066
000060 66 a7 76 3c 32 80 72 bd 09 d9 0f 3d 59 16 44 3d
       0.015054559 -0.059204288 0.03511909 0.047872875
000070 5f 34 f1 3a 4a f0 c1 3b 7c bb 3c bd 9a ca 02 3e
       0.0018402449 0.0059185373 -0.046077237 0.12772599
000080 bf 4c 58 3e 1f 32 8c 3c 77 31 9d 3d 1c 68 3c 3c
       0.21123026 0.017113743 0.0767545 0.011499431
000090 bd af 84 bc 27 35 e9 3c eb 29 0d 3e 6b 34 30 bd
       -0.01619708 0.028467728 0.13785522 -0.04301874
0000a0 dd ff b8 3c bc bf f0 bb c9 b8 35 be 56 a2 59 3d
       0.022582943 -0.0073470753 -0.17746271 0.05313333
0000b0 e7 38 82 3d 19 ed 13 3e 72 ed 25 be 7f 7a 8b be
       0.063585095 0.14445914 -0.1620386 -0.27241895
0000c0 e6 f5 82 be 58 84 06 3d a0 8b 3c bc 06 dd f0 3b
       -0.2557823 0.032841057 -0.011507899 0.007350567
0000d0 b9 3e a0 3c 19 c6 96 3c b2 75 35 3e 94 db 73 3d
       0.019561158 0.018405007 0.17720678 0.059535578
0000e0 b5 7d fc 3d 7e ae 11 be 57 db e1 bc 76 96 0c 3e
       0.12328664 -0.1422672 -0.02757041 0.13729271
0000f0 e9 eb 1c 3e cc 41 62 bd 88 34 78 3d d3 fd 5a be
       0.15324368 -0.05523853 0.060596973 -0.21385889
000100 5a 9c 22 be e9 fc 98 bc ac cc e6 3d 2c e7 02 3e
       -0.15879956 -0.018675284 0.11269507 0.12783498
000110 0b be df 3d 5f 8e 7b bd 5f 01 01 be df ad b8 3b
       0.1092492 -0.061415073 -0.1259818 0.0056359614
000120 4f aa 01 3b d6 7a 42 bd 90 5e ab 3d 5e 86 29 3e
       0.001978535 -0.047480427 0.08367646 0.16555163
000130 2c 30 ff bd fd 97 34 3d 25 d9 2c 3e 8d 31 a2 3b
       -0.1246036 0.04409026 0.16879709 0.0049497546
000140 0f 01 04 3e 82 38 0d bd 52 7a f7 bc 85 63 25 bd
       0.12891029 -0.03447772 -0.030209694 -0.040378112
000150 9e 86 0a 3e 0b ed 49 bd e0 2f 6f 3c 2f 3b a9 3a
       0.13527915 -0.049298327 0.014598817 0.0012911315
000160 08 74 14 3d c5 89 ee bb 3c 71 39 be ba ac 1b 3e
       0.03624347 -0.007279607 -0.18109602 0.15202609
000170 16 f7 e2 bd 83 cc d8 bc 9f 7e 1f 3e 6a ac a7 3d
       -0.11082284 -0.026464706 0.15575646 0.08187182
000180 af 56 01 3e 1a 3e dc bc 0f 6d 37 be e6 f5 bf bd
       0.12630723 -0.026885081 -0.17912696 -0.09373073
000190 b0 04 28 bd 01 d2 06 bd 6a ab bf bd 3b d1 1e bd
       -0.041020095 -0.03291512 -0.093588665 -0.038773756
0001a0 59 6f fc bd 6d 4d 13 bd 5a c4 45 be 9c d7 5c 3e
       -0.123259254 -0.03596251 -0.19313183 0.21566623
0001b0 fa ce 34 3e f7 dc 7c 3e 30 b1 a3 3c a7 0f 21 3d
       0.1765708 0.24693666 0.01998195 0.039321568
0001c0 77 0e e8 bd aa 7d 07 3e 0b 43 b5 bd aa 49 de bb
       -0.11330884 0.13231531 -0.08850678 -0.006783684
0001d0 35 82 02 3c 27 b7 2b bd e4 8b d5 39 d6 37 03 be
       0.007965614 -0.041922715 0.00040730753 -0.12814268

fc2.weight f4 [84, 120]
000000 42 9a dd bc f5 4b 6b 3c fe 8d b6 bc a6 9c 64 3d
       -0.027051095 0.014361371 -0.022284504 0.055813454
000010 52 ce ef bc 28 a5 19 3e d5 58 76 3b 77 74 1c 3e
       -0.029273186 0.15004408 0.003758957 0.15278803
000020 93 56 30 bb ee bc 94 3d a5 a6 44 bd 32 91 60 3d
       -0.002690707 0.07262598 -0.048010487 0.05482597
000030 85 e2 1f be 20 64 99 3d 14 83 17 bd 48 86 8b bd
       -0.15613754 0.074898005 -0.03699024 -0.068127215
000040 0b 46 9d 3d 2f 53 67 bc ac 15 ed bd 7c d6 30 3e
       0.07679375 -0.014118954 -0.11576399 0.1726932
000050 aa 38 2f 3d 8b b5 9c bd 53 99 c5 bd 99 f3 50 be
       0.04277865 -0.07651814 -0.09648385 -0.20405425
000060 6c a6 8b 3d 7a 6a 9a bd 6a 80 c5 3d 89 67 76 3d
       0.06818852 -0.0753984 0.09643634 0.060157333
000070 32 ae 6e 3d 8b ba 0d 3e f9 a7 69 be 08 fd 96 bc
       0.058271594 0.13840692 -0.22817983 -0.018431202
000080 ea 64 0b 3e 30 e2 ad bd 94 14 00 ba 56 34 db bd
       0.13612714 -0.084904075 -0.0004885879 -0.10703342
000090 55 fd 0b 3c b4 08 c7 3d b4 77 a8 3d 00 b2 d1 bc
       0.008544286 0.09718457 0.082259566 -0.025597572
0000a0 15 97 58 3c da 67 36 3b a6 d4 8e bd d7 a6 2a 3e
       0.0132196145 0.0027832896 -0.06974153 0.16665207
0000b0 fd 31 1f 3d 7f f6 82 bd 62 44 40 bd 9c df d3 3c
       0.038866032 -0.06394672 -0.046940215 0.025863461
0000c0 a7 b6 4b 3c b4 2d 81 bc 09 2c 72 bd 0a c4 78 3c
       0.012433684 -0.015768863 -0.059124026 0.015183458
0000d0 9f 87 a2 bb fb 52 b9 3c 2a 9b 15 bd d5 4c d6 3c
       -0.004960015 0.022622576 -0.03652493 0.026159683
0000e0 32 97 36 3e 66 74 1c 3d 99 58 03 bd a5 23 b9 bd
       0.17831114 0.038196944 -0.032066915 -0.09040002
0000f0 7f 0a de bd f6 90 37 bd a4 34 00 be 3e a4 2a 3e
       -0.10841846 -0.04481598 -0.12520081 0.16664216
000100 8d e2 df 3d 4b ff 95 bd 14 01 d7 3c af 0d 81 3d
       0.10931883 -0.07324084 0.026245631 0.06301438
000110 14 8e d8 3d 70 83 4c 3c eb d0 29 3e 93 2d 04 be
       0.10573974 0.012482509 0.16583602 -0.1290801
000120 ea 96 00 3d d0 68 13 be a4 ac 25 3e 6a 22 13 3d
       0.031393923 -0.14395452 0.16179138 0.03592149
000130 29 c1 85 3d 19 77 0a 3d 17 ee 01 be 72 94 c9 bc
       0.06530983 0.033804987 -0.1268848 -0.024606917
000140 50 57 41 3d 2b ca a3 bc c8 af 58 bc 1d a1 67 3e
       0.04720241 -0.019993862 -0.013225503 0.22620054
000150 db 7c 30 3e 29 47 25 3d b6 4f 3e bd b7 c9 06 bc
       0.17235129 0.040351067 -0.046462737 -0.0082268035
000160 64 19 04 bc 29 ee 89 bd 69 df d1 3d d3 b4 04 bd
       -0.008062694 -0.067348786 0.1024769 -0.03239901
000170 08 d8 d2 3d 0b 07 f9 3c 90 a8 53 be de 04 78 bc
       0.10295111 0.030398866 -0.2066977 -0.015137879
000180 af 58 62 3e c8 65 80 bd 41 1d a0 3c 67 dd 5d bd
       0.22104143 -0.06269413 0.0195452 -0.054166224
000190 d8 84 42 3d 28 45 73 3c 4d 65 a5 bd 45 56 b4 bd
       0.04748997 0.014848031 -0.08075962 -0.08805517
0001a0 60 d2 2b bd 10 66 27 bd e7 7a 7e 3e fc d4 71 be
       -0.041948676 -0.04086882 0.24851571 -0.23616403
0001b0 03 ac 35 3e c3 57 c3 3c cd 1d c2 bd e5 19 25 3e
       0.17741399 0.023845559 -0.0947834 0.16123159
0001c0 56 a3 89 3d 89 b7 0a 3c 70 de a2 3d 02 bd d2 bd
       0.06720607 0.00846661 0.07952583 -0.10289957
0001d0 09 d1 48 3c 30 b8 d7 3d 0a 50 c5 3d 03 59 d5 3c
       0.012256869 0.10533178 0.09634407 0.02604342
0001e0 d4 b7 b6 bd 74 ed 61 bd f0 00 89 3d 80 ec 56 3d
       -0.08921781 -0.055158094 0.06689632 0.052471638
0001f0 39 1c 3a 3c 61 7b 4f be 97 52 38 3e 56 d8 eb 3d
       0.011359268 -0.20261909 0.18000256 0.11515872
000200 c3 ab dd bd 58 09 89 bd 74 b7 13 bd 39 37 d6 3d
       -0.108237766 -0.06691235 -0.036063626 0.10459752
000210 09 84 8d 3e 8b 13 81 3d aa 33 87 bc 34 2b a1 3b
       0.27639797 0.06302556 -0.016504128 0.0049184803
000220 0a 94 16 3e 3a e3 2a 3b 08 13 a4 3d 33 a5 aa 3c
       0.1470491 0.002607538 0.080114424 0.020830726
000230 3c 8b 4a bd b0 19 03 3e 48 0d d0 3d 84 19 6f 3e
       -0.04944919 0.12802768 0.10158783 0.23349577
000240 77 aa aa 3d 7a 5b 90 3d d0 4f df 3d 6a 98 bc 3d
       0.08333295 0.07048698 0.10903895 0.09208758
000250 18 28 20 3d a2 99 15 bd 2f 43 4c bd 33 d8 01 bc
       0.039100736 -0.03652347 -0.04986876 -0.007925081
000260 5e fb 61 be 0c bc 41 3d fb e2 d6 bc 01 c6 7a 3d
       -0.22068545 0.047298476 -0.02623128 0.061223987
000270 95 05 f0 3d 09 30 d5 3c 7f bf 77 3d 57 30 d0 3b
       0.11719815 0.026023882 0.06048536 0.006353419
000280 85 6b 5f 3d 81 06 0c 3e d4 90 03 3e e0 ea 36 be
       0.054545898 0.13674356 0.12848216 -0.17863035
000290 09 d2 58 3d 90 1f 2c 3b d3 02 71 bd 7b 8d 52 3d
       0.05293468 0.002626393 -0.058840584 0.051404458
0002a0 7b 75 d3 bd 91 03 96 3d fd f8 14 3c bd 35 96 bd
       -0.10325142 0.07324899 0.009092567 -0.073344685
0002b0 46 7c 32 bd 1d a6 3e be ff 82 37 bd d2 5b 71 3d
       -0.043575548 -0.18618055 -0.044802662 0.058925457
0002c0 ff 21 03 3e d3 4c 89 bd d7 44 02 3d 69 81 e8 3c
       0.12805937 -0.06704106 0.031803932 0.02838202
0002d0 b0 d5 df bd 65 84 63 3d 78 1f 85 bd 65 a5 42 3e
       -0.109294295 0.055546183 -0.06500143 0.19008406
0002e0 6b b4 96 3c 02 4d b1 bc 92 f7 4e 3e 8b c7 2b bc
       0.018396577 -0.021643165 0.20211628 -0.0104845865
0002f0 6a a7 29 3d 98 00 4c bd 39 a3 94 3a 77 87 96 3d
       0.041419424 -0.049805254 0.0011340148 0.073500566
000300 32 57 c1 bd 7d 02 ec 3d 0c 28 96 bc 19 be 61 3d
       -0.09440459 0.11523912 -0.018329643 0.055112932
000310 70 e0 1a 3c 2e 5f a6 bd c5 14 7f bd 9e f2 84 3c
       0.009452924 -0.08123623 -0.062275667 0.01622897
000320 64 9c 91 bd 22 07 fa bc 1e e4 47 bd 9d 29 87 bd
       -0.07109907 -0.03052098 -0.048801534 -0.06599734
000330 06 94 02 be 30 f7 73 bd 50 1b 1e 3e f2 d5 10 bb
       -0.12751779 -0.05956191 0.15440106 -0.0022100178
000340 08 08 a0 bc 8c 5e bd 3d e2 12 23 3e 15 c9 cd 3d
       -0.01953508 0.09246549 0.15925172 0.10048119
000350 c2 8d a7 3d ce 7e 96 bd bd ea 76 3e 4f 8e e7 bc
       0.08181335 -0.07348405 0.24112983 -0.0282661
000360 a5 d1 32 be df 3d de 3c cb ac 2a bd ca 8e a8 bd
       -0.17462786 0.027129112 -0.041668694 -0.0823036
000370 01 71 a2 3d 4c f9 7b bc 64 9b 90 3c 1b fe 9b 3d
       0.0793171 -0.015379261 0.017652221 0.07616826
000380 92 4b a4 3d a4 2a 05 3e 9c fc a5 be ba 70 8d bd
       0.080222264 0.13004547 -0.32419288 -0.069062665
000390 ab a6 a4 bc 17 1d 3f bd b7 5b 29 3e 41 b3 ae bd
       -0.020099005 -0.0466586 0.16538893 -0.08530284
0003a0 c9 80 f9 3a bf d4 b6 bc 68 8e f8 bc b4 47 9a 3d
       0.0019035573 -0.022318242 -0.030341342 0.075332075
0003b0 db 3d 68 3c df 3d 77 bd 1a 3a ad bc 8c 7d 9f 3d
       0.014174904 -0.06036174 -0.021145869 0.07787618
0003c0 d1 a3 7e 3e 65 39 90 bd 56 df 01 3e d1 71 a1 3d
       0.24867178 -0.07042197 0.12682852 0.07883037
0003d0 70 9a 15 bd ec 8a 42 bd 43 8f 07 bd 6d 01 b3 bd
       -0.036524236 -0.047495767 -0.03309561 -0.08740506
0003e0 6e f5 9e bd 0d 1c 8a bd 27 e7 93 3e 1b 34 cf 3c
       -0.07761656 -0.067436315 0.28887293 0.0252934
0003f0 c0 ea 23 3d 5a 13 9f bd 2c 75 c4 bd 34 fe af bc
       0.040018797 -0.07767363 -0.09592661 -0.021483518

fc2.bias f4 [84]
000000 31 58 b9 3d 3b 28 5c 3d b8 0e 3c 3d 30 ad 50 bb
       0.09050024 0.053749304 0.045912474 -0.003184151
000010 f0 81 15 3d 29 1e 7c 3e f9 a3 dc 3a ea e8 1d be
       0.03650087 0.2462088 0.0016833536 -0.15420881
000020 19 3a 90 3d 6c d8 1c be 92 a8 73 3e 9a bc 50 be
       0.07042331 -0.15316933 0.23794773 -0.20384446
000030 ca 4d 04 3e 37 1b 15 bd 1c 54 cc 3d 03 a3 d6 bd
       0.12920299 -0.036402907 0.0997698 -0.10480311
000040 a1 1a 30 3e cd ae 69 3e d0 4e 8b bd d5 fe a2 3e
       0.17197658 0.22820587 -0.06802142 0.31835046
000050 0c 4b 1f ba a8 1c d2 bc 98 d2 b1 3c f4 a5 e8 bc
       -0.00060765515 -0.02564843 0.021706864 -0.028399445
000060 f1 36 d0 3d 6f 5e 06 bd b1 a2 0c be f1 c1 8a 3e
       0.10166729 -0.032804903 -0.13733937 0.2710109
000070 71 f4 95 3d 70 67 d3 ba 2d 14 8e 3e 10 ab 9f bd
       0.07322014 -0.0016128849 0.27749768 -0.077962995
000080 f7 c2 a2 bd a8 93 53 bb 00 63 5e be 3e f9 2c 3e
       -0.07947343 -0.0032284055 -0.21717453 0.16891953
000090 f7 75 14 bc 04 16 f7 3d ff b1 4b 3d 89 e5 2a 3d
       -0.009061328 0.12064746 0.049730297 0.041722808
0000a0 74 89 b4 3d bc c9 8c bc 35 ff 45 bc e6 dc 2b 3d
       0.088152796 -0.017186038 -0.012084772 0.041958712
0000b0 2e 32 18 be 40 fc 84 3c cb af 25 3d 5d 3f f2 bc
       -0.14862892 0.016233563 0.040450852 -0.02957123
0000c0 04 d5 c7 bd f2 8d 82 bd 67 24 49 be 13 50 c0 3d
       -0.097574264 -0.0637473 -0.19642793 0.09390273
0000d0 cf 79 95 3c 44 db 42 3e bc a8 ac bd db 72 18 3e
       0.01824656 0.19028956 -0.08430621 0.14887564
0000e0 3a 68 ee 3d c1 bf 90 3d 8c a2 b2 3d c5 c6 08 3e
       0.116409734 0.07067824 0.087224096 0.13357075
0000f0 be 11 29 bd a3 e4 cb bc 45 93 74 bd 82 59 49 bd
       -0.041276686 -0.024889296 -0.05971076 -0.049157627
000100 e8 08 f5 3d cc 65 c6 3d c9 f7 0d be a8 f0 0a be
       0.11964589 0.09687385 -0.13864054 -0.13568366
000110 f3 72 91 3c 60 56 89 3d 7f 41 02 3e f0 07 99 bd
       0.017755007 0.06705928 0.12720297 -0.07472217
000120 95 f9 76 3d f9 07 71 be c7 2e 7c bd b9 bd 89 3d
       0.060296614 -0.23538198 -0.061568048 0.0672564
000130 ea dd c2 3b d4 5d 10 3e 6b 0c 88 bc 38 42 ef bc
       0.0059468644 0.14098293 -0.016607484 -0.02920638
000140 91 f0 c8 bd 10 85 2f 3e 02 bb a3 bc a5 4e 5c 3e
       -0.098115094 0.17140603 -0.019986633 0.21514376

fc3.weight f4 [10, 84]
000000 b8 e7 15 be df 55 a1 bd 6f 94 18 3e 1b 2d 42 3e
       -0.14639175 -0.07877707 0.14900373 0.18962519
000010 d4 a2 41 bd 0e 1e 82 be 61 95 bd bd 97 bf c9 3e
       -0.047274426 -0.25413555 -0.092570074 0.39403984
000020 4a 8e 8d bd d2 4d 23 3d 21 71 56 be fc ad 21 3e
       -0.06911905 0.039869137 -0.20941593 0.15789026
000030 2e 91 05 3e 03 94 06 3e 23 8e 29 be 70 de 60 3c
       0.13043663 0.131424 -0.16558127 0.013724908
000040 b9 d6 e4 be 17 d3 a5 bd 16 d8 0f 3d d8 24 fe 3d
       -0.4469507 -0.08096903 0.035118185 0.12409371
000050 98 03 97 bd b6 63 78 bd 20 21 b7 bc 5d 14 63 3e
       -0.07373732 -0.060641967 -0.022354662 0.22175737
000060 4b c1 dc 3d 69 7f a1 3e 0f 46 0a 3e 88 3b 1f be
       0.10779055 0.3154252 0.13503288 -0.15550053
000070 a1 b9 78 be df 22 bd 3d 25 bf 44 3d 91 91 50 bd
       -0.24289562 0.09235167 0.048033852 -0.050920073
000080 0e e0 6c bd 60 5b cb bd 61 a2 e1 3e 03 0f 97 bd
       -0.057830863 -0.09929538 0.44069198 -0.0737591
000090 96 1f e7 bd a4 b7 f5 bd 1d 26 8b be ec ad 90 be
       -0.112853214 -0.11997917 -0.27177516 -0.28257692
0000a0 31 51 3e be a9 cc b1 3d 7b f5 d8 bd 2b 5c a9 3d
       -0.1858566 0.08681614 -0.10593697 0.08269533
0000b0 e0 38 7c 3b 31 2f 4d be 33 95 06 be 71 ce 01 be
       0.0038486049 -0.20037533 -0.13142852 -0.12676407
0000c0 40 78 39 3e 61 89 b2 bd f9 93 73 3e 59 ea d3 3d
       0.18112278 -0.08717609 0.23786916 0.10347433
0000d0 f2 7d e8 3d 24 c9 00 3e 05 43 84 bc 07 4a a3 be
       0.11352147 0.12576729 -0.016145239 -0.31892416
0000e0 72 a0 26 be cb 27 ab bc ce 70 8a 3e fe 97 7e bc
       -0.16272143 -0.020892998 0.27039188 -0.015539167
0000f0 d8 62 d0 3d 8e 6f e7 bd ad 9f 4c bd b1 b5 fc bd
       0.10175103 -0.11300574 -0.049956966 -0.123393424
000100 3f e9 ad bc d4 08 1f be f8 7b 0d bd 60 50 d7 3e
       -0.021229384 -0.15530711 -0.034542054 0.4205351
000110 21 20 e9 3b 20 8b 5b 3e 16 99 60 be f1 57 b5 bd
       0.007114426 0.2143979 -0.21933398 -0.08854664
000120 f3 ab 3d bc 36 52 32 3e 72 6a 31 bd da c9 fc 3d
       -0.01157664 0.17414173 -0.043314405 0.12343188
000130 fb 65 aa bd ec ee 8f 3e dc 89 b7 3e d5 a6 04 3e
       -0.083202325 0.2811197 0.35847366 0.12954266
000140 c9 f1 39 3d 04 ec c4 3d 0b d8 d5 3d 99 34 a0 3d
       0.0453966 0.09615329 0.104415976 0.07822532
000150 a4 db 12 bd 1b a2 8d 3d 2e 55 49 be ab ce ef bd
       -0.035853997 0.06915685 -0.196614 -0.11709341
000160 31 7f 07 3e 32 7e bb be 8c f3 28 be 20 99 7a bd
       0.13232113 -0.36619717 -0.16499156 -0.061181188
000170 da 20 9d be c9 a5 fa 3d 4c 9e df bd 05 94 37 3e
       -0.30689126 0.12238652 -0.109188646 0.17927559
000180 98 7e 2e 3e ba 40 0b 3e 74 ca 98 be 6c a6 47 be
       0.17040479 0.1359891 -0.2984196 -0.19497079
000190 6a cd 10 3e 8b 9d 8b be 44 b8 14 bc 1a db 58 3d
       0.14140859 -0.27268633 -0.0090771355 0.052943327
0001a0 fd 87 f1 bc 91 85 a2 bb 77 3b 52 3d 2b 89 d4 be
       -0.02948379 -0.00495977 0.05132624 -0.415109
0001b0 1d d7 52 be ad eb 28 3d 51 6b 73 be fb 41 9e be
       -0.20589872 0.041240383 -0.23771407 -0.30909714
0001c0 d7 58 07 3e 28 25 26 be 67 28 6f be 6f 0b a3 3d
       0.13217483 -0.16225111 -0.23355256 0.07961165
0001d0 73 d7 8c be ef 9f 39 bd 38 e0 df bb 41 9a 1c 3e
       -0.27508125 -0.04531854 -0.006832149 0.15293218
0001e0 30 08 6e bd 4d 20 45 be ae 10 87 be 53 9f 68 3e
       -0.058113277 -0.19250603 -0.26379913 0.22717027
0001f0 21 ee e5 bd 6e b0 62 3c 0d 9e 00 3e 97 83 78 bd
       -0.1122706 0.013836009 0.12560292 -0.06067237
000200 80 c3 5e be 16 8f 89 3d 8d a8 b0 3d b5 35 04 be
       -0.21754265 0.067167446 0.086258985 -0.12911113
000210 86 46 4d 3d e6 8c 88 be be 76 cc 3c 9c 18 97 be
       0.050116085 -0.26669997 0.024958964 -0.29510963
000220 7a 8a 77 be 69 f5 4f 3b 3a 69 20 be 4a 38 6f 3d
       -0.24173918 0.003173197 -0.15665141 0.05840329
000230 11 73 3b 3e 00 01 2f 3e f0 0c c8 3d 2b 02 f1 be
       0.18305613 0.17090225 0.09768093 -0.47071967
000240 fd c6 1e be 2b 7e 32 3e 17 aa 44 3e 80 52 70 be
       -0.15505596 0.17430942 0.19205509 -0.23468971
000250 53 3f be 3c 33 70 36 3d bb 90 80 bc 1e e9 e2 3d
       0.023223555 0.044540595 -0.015694013 0.1107962
000260 4f 68 93 3c d4 dd e4 bd 9a eb 1b 3e fd ba 90 3c
       0.017994074 -0.11175123 0.15226594 0.017667288
000270 93 92 ff 3d b3 4e 03 be eb 83 21 be b2 45 69 be
       0.12479129 -0.1282299 -0.15772979 -0.22780493
000280 82 19 5e be a1 0f 7f be 28 75 ea be a2 bf c7 3c
       -0.21689418 -0.24908306 -0.45792508 0.02438337
000290 b8 a9 30 be 39 c4 b9 3c 43 70 ad bd 56 19 a3 39
       -0.17252243 0.022676574 -0.08468678 0.0003110866
0002a0 54 3b 26 3e 3f f2 10 bd d9 8a 66 3e d7 50 d6 bc
       0.1623357 -0.035387274 0.22513904 -0.026161594
0002b0 30 8a c3 3d 7b bf ad bd 04 57 94 bd 9a d6 35 3e
       0.095478415 -0.084837876 -0.072431594 0.17757645
0002c0 99 13 c8 bd 88 72 bb 3d 99 55 4b ba cc 9b 2d be
       -0.09769363 0.091527045 -0.00077565905 -0.16953963
0002d0 e0 d5 ec bd 9e f6 ce bd 16 d0 d3 3c 4a 34 bc 3e
       -0.11564231 -0.10105632 0.025856059 0.36758643
0002e0 35 92 a9 3d 6d e6 27 3d 95 cb 15 bd 27 d6 8f 3d
       0.0827984 0.040991236 -0.036571104 0.07023268
0002f0 10 6c 1c be 4d 4f 48 3d 6e 29 70 be 5b 1e a2 3d
       -0.15275598 0.048903752 -0.23453304 0.07915946
000300 fe bc 3c 3c f5 c7 98 3b 5c d2 cd 3d 56 56 5e 3e
       0.011519669 0.0046625086 0.100498885 0.21712622
000310 ad 0a 80 3e 1b 1c 82 3d 8b 65 9a 3e 62 97 a3 bd
       0.25008145 0.06353017 0.30155596 -0.07987858
000320 f5 48 4b 3e 14 01 91 3c 10 e9 89 be be d4 02 be
       0.1985205 0.01770071 -0.26935625 -0.12776467
000330 c0 6d f5 bb d2 7b ca 3c c0 7d bd bd c9 08 2f 3d
       -0.00748989 0.024717245 -0.092525005 0.042732988
000340 7c aa de bd 46 9d 12 bd 07 55 d9 bc c8 92 9e bd
       -0.10872361 -0.03579452 -0.026529802 -0.0774284
000350 94 3f 16 be aa 01 16 bd ac 31 df bc 12 4b aa 3d
       -0.1467269 -0.03662268 -0.027245365 0.083151
000360 08 73 9b 3e 4e cb 60 be e6 a9 67 3e eb 21 02 be
       0.303612 -0.21952555 0.22623405 -0.12708251
000370 af be 45 3d 25 52 51 3e 3e e4 12 3e 4d 43 eb bc
       0.048277553 0.20441492 0.1434488 -0.028718615
000380 cb da 60 be 92 21 0b be dc 75 0d be 5d 75 1b 3d
       -0.21958463 -0.13587025 -0.13814491 0.037953723
000390 4c 6a c1 3d f9 88 8c bc e8 0f 10 3d 0d 62 77 3d
       0.09444103 -0.017155157 0.03517142 0.060396243
0003a0 38 47 22 3d 37 0f 07 bd 49 dc 88 3e 91 b2 8e bd
       0.0396187 -0.032973494 0.26730564 -0.069676526
0003b0 37 30 c4 3c 69 e5 1b be 55 c2 36 3e e2 5a 2b be
       0.023948772 -0.15224232 0.1784757 -0.16733888
0003c0 23 cd 2a bd 12 2f 12 3e 79 c9 50 be 66 f4 4d 3e
       -0.04169954 0.14275768 -0.20389356 0.20112762
0003d0 96 17 9f bd 6a 47 df 3c db ff 9c 3e 21 0e 1c be
       -0.077681705 0.027255733 0.30663952 -0.15239765
0003e0 7b 34 88 3e c5 52 be 3d 83 64 9d 3e 8e 3b 50 3e
       0.2660254 0.09293131 0.30740747 0.20335218
0003f0 10 ea da 3d cd 9b cf bd 17 bd 9e bd e2 6c 66 bc
       0.10689175 -0.101371385 -0.0775091 -0.014064046

fc3.bias f4 [10]
000000 5e 6e 8c be 56 2d 88 ba 78 aa a3 bd 62 5e 93 3c
       -0.27427953 -0.0010389488 -0.07991499 0.017989341
000010 63 4a 9b 3d c0 9a 67 bd af 90 fd bc 10 fa 10 bd
       0.075825475 -0.056544065 -0.03095278 -0.03539473
000020 d0 84 82 3d 26 28 29 3c
       0.06372988 0.010324514
