resources/lenet_e20b50_clean_model.pt (torch_old, 249645 bytes, 10 tensors)

conv1.weight f4 [6, 3, 5, 5]
-0.06126525 0.052965976 0.034681544 0.009627783 -0.030030476 -0.080475435 0.06490634 0.17072126
0.059997965 0.10034522 -0.00040855727 0.038580522 0.18051375 0.052386668 -0.084477805 0.020109236
0.06523688 0.19408602 0.09719631 0.07614846 0.083629996 0.15951702 -0.009203536 -0.022994563
0.11343668 -0.11522863 0.14520428 0.052767467 0.09361481 0.13108902 -0.042171907 0.12732103
0.22327213 0.18997052 0.13529733 -0.084083706 0.041242808 0.21281338 0.1737765 0.029147642
0.035862066 0.058218554 0.13233158 0.15075424 0.09894109 -0.048206974 0.12197567 0.14302433
0.058947627 -0.063712746 -0.18015805 0.08649506 0.13450578 0.02898813 0.06794349 -0.038544726
0.07358918 0.076429844 0.058964837 -0.07787522 -0.17814328 -0.046765618 0.18023278 0.13008392
-0.119836 0.010597062 0.064133205 -0.074317425 0.03623115 -0.029720865 -0.020746334 0.008335894
-0.08441263 -0.0016602396 -0.024146933 0.033645324 0.13516411 0.16030067 -0.02409213 0.12680048
-0.06491932 -0.09155542 0.004920127 -0.04946845 -0.046732068 0.003794997 -0.12596658 -0.15517914
-0.19349214 -0.1094629 -0.03370794 0.13779175 0.015355486 -0.0407602 0.10199517 -0.049286425
-0.10492595 0.13814245 0.040615205 -0.020674959 0.013779119 0.0051551983 0.09537337 0.00974201
0.11694282 -0.03372985 0.007041168 -0.07813461 0.019695474 0.14005631 -0.031094197 -0.026057469
-0.09034187 -0.0835816 -0.07441882 0.10208143 0.07106084 0.13027401 -0.09703818 0.09480466
0.08102328 -0.015597423 0.04674365 -0.11911747 0.14084987 -0.09259784 0.06396294 -0.06966477
-0.014003151 -0.017235331 -0.080474325 0.025328567 0.09282833 0.06041698 0.03850335 0.08242852
-0.034368534 -0.061175536 -0.17297804 -0.102586135 -0.031133564 -0.047947414 0.15075572 0.09756165
0.057485864 -0.05635987 -0.062892854 0.118060045 -0.14065102 0.0390921 0.018714933 -0.18525001
-0.26073542 -0.14801507 -0.0014876993 0.050931893 -0.023507617 -0.14582826 -0.12158718 -0.024667466
0.096121185 0.074384086 0.043470625 -0.040097073 -0.018959198 0.112950094 0.15036297 0.20258307
0.111342564 0.063893765 0.037981473 -0.019866604 0.11524085 0.14159244 0.08730265 0.01691964
-0.19089136 -0.16793595 -0.04252382 0.029981384 -0.08994174 -0.0050891778 -0.06080472 -0.20240657
-0.075529985 0.06617075 0.08537007 0.078223854 -0.016910477 -0.15513875 0.10055101 0.19639674
0.15980093 0.08047482 -0.14967279 0.037532173 0.03581082 0.0590706 0.12281691 0.038675
0.09748432 -0.085686944 -0.16570197 -0.1540921 0.17802514 0.06486215 -0.0024980425 -0.048544407
-0.18755542 0.051203277 -0.070751466 0.0923539 0.056499533 -0.06344216 -0.19829713 0.018158706
0.16202994 0.19498746 0.185084 0.05566443 -0.001760778 0.11617863 0.08796141 0.055009287
0.08080262 0.10755072 0.0409018 -0.024806103 0.009385663 0.037695155 -0.01674857 0.10468897
0.045786716 -0.035623297 0.06147051 0.004497829 0.07218314 -0.046550706 -0.029151876 -0.1349726
0.056101218 -0.07043279 -0.122090966 -0.09258269 -0.013605473 -0.00096543325 -0.018762471 -0.014314786
-0.086453944 0.07968509 -0.013080234 -0.026901353 -0.03163644 0.013782541 -0.121311605 0.13010687
00000000: 45f1 7abd daf2 583d 3c0e 0e3d d9bd 1d3c
00000010: 7902 f6bc 4ed0 a4bd 9ded 843d 8ed1 2e3e
00000020: 6dc0 753d cb81 cd3d a133 d6b9 9c06 1e3d
00000030: 99d8 383e 6793 563d b302 adbd 20bc a43c
00000040: ea9a 853d 7cbe 463e dc0e c73d b9f3 9b3d
00000050: 3446 ab3d 6e58 233e 6eca 16bc 185f bcbc
00000060: 7d51 e83d fdfc ebbd 6eb0 143e b322 583d
00000070: 1fb9 bf3d 333c 063e 73bc 2cbd 7260 023e
00000080: 73a1 643e a287 423e 628b 0a3e 1434 acbd
00000090: 38ee 283d c0eb 593e 78f2 313e 09c7 ee3c
000000a0: 1ae4 123d 9476 6e3d ee81 073e 525f 1a3e
000000b0: a0a1 ca3d ad74 45bd 61ce f93d f874 123e
000000c0: 1173 713d d47b 82bd 5a7b 38be 5224 b13d
000000d0: e2bb 093e 8478 ed3c f525 8b3d 13e1 1dbd
000000e0: edb5 963d 4087 9c3d 1d85 713d 0b7d 9fbd
000000f0: 316b 36be 4e8d 3fbd f18e 383e b834 053e
00000100: 946c f5bd 4d9f 2d3c 4558 833d bc33 98bd
00000110: 1d67 143d 2c79 f3bc 37f4 a9bc 4693 083c
00000120: 87e0 acbd 669c d9ba cacf c5bc aecf 093d
00000130: 7668 0a3e dc25 243e dc5c c5bc fcd7 013e
00000140: 6cf4 84bd 6881 bbbd 0439 a13b 6e9f 4abd
00000150: 206a 3fbd 7cb5 783b 62fd 00be 48e7 1ebe
00000160: ce22 46be 162e e0bd 5611 0abd 4819 0d3e
00000170: 9495 7b3c 2bf4 26bd d8e2 d03d 90e0 49bd
00000180: 6be3 d6bd 3775 0d3e 215c 263d 885e a9bc
00000190: d0c1 613c f0ec a83b 1d53 c33d f49c 1f3c
000001a0: b87f ef3d 5028 0abd 99b9 e63b 0a05 a0bd
000001b0: 6758 a13c ec6a 0f3e 42b9 febc 7976 d5bc
000001c0: 2905 b9bd d42c abbd e568 98bd 1210 d13d
000001d0: 5888 913d 8d66 053e f4bb c6bd f228 c23d
000001e0: 89ef a53d 558c 7fbc 4576 3f3d dcf3 f3bd
000001f0: f33a 103e f0a3 bdbd 00ff 823d 67ac 8ebd
00000200: 796d 65bc 1c31 8dbc b9cf a4bd db7d cf3c
00000210: c81c be3d cc77 773d b0b5 1d3d 49d0 a83d
00000220: 05c6 0cbd 3393 7abd 2821 31be ae18 d2bd
00000230: d10b ffbc 8264 44bd b55f 1a3e 67ce c73d
00000240: 4c76 6b3d 9bd9 66bd f8cd 80bd 77c9 f13d
00000250: d206 10be 0a1f 203d 0f50 993c 2eb2 3dbe
00000260: 1d7f 85be 4391 17be e8fe c2ba f69d 503d
00000270: 0c93 c0bc 0154 15be b302 f9bd 6d13 cabc
00000280: 2fdb c43d af56 983d 410e 323d d43c 24bd
00000290: 5250 9bbc 6152 e73d c0f8 193e f071 4f3e
000002a0: 9207 e43d bcda 823d 7692 1b3d 4abf a2bc
000002b0: 6503 ec3d 9cfd 103e bbcb b23d 0f9b 8a3c
000002c0: 0679 43be 67f7 2bbe 752d 2ebd 859b f53c
000002d0: 6033 b8bd 1ec3 a6bb 5f0e 79bd ab43 4fbe
000002e0: 77af 9abd 8884 873d 81d6 ae3d d433 a03d
000002f0: d787 8abc b1dc 1ebe b0ed cd3d 3a1c 493e
00000300: dba2 233e fccf a43d d343 19be 56bb 193d
00000310: 5eae 123d 03f4 713d 6f87 fb3d ad69 1e3d
00000320: dca5 c73d a37c afbd c7ad 29be 52ca 1dbe
00000330: 394c 363e 72d6 843d 33b6 23bb 80d6 46bd
00000340: 870e 40be 87ba 513d 25e6 90bd 0b24 bd3d
00000350: 0e6c 673d f7ed 81bd 670e 4bbe 91c1 943c
00000360: 2deb 253e cbaa 473e a986 3d3e 6300 643d
00000370: e8c9 e6ba 10ef ed3d 1d25 b43d 6b51 613d
00000380: d87b a53d 8d43 dc3d a588 273d 2b36 cbbc
00000390: 53c6 193c 3c66 1a3d 4c34 89bc 2c67 d63d
000003a0: da8a 3b3d bce9 11bd 80c8 7b3d 8662 933b
000003b0: c1d4 933d f4ab 3ebd eacf eebc 4236 0abe
000003c0: 64ca 653d 113f 90bd d40a fabd fe9b bdbd
000003d0: 7de9 5ebc 2115 7dba c1b3 99bc 9088 6abc
000003e0: c40e b1bd f031 a33d 7a4e 56bc 3a60 dcbc
000003f0: 3695 01bd 2bd0 613c 3872 f8bd bc3a 053e

conv1.bias f4 [6]
0.12404065 -0.010442462 -0.025152229 0.06149277 -0.044637337 -0.03865927
00000000: 0609 fe3d dc16 2bbc 0c0c cebc d8df 7b3d
00000010: a4d5 36bd 2f59 1ebd

conv2.weight f4 [16, 6, 5, 5]
-0.027196815 -0.0718333 -0.038313214 0.012926997 0.014600254 -0.005939843 -0.047450762 0.012146088
-0.067813866 -0.048939988 0.032049984 0.036810953 0.045650057 -0.0180666 0.07167708 0.058355264
0.06803454 -0.051412266 0.033119213 -0.018247291 -0.034589976 -0.025320025 0.084510446 -0.004082714
-0.04023395 0.10458473 0.019982154 0.0844704 0.16212341 0.09714299 0.18742874 0.30028468
0.2640087 0.2213236 0.15461564 0.017046925 0.08259111 0.02311212 0.025207141 0.013422591
0.007598334 0.00183503 -0.00030167247 -0.03976533 0.03844498 -0.19261679 -0.23369814 -0.20929003
-0.23806395 -0.116999455 -0.01804335 -0.03387698 -0.024377719 -0.010151449 -0.09178177 0.12182123
0.031607687 0.10646498 0.081012145 0.116757676 0.09316135 0.072789855 0.16951776 0.19397162
0.21588396 -0.113773264 -0.16525796 -0.16990449 -0.07598391 -0.029402317 -0.09768455 -0.083925515
-0.14349392 -0.07864188 -0.02436844 0.09064488 0.101959065 0.16920142 0.16547245 0.15030192
0.026132263 0.13625143 0.0066488087 0.008997991 0.11255346 -0.04110492 -0.008609481 -0.035857007
0.10828048 0.031915586 0.011798608 -0.19973518 -0.09323314 -0.11143084 -0.08937053 -0.031570986
-0.09811056 -0.08325416 -0.16465297 -0.093648136 0.0400919 0.06869857 0.04718735 0.10992634
0.11430897 -0.0066292034 -0.02318238 0.07318735 0.020543538 0.071401 0.042611822 0.011433056
-0.0101896 -0.0032529016 0.02180767 -0.11791783 -0.03437912 0.01855005 -0.10204792 0.09307479
-0.09036146 -0.015389007 -0.018036753 -0.08650861 0.039559565 0.07553174 0.053170044 -0.07356329
-0.07172774 -0.0861231 -0.06357816 -0.15025312 -0.21597014 -0.21318781 -0.22478895 -0.09126518
0.046149373 0.046895307 0.017455403 -0.06582152 0.024547506 0.097253636 0.13688181 0.058647107
0.0464513 0.0013589576 0.15306437 0.073038325 0.061054464 0.045835536 0.06129896 0.08002062
-0.048796937 0.005567069 -0.012761102 0.11956293 0.04767954 0.08314188 -0.039252337 0.07267287
0.07730581 -0.006687695 0.102858305 0.046154168 0.027697988 0.1265149 -0.0113482615 0.09487219
0.03496576 -0.042870343 0.058140654 0.078414716 0.067950636 0.11950308 0.074900866 -0.30180758
-0.40650317 -0.5015627 -0.474964 -0.30735216 -0.3909378 -0.40917382 -0.45060885 -0.49586666
-0.29393947 -0.28224254 -0.36073104 -0.26223993 -0.25779963 -0.22993995 -0.16168156 -0.11377601
-0.043811753 0.0037033109 -0.02926572 -0.20357831 -0.14156882 -0.08707342 0.032685615 -0.05861512
-0.04581794 -0.061510477 -0.1287309 -0.14479174 -0.16646706 -0.16790742 -0.21141507 -0.30249882
-0.30950227 -0.21652608 -0.08433115 -0.14901464 -0.18102592 -0.06944035 -0.07159477 -0.11032354
-0.16864397 -0.041631278 -0.09172023 -0.004998365 -0.01969778 0.0031927084 0.009497362 0.031603575
-0.050854422 -0.14955728 -0.04550619 -0.029897276 0.020810008 0.14612067 -0.14042252 -0.18770699
-0.12870304 -0.08986149 0.10323955 -0.2121029 -0.15804324 -0.15059568 0.055952635 0.07070218
-0.13928086 -0.17209198 -0.015344837 0.057163205 0.117898405 -0.18371034 -0.07507873 -0.06979474
0.07347428 0.02771279 -0.067387395 -0.06108327 -0.037809104 0.01593107 0.030291472 -0.008832831
00000000: dbcb debc 561d 93bd 51ee 1cbd c1cb 533c
00000010: e735 6f3c 04a3 c2bb bb5b 42bd 6300 473c
00000020: ffe1 8abd 4c75 48bd d846 033d 15c7 163d
00000030: 8efb 3a3d 6800 94bc 6fcb 923d ee05 6f3d
00000040: b155 8b3d ab95 52bd 03a8 073d 587b 95bc
00000050: 38ae 0dbd f16b cfbc d013 ad3d 4ac8 85bb
00000060: 5bcc 24bd 8530 d63d 9db1 a33c d1fe ac3d
00000070: ae03 263e e7f2 c63d 52ed 3f3e eabe 993e
00000080: 262c 873e a7a2 623e 9053 1e3e fea5 8b3c
00000090: 8725 a93d a155 bd3c 357f ce3c 6dea 5b3c
000000a0: 72fb f83b 6485 f03a cb29 9eb9 f8e0 22bd
000000b0: 7c78 1d3d 563d 45be 914e 6fbe 2050 56be
000000c0: 09c7 73be 699d efbd a6cf 93bc 97c2 0abd
000000d0: c8b3 c7bc 4352 26bc 15f8 bbbd 697d f93d
000000e0: 1077 013d 500a da3d b2e9 a53d a61e ef3d
000000f0: 61cb be3d d912 953d 1096 2d3e 7fa0 463e
00000100: af10 5d3e f501 e9bd 6239 29be 71fb 2dbe
00000110: 749d 9bbd 21dd f0bc d60e c8bd 24e1 abbd
00000120: 12f0 12be fe0e a1bd 53a0 c7bc 06a4 b93d
00000130: eacf d03d 2343 2d3e 9c71 293e bfe8 193e
00000140: 5413 d63c 7f85 0b3e 40de d93b 4f6c 133c
00000150: 6e82 e63d a25d 28bd c80e 0dbc ccde 12bd
00000160: 28c2 dd3d ebb9 023d f34e 413c 6187 4cbe
00000170: 04f1 bebd da35 e4bd e507 b7bd 9450 01bd
00000180: 30ee c8bd 2881 aabd ca9a 28be 98ca bfbd
00000190: 6737 243d d6b1 8c3d 8647 413d 1021 e13d
000001a0: d21a ea3d ca39 d9bb f9e8 bdbc 40e3 953d
000001b0: ec4a a83c b03a 923d bc89 2e3d b651 3b3c
000001c0: 48f2 26bc a22e 55bb 00a6 b23c e77e f1bd
000001d0: 1fd1 0cbd 46f6 973c 80fe d0bd ff9d be3d
000001e0: 6e0f b9bd 2c22 7cbc d0c1 93bc 6d2b b1bd
000001f0: 3609 223d 63b0 9a3d d5c8 593d 5aa8 96bd
00000200: fee5 92bd 4f61 b0bd 4435 82bd f4db 19be
00000210: 4727 5dbe e84d 5abe 132f 66be 3de9 babd
00000220: 2007 3d3d 4b15 403d a2fe 8e3c 6fcd 86bd
00000230: da17 c93c ea2c c73d bf2a 0c3e f337 703d
00000240: b843 3e3d 0d1f b23a e8bc 1c3e 1e95 953d
00000250: 3f14 7a3d 0bbe 3b3d 9e14 7b3d dae1 a33d
00000260: 4cdf 47bd f66b b63b f113 51bc 69dd f43d
00000270: 9f4b 433d 4a46 aa3d 0fc7 20bd 83d5 943d
00000280: 8252 9e3d 7424 dbbb 60a7 d23d 270c 3d3d
00000290: e4e6 e23c 1f8d 013e 0fee 39bc 5a4c c23d
000002a0: 4238 0f3d d098 2fbd e524 6e3d e597 a03d
000002b0: b429 8b3d 08be f43d a065 993d 8686 9abe
000002c0: 2f21 d0be 6a66 00bf 7b2e f3be 435d 9dbe
000002d0: 0029 c8be 3b7f d1be 34b6 e6be 3ce2 fdbe
000002e0: 3c7f 96be 1882 90be bdb1 b8be 5044 86be
000002f0: 50fe 83be 6175 6bbe da8f 25be 6603 e9bd
00000300: f473 33bd 3fb3 723b aabe efbc d576 50be
00000310: 6bf7 10be 8d53 b2bd 5ae1 053d 6816 70bd
00000320: 98ab 3bbd 69f2 7bbd 08d2 03be 4944 14be
00000330: 5776 2abe ecef 2bbe 317d 58be 20e1 9abe
00000340: 1577 9ebe 03b9 5dbe cfb5 acbd 4b97 18be
00000350: dc5e 39be be36 8ebd 47a0 92bd 4ff1 e1bd
00000360: 01b1 2cbe 8f85 2abd d1d7 bbbd 53c9 a3bb
00000370: 3d5d a1bc c23c 513b d39a 1b3c c072 013d
00000380: ba4c 50bd 8b25 19be b364 3abd 22eb f4bc
00000390: c079 aa3c a8a0 153e ecca 0fbe 4336 40be
000003a0: bbca 03be 4d09 b8bd 426f d33d 8131 59be
000003b0: 16d6 21be c135 1abe 972e 653d 4ecc 903d
000003c0: a49f 0ebe e138 30be e968 7bbc f723 6a3d
000003d0: b874 f13d 901e 3cbe e1c2 99bd 8bf0 8ebd
000003e0: af79 963d ef05 e33c 6702 8abd 7332 7abd
000003f0: b8dd 1abd e081 823c d225 f83c 94b7 10bc

conv2.bias f4 [16]
-0.16986589 -0.03581963 -0.14353268 0.12185764 0.2160116 -0.060469378 0.009943963 0.21149856
0.13958001 -0.08780867 -0.2208888 0.35121202 -0.13164671 0.050406177 0.24714133 -0.066244535
00000000: 53f1 2dbe 9bb7 12bd 3bfa 12be 8090 f93d
00000010: 2532 5d3e bdae 77bd 01ec 223c 1493 583e
00000020: 10ee 0e3e 08d5 b3bd ac30 62be 10d2 b33e
00000030: 65ce 06be b576 4e3d 9e12 7d3e 37ab 87bd

fc1.weight f4 [120, 400]
0.025138458 0.043955714 0.02804429 0.021050062 0.017053153 -0.1830455 -0.057690978 -0.06602409
-0.057230737 -0.07556576 -0.22241855 -0.14208896 -0.13223901 -0.027413562 -0.012215503 -0.072733946
-0.021431942 0.0022041467 0.06394624 0.03626529 -0.056267753 -0.032282535 0.0031955715 -0.005183085
-0.018822337 0.11260782 0.0248262 0.04823031 0.07784746 0.07675553 0.059215546 0.011247372
0.053267345 0.0715456 -0.029658122 0.05406748 0.04697991 0.060998578 0.043486305 -0.009217783
-0.01222452 0.016146062 -0.010858726 0.06786632 -0.049932636 0.06542417 0.044524085 -0.022811403
-0.032150038 0.035120998 0.08817905 0.0783731 0.04192492 0.007332232 0.06365917 0.07875128
0.0334434 -0.00868297 -0.060339954 0.046970412 0.07253206 -0.012281027 -0.0033938452 0.02586617
0.03875461 0.08618949 0.029202357 0.0698303 0.12714042 0.06165756 0.10041216 0.07915881
0.079163015 0.0773093 0.1290007 -0.32745585 -0.33328164 -0.19222337 -0.16934054 -0.12487564
-0.12697521 -0.23540036 -0.12115337 -0.08199035 -0.047813218 -0.026085721 -0.05129561 -0.12977082
-0.10212271 -0.04840574 0.030421052 0.03172281 -0.11124317 -0.115287505 -0.035600163 0.049716283
-0.08141762 -0.15728615 -0.18658571 -0.07248243 0.019775309 -0.00048579497 -0.051542602 -0.03993267
0.002053289 0.012055485 -0.038106017 -0.053982273 0.06031989 0.042328276 0.016231872 0.050690018
-0.030008256 0.040179454 0.06426526 -0.017331345 0.07613487 0.047714204 -0.007875537 0.00289843
-0.069220126 -0.051390793 0.020831546 0.014199117 -0.022725206 0.0060110055 -0.013241811 0.013577365
0.016603328 0.04393176 -0.11021495 -0.025662389 -0.08788877 -0.09132629 -0.06104095 -0.049452376
0.061526783 0.026071984 -0.0037011688 0.0056845145 -0.06355317 0.014462543 0.09140429 0.009471275
-0.011380057 -0.04232522 0.012344457 0.029208826 0.05812276 -0.053498123 0.0099491915 -0.038543023
-0.028521769 0.054168496 0.05269771 -0.03581408 -0.0029070678 -0.031696368 0.0320122 0.03342983
0.029535798 0.018199898 -0.049474686 -0.015258564 0.105515644 0.07621139 0.00446746 -0.0024772834
-0.01145309 0.037871685 0.059242427 0.050786026 0.014024493 0.020588642 0.026420737 0.090463705
-0.0031820992 -0.013137777 0.030157818 0.0018927212 0.05790072 -0.07253413 -0.01594755 0.03033601
0.041322637 0.024475757 -0.08400187 -0.071926095 -0.013810932 -0.010689041 0.03341104 -0.027124187
-0.026263488 -0.042802602 -0.009778988 0.02204227 0.04288521 -0.006665892 0.0675075 0.13514882
0.020853065 0.0333457 0.109012924 0.066152595 0.019918915 -0.07517035 -0.10715267 -0.048213396
-0.09740331 -0.0025278414 -0.06961904 -0.094132304 -0.15545219 -0.06680613 -0.07950607 -0.057609484
-0.12116306 -0.10747196 -0.024855133 -0.069901295 -0.015198626 -0.08359143 -0.017744832 -0.048025213
-0.0105639165 0.12399083 -0.015795572 0.0030241353 0.0024045785 0.0064124838 -0.0061422107 -0.09817942
-0.047447093 -0.089903705 -0.054090198 -0.0024989436 -0.039718147 -0.08179928 -0.06211127 0.00075573067
-0.0471112 -0.02997737 0.015957922 -0.030344423 -0.004756883 0.054170206 0.051858086 0.117488526
0.089637026 0.058900632 -0.028473163 0.008457845 0.011679943 0.0667989 0.024148507 0.17091453
00000000: 2bef cd3c e80a 343d 24bd e53c 2e71 ac3c
00000010: 0eb3 8b3c 4870 3bbe 604d 6cbd a337 87bd
00000020: c76a 6abd 39c2 9abd b0c1 63be c57f 11be
00000030: aa69 07be 6892 e0bc 8823 48bc 89f5 94bd
00000040: 0a92 afbc 7273 103b 3ff6 823d ea8a 143d
00000050: 0479 66bd b13a 04bd cb6c 513b ded6 a9bb
00000060: 4d31 9abc ee9e e63d 5160 cb3c 258d 453d
00000070: 7d6e 9f3d 0132 9d3d 008c 723d e646 383c
00000080: dc2e 5a3d 8086 923d 97f5 f2bc dd75 5d3d
00000090: 026e 403d a5d9 793d b21e 323d 2f06 17bc
000000a0: 5a49 48bc bf44 843c cce8 31bc 7ffd 8a3d
000000b0: 2a86 4cbd 1bfd 853d e35e 363d fbde babc
000000c0: c2af 03bd 09db 0f3d 3897 b43d 1382 a03d
000000d0: 77b9 2b3d 3843 f03b bd5f 823d 5a48 a13d
000000e0: f2fb 083d 0443 0ebc 0727 77bd 0c64 403d
000000f0: b08b 943d 5c36 49bc 466b 5ebb 4ae5 d33c
00000100: 27bd 1e3d 1e84 b03d c839 ef3c 3003 8f3d
00000110: 1931 023e a38c 7c3d e4a4 cd3d 041e a23d
00000120: 3820 a23d 5754 9e3d c218 043e 4ba8 a7be
00000130: e4a3 aabe 34d6 44be 9b67 2dbe cdbe ffbd
00000140: ca05 02be cb0c 71be 421f f8bd 8eea a7bd
00000150: cbd7 43bd b9b1 d5bc 581b 52bd a4e2 04be
00000160: b625 d1bd 1945 46bd 9235 f93c c7ef 013d
00000170: 76d3 e3bd db1b ecbd 7ad1 11bd 4da3 4b3d
00000180: 48be a6bd 9f0f 21be 5310 3fbe ab71 94bd
00000190: d4ff a13c 4cb2 feb9 561e 53bd 7090 23bd
000001a0: 7990 063b 5e84 453c 0e15 1cbd 841c 5dbd
000001b0: fd11 773d 6a60 2d3d b4f8 843c 56a0 4f3d
000001c0: e0d3 f5bc 3693 243d 819d 833d 77fa 8dbc
000001d0: 99ec 9b3d f86f 433d 6508 01bc 96f3 3d3b
000001e0: 48c3 8dbd 277f 52bd eba6 aa3c 6aa3 683c
000001f0: 362a babc f8f7 c43b 2ef4 58bc 9973 5e3c
00000200: b403 883c caf1 333d 60b8 e1bd ee39 d2bc
00000210: 07ff b3bd 4709 bbbd 1306 7abd 938e 4abd
00000220: 8203 7c3d ea94 d53c 4f8f 72bb 2a45 ba3b
00000230: 2a28 82bd 4df4 6c3c 2c32 bb3d 682d 1b3c
00000240: 6b73 3abc 365d 2dbd 6840 4a3c 5947 ef3c
00000250: 2212 6e3d d920 5bbd ef01 233c 4adf 1dbd
00000260: 7ca6 e9bc c9df 5d3d 8ed9 573d c9b1 12bd
00000270: 8184 3ebb 0dd4 01bd 3a1f 033d b8ed 083d
00000280: 0ff5 f13c f417 953c f8a5 4abd 0eff 79bc
00000290: 9618 d83d b814 9c3d c563 923b eb59 22bb
000002a0: bea5 3bbc 571f 1b3d 30a8 723d 0205 503d
000002b0: fdc6 653c 83a9 a83c 4d70 d83c 0945 b93d
000002c0: c48a 50bb d53f 57bc 870d f73c 2f15 f83a
000002d0: 4e29 6d3d c68c 94bd 70a4 82bc 3983 f83c
000002e0: ed41 293d 6281 c83c 2c09 acbd fd4d 93bd
000002f0: 3f47 62bc 1621 2fbc 04da 083d 8b33 debc
00000300: 8726 d7bc c851 2fbd 0c38 20bc fe91 b43c
00000310: 67a8 2f3d 8e6d dabb 5f41 8a3d 7464 0a3e
00000320: 0cd4 aa3c 8095 083d 2b42 df3d 037b 873d
00000330: fe2c a33c eaf2 99bd dc72 dbbd 697b 45bd
00000340: 637b c7bd 24aa 25bb 6d94 8ebd 70c8 c0bd
00000350: dc2e 1fbe a7d1 88bd 14d4 a2bd ecf7 6bbd
00000360: 5724 f8bd 421a dcbd fe9c cbbc 6928 8fbd
00000370: a803 79bc fc31 abbd 9c5d 91bc 16b6 44bd
00000380: 4714 2dbc e7ee fd3d b765 81bc 9230 463b
00000390: 2296 1d3b d01f d23b 9944 c9bb 4b12 c9bd
000003a0: e257 42bd 6f1f b8bd af8d 5dbd 51c5 23bb
000003b0: 7faf 22bd 6286 a7bd 6368 7ebd 3a1c 463a
000003c0: acf7 40bd 1a93 f5bc 30ba 823c de94 f8bc
000003d0: a0df 9bbb 94e1 5d3d 2569 543d d39d f03d
000003e0: 9e93 b73d ca41 713d 8d40 e9bc c692 0a3c
000003f0: 3b5d 3f3c ddcd 883d 17d3 c53c 3804 2f3e

fc1.bias f4 [120]
-0.0870008 -0.0012964747 0.0592828 -0.12847623 -0.07563494 0.14936365 -0.04043496 0.16263919
0.15350504 -0.0037408166 0.034179777 -0.16970974 0.15511252 -0.036216907 0.21135621 -0.032496236
0.090905994 0.098862804 0.23237008 0.3108154 0.2291776 -0.041597337 0.08994791 0.0031771825
0.023604557 -0.06616319 0.034527287 0.051020715 0.0062769484 0.0072492524 -0.054103862 0.13583547
0.21732457 0.017113743 0.08153563 0.01928865 -0.015881423 0.01583864 0.148391 -0.039873365
0.022582943 -0.008700123 -0.1821761 0.05547335 0.06663046 0.15517184 -0.1724423 -0.28809842
-0.27962667 0.035188466 -0.011507899 -0.0025926107 0.019561158 0.02606304 0.19382812 0.06789813
0.13593033 -0.14625353 -0.038591232 0.13548495 0.15386134 -0.06217358 0.06660986 -0.22261442
-0.16293028 -0.018675284 0.10789137 0.13486089 0.12063103 -0.056434188 -0.13570023 -0.0070711593
0.001978535 -0.049991198 0.09457283 0.1846071 -0.1371756 0.04021335 0.19021946 0.0049497546
0.13587978 -0.03447772 -0.030209694 -0.03364906 0.14626773 -0.049298327 0.017306553 0.0012911315
0.03624347 -0.0029650657 -0.18268639 0.15010376 -0.11536821 -0.029447084 0.16796747 0.088584065
0.14368428 -0.026885081 -0.18269278 -0.09759693 -0.041020095 -0.03291512 -0.08935951 -0.04546679
-0.13839628 -0.034551192 -0.20639825 0.22790442 0.17949884 0.26310384 0.021025859 0.047674768
-0.10990471 0.14268704 -0.092564 -0.006783684 0.004796483 -0.042331897 0.008040252 -0.117009036
00000000: 7a2d b2bd 79ee a9ba 85d2 723d 468f 03be
00000010: 7ee6 9abd c9f2 183e 219f 25bd e38a 263e
00000020: 6d30 1d3e 7d28 75bb 1800 0c3d 64c8 2dbe
00000030: d1d5 1e3e 2e58 14bd c36d 583e c61a 05bd
00000040: ec2c ba3d 9578 ca3d 6cf2 6d3e 3223 9f3e
00000050: 88ad 6a3e f861 2abd 9c36 b83d 4738 503b
00000060: 585e c13c 9180 87bd 7c6c 0d3d 19fb 503d
00000070: dcae cd3b 238b ed3b 039c 5dbd 7418 0b3e
00000080: 558a 5e3e 1f32 8c3c 27fc a63d 3b03 9e3c
00000090: c219 82bc 09c0 813c cff3 173e 4152 23bd
000000a0: ddff b83c f68a 0ebc 5f8c 3abe 0638 633d
000000b0: 8d75 883d 5ee5 1e3e b794 30be a381 93be
000000c0: 3a2b 8fbe c821 103d a08b 3cbc cae8 29bb
000000d0: b93e a03c 2882 d53c e17a 463e 2d0e 8b3d
000000e0: 5231 0b3e 7cc3 15be d711 1ebd 91bc 0a3e
000000f0: d48d 1d3e b9a9 7ebd c06a 883d 09f5 63be
00000100: 32d7 26be e9fc 98bc 27f6 dc3d f918 0a3e
00000110: 670d f73d 8927 67bd 00f5 0abe 2fb5 e7bb
00000120: 4faa 013b 92c3 4cbd 66af c13d a509 3d3e
00000130: c377 0cbe c1b6 243d e4c8 423e 8d31 a23b
00000140: 1224 0b3e 8238 0dbd 527a f7bc 99d3 09bd
00000150: 35c7 153e 0bed 49bd 79c6 8d3c 2f3b a93a
00000160: 0874 143d 8c51 42bb 2412 3bbe cdb4 193e
00000170: 2b46 ecbd 033b f1bc aaff 2b3e 906b b53d
00000180: f921 133e 1a3e dcbc d113 3bbe e6e0 c7bd
00000190: b004 28bd 01d2 06bd 1e02 b7bd 633b 3abd
000001a0: c1b7 0dbe 8d85 0dbd 105a 53be c75f 693e
000001b0: 8bce 373e 8cb5 863e 6c3e ac3c 9e46 433d
000001c0: b815 e1bd 8d1c 123e 3292 bdbd aa49 debb
000001d0: d12b 9d3b 3664 2dbd 43bb 033c 6fa2 efbd

fc2.weight f4 [84, 120]
-0.020219535 0.018462732 -0.030595325 0.061225843 -0.031402584 0.1489143 0.024011899 0.16596963
0.017767169 0.07262598 -0.04561139 0.039613374 -0.16560204 0.074898005 -0.034845855 -0.068127215
0.08548545 -0.0064489045 -0.15022407 0.18893631 0.026620908 -0.09397179 -0.08213923 -0.19204383
0.061595745 -0.07415685 0.10875867 0.033339135 0.07231501 0.14491951 -0.22591719 -0.021450335
0.15089656 -0.084904075 0.006888396 -0.1225337 0.002358583 0.10670968 0.09039303 -0.047822494
0.0132196145 -0.0065222457 -0.07486071 0.18944357 0.058923773 -0.060731187 -0.05257666 0.02044753
0.029485958 -0.015482758 -0.059124026 -0.002561628 -0.004960015 0.05039032 -0.030824654 0.042234246
0.1817047 0.03590256 -0.020441951 -0.09132645 -0.11235741 -0.05120605 -0.12753691 0.165502
0.12062876 -0.07324084 0.03094765 0.0722161 0.107389845 0.01469959 0.16410916 -0.12720123
0.031393923 -0.12741832 0.15589288 0.041173313 0.064405054 0.029090066 -0.12277525 -0.024606917
0.05052545 -0.019993862 -0.013225503 0.23718339 0.16985683 0.040351067 -0.05179851 -0.0082268035
-0.008062694 -0.07193252 0.10864393 -0.046540223 0.100916885 0.029635621 -0.20816132 -0.024178745
0.2205714 -0.06269413 0.021099754 -0.058532517 0.04748997 0.014848031 -0.07494798 -0.10700162
-0.06474306 -0.025362177 0.25511977 -0.23613568 0.1771686 0.031974763 -0.10002306 0.16185898
0.08321872 0.008481371 0.07254839 -0.10289957 0.012256869 0.12040514 0.099798396 0.027906766
-0.08908077 -0.059289817 0.073721394 0.028692603 -0.0023020837 -0.23580556 0.18361016 0.12846744
-0.11381277 -0.06691235 -0.046164867 0.10620101 0.2660105 0.06302556 -0.019777238 0.0049184803
0.14217158 0.009514605 0.083408184 0.008933448 -0.06515621 0.13363035 0.11651802 0.2106811
0.08461177 0.06691252 0.11045472 0.11152493 0.040833786 -0.03405451 -0.08469429 -0.015669312
-0.21811147 0.047298476 -0.016886454 0.063201 0.11575535 0.031108782 0.066604495 -0.003930856
0.054545898 0.1389386 0.12940083 -0.17034522 0.0693835 0.004106233 -0.064811654 0.050510805
-0.10717686 0.0751905 0.009092567 -0.08443397 -0.043575548 -0.19998105 -0.03294346 0.06608359
0.13569267 -0.067558296 0.023552304 0.036015194 -0.108253255 0.062158782 -0.07126575 0.19470416
0.008885447 -0.021643165 0.20799395 0.012855005 0.041494586 -0.05737235 0.0088709025 0.0710141
-0.09440459 0.14966333 -0.029626021 0.07241986 -0.0077101416 -0.09305531 -0.05554488 0.01622897
-0.0829248 -0.03052098 -0.048801534 -0.07548337 -0.15713255 -0.05956191 0.17113148 -0.0022100178
-0.01953508 0.084924035 0.16422524 0.112172656 0.0873106 -0.08071771 0.25013232 -0.028392514
-0.18766038 0.027129112 -0.039795972 -0.081219494 0.0793171 -0.015379261 0.010161581 0.07773288
0.061833594 0.10831525 -0.33800584 -0.07938588 -0.013653226 -0.038443286 0.16505764 -0.082172416
0.013078505 -0.026841415 -0.034370195 0.075332075 0.011205834 -0.04587307 -0.041521378 0.080701984
0.26121652 -0.082921386 0.11657913 0.07322153 -0.056640234 -0.049851146 -0.03749783 -0.093661
-0.06953303 -0.067436315 0.2956835 0.010670542 0.042949215 -0.07767363 -0.091020815 -0.021483518
00000000: 70a3 a5bc 283f 973c 0ca3 fabc f3c7 7a3d
00000010: ff9f 00bd fe7c 183e 9ab4 c43c f1f3 293e
00000020: 748c 913c eebc 943d 02d3 3abd a241 223d
00000030: 9593 29be 2064 993d 87ba 0ebd 4886 8bbd
00000040: ff12 af3d 5551 d3bb 57d4 19be 8578 413e
00000050: 1714 da3c 4874 c0bd 9d38 a8bd 23a7 44be
00000060: d24b 7c3d 8cdf 97bd debc de3d 9e8e 083d
00000070: e419 943d c865 143e d656 67be 9db8 afbc
00000080: a184 1a3e 30e2 adbd 0eb8 e13b f3f2 fabd
00000090: 7592 1a3b 9b8a da3d fb1f b93d 85e1 43bd
000000a0: 1597 583c 90b8 d5bb 9250 99bd 7ffd 413e
000000b0: 0e5a 713d 44c1 78bd a05a 57bd 9481 a73c
000000c0: 898c f13c 65ab 7dbc 092c 72bd fce0 27bb
000000d0: 9f87 a2bb 1566 4e3d fc83 fcbc d1fd 2c3d
000000e0: cc10 3a3e 900e 133d e175 a7bc 5d09 bbbd
000000f0: a41b e6bd 6fbd 51bd 0999 02be 5b79 293e
00000100: 360c f73d 4bff 95bd ed85 fd3c 09e6 933d
00000110: 35ef db3d 8dd6 703c 3b0c 283e 0a41 02be
00000120: ea96 003d f379 02be 62a2 1f3e 59a5 283d
00000130: cce6 833d 4a4e ee3c 9771 fbbd 7294 c9bc
00000140: c6f3 4e3d 2bca a3bc c8af 58bc 34e0 723e
00000150: f3ee 2d3e 2947 253d ad2a 54bd b7c9 06bc
00000160: 6419 04bc 5b51 93bd b580 de3d f6a0 3ebd
00000170: 83ad ce3d 67c6 f23c 3e28 55be 8112 c6bc
00000180: 78dd 613e c865 80bd 64d9 ac3c cbbf 6fbd
00000190: d884 423d 2845 733c 547e 99bd aa23 dbbd
000001a0: 0298 84bd 57c4 cfbc 0f9f 823e 8dcd 71be
000001b0: af6b 353e f8f7 023d e4d8 ccbd 5cbe 253e
000001c0: 946e aa3d 73f5 0a3c 4094 943d 02bd d2bd
000001d0: 09d1 483c f896 f63d 1a63 cc3d bb9c e43c
000001e0: fb6f b6bd e1d9 72bd 3efb 963d c00c eb3c
000001f0: 8ede 16bb 0377 71be 4d04 3c3e f88c 033e
00000200: ab16 e9bd 5809 89bd 5f17 3dbd ea7f d93d
00000210: 8732 883e 8b13 813d e003 a2bc 342b a13b
00000220: 6d95 113e 25e3 1b3c e9d1 aa3d 995d 123c
00000230: 9e70 85bd 65d6 083e 00a1 ee3d c9bc 573e
00000240: f048 ad3d 6e09 893d 1636 e23d 2f67 e43d
00000250: 5441 273d be7c 0bbd 3374 adbd ee5c 80bc
00000260: 9d58 5fbe 0cbc 413d 7655 8abc 876f 813d
00000270: 2411 ed3d d8d7 fe3c f067 883d 69ce 80bb
00000280: 856b 5f3d ec45 0e3e a781 043e fa6e 2ebe
00000290: f018 8e3d 948d 863b f9bb 84bd 6be4 4e3d
000002a0: 8b7f dbbd 7afd 993d fdf8 143c b8eb acbd
000002b0: 467c 32bd d5c7 4cbe b9ef 06bd d556 873d
000002c0: 05f3 0a3e 015c 8abd c3f0 c03c ab84 133d
000002d0: e2b3 ddbd 359a 7e3d c7f3 91bd 8760 473e
000002e0: 4494 113c 024d b1bc 5efc 543e cd9d 523c
000002f0: 3af6 293d 45ff 6abd 4357 113c d76f 913d
00000300: 3257 c1bd 5841 193e 45b2 f2bc dd50 943d
00000310: 5ba5 fcbb c893 bebd 0783 63bd 9ef2 843c
00000320: 7ad4 a9bd 2207 fabc 1ee4 47bd 0697 9abd
00000330: 5be7 20be 30f7 73bd 173d 2f3e f2d5 10bb
00000340: 0808 a0bc a7ec ad3d a92a 283e c7ba e53d
00000350: e6cf b23d 544f a5bd 5811 803e 6b97 e8bc
00000360: 0b2a 40be df3d de3c 1a01 23bd 6856 a6bd
00000370: 0171 a23d 4cf9 7bbc c37c 263c 6b32 9f3d
00000380: 3945 7d3d 63d4 dd3d 1a0f adbe 1095 a2bd
00000390: c8b1 5fbc b576 1dbd df04 293e 034a a8bd
000003a0: 3a47 563c 87e2 dbbc c3c7 0cbd b447 9a3d
000003b0: ad98 373c 66e5 3bbd 5212 2abd 1547 a53d
000003c0: 2cbe 853e b0d2 a9bd 0ac1 ee3d 2bf5 953d
000003d0: 97ff 67bd b730 4cbd 5397 19bd 57d1 bfbd
000003e0: 5567 8ebd 0d1c 8abd d463 973e 7fd3 2e3c
000003f0: 84eb 2f3d 5a13 9fbd 1f69 babd 34fe afbc

fc2.bias f4 [84]
0.106030755 0.05626463 0.04043597 -0.0016069375 0.03179327 0.26759875 0.0017764883 -0.1505681
0.07476063 -0.14753914 0.25578383 -0.20177512 0.12865229 -0.036822397 0.09943555 -0.107371494
0.18636914 0.24138147 -0.059362613 0.333011 0.008318559 -0.021353735 0.026248708 -0.021212809
0.113517396 -0.034247488 -0.1402269 0.26972428 0.08481069 -0.0040021506 0.28760627 -0.077962995
-0.0716497 -0.0032284055 -0.23343545 0.17100596 -0.009134987 0.121989734 0.058732245 0.053179182
0.09495018 -0.015759004 0.0024146433 0.04248391 -0.16555572 0.029101087 0.04816505 -0.020035787
-0.09844681 -0.0683318 -0.2016136 0.10926618 0.023310535 0.19414313 -0.081313215 0.14839914
0.12259047 0.07711287 0.08902518 0.1439894 -0.051255394 -0.0073260623 -0.06482628 -0.038102385
0.13653769 0.100758955 -0.14174864 -0.15067843 0.021286111 0.07468666 0.1464632 -0.071884856
0.058145497 -0.23819783 -0.056059655 0.075916454 0.006118259 0.15568034 -0.019250419 -0.029701084
-0.11418493 0.16958974 -0.026885362 0.22356041
00000000: a726 d93d be75 663d 30a0 253d e09f d2ba
00000010: a939 023d b402 893e 0ed9 e83a 862e 1abe
00000020: 1a1c 993d 8014 17be 19f6 823e 239e 4ebe
00000030: 6dbd 033e 15d3 16bd dea4 cb3d 96e5 dbbd
00000040: 8dd7 3e3e b42c 773e 3626 73bd 6b80 aa3e
00000050: 914a 083c 07ee aebc 8807 d73c 7cc6 adbc
00000060: cf7b e83d 1847 0cbd a497 0fbe 4d19 8a3e
00000070: 3ab1 ad3d 7924 83bb 2141 933e 10ab 9fbd
00000080: 14bd 92bd a893 53bb b409 6fbe 301c 2f3e
00000090: eaaa 15bc c1d5 f93d 3991 703d 6ad2 593d
000000a0: 3d75 c23d 0719 81bc fe3e 1e3b 9c03 2e3d
000000b0: 7087 29be 6765 ee3c b748 453d 1722 a4bc
000000c0: 7b9e c9bd 8bf1 8bbd cc73 4ebe f2c6 df3d
000000d0: bcf5 be3c 75cd 463e 8b87 a6bd f2f5 173e
000000e0: b610 fb3d 5aed 9d3d d552 b63d f571 133e
000000f0: 2df1 51bd 770f f0bb a4c3 84bd 3f11 1cbd
00000100: 89d0 0b3e b65a ce3d 8e26 11be 724b 1abe
00000110: 3660 ae3c 52f5 983d 73fa 153e 5e38 93bd
00000120: f929 6e3d 22ea 73be cf9e 65bd 167a 9b3d
00000130: ad7b c83b ab6a 1f3e 0eb3 9dbc b04f f3bc
00000140: cad9 e9bd efa8 2d3e b13e dcbc 05ed 643e

fc3.weight f4 [10, 84]
-0.14778264 -0.07205434 0.15439883 0.21729057 -0.05074871 -0.2687872 -0.0922406 0.4172848
-0.07556862 0.039211743 -0.18849888 0.16233148 0.12902884 0.1337788 -0.18764056 0.022804521
-0.45158568 -0.08066897 0.024233438 0.13658032 -0.097645044 -0.0591667 -0.023557391 0.22433643
0.12790832 0.322972 0.15117408 -0.16659623 -0.27411646 0.09320979 0.051979993 -0.050920073
-0.0535586 -0.09929538 0.46794185 -0.08077975 -0.11906306 -0.12131467 -0.3086061 -0.29428008
-0.18926781 0.103222206 -0.111402124 0.08797379 0.009006008 -0.20731817 -0.14614542 -0.16567506
0.18686935 -0.08024994 0.24175271 0.112480864 0.1662171 0.11513688 -0.003972261 -0.34126437
-0.15824686 -0.023267765 0.2871753 -0.037346065 0.10854961 -0.1177585 -0.053737096 -0.12165567
-0.04330334 -0.17275779 -0.030853635 0.43542945 0.008052409 0.24297924 -0.25100568 -0.097433664
-0.010441521 0.17970042 -0.04059335 0.11163461 -0.07384448 0.3108878 0.4071376 0.13082448
0.043872006 0.093553916 0.10252252 0.08404397 -0.03043367 0.07228124 -0.20394297 -0.14039066
0.13572517 -0.3911262 -0.18802252 -0.023402687 -0.33662158 0.12850335 -0.15371212 0.1884379
0.1789155 0.13702983 -0.32554713 -0.22801386 0.11427936 -0.28734612 -0.012835586 0.05042829
-0.028859813 -0.00036088686 0.05848165 -0.4513281 -0.20349872 0.0535407 -0.2515135 -0.33336163
0.14737615 -0.17364629 -0.23669666 0.07961165 -0.30154082 -0.04531854 -0.012042753 0.1582209
-0.0577413 -0.19541967 -0.242121 0.2561472 -0.13515946 0.026519565 0.14045069 -0.06648092
-0.23745686 0.071738444 0.08306131 -0.15077816 0.0540566 -0.31867182 0.021645593 -0.30561814
-0.22629946 -0.0072514554 -0.15917422 0.009425304 0.19362557 0.17720474 0.10923772 -0.53392094
-0.16522133 0.17757553 0.22641468 -0.23828398 0.020469762 0.008466041 -0.012716631 0.14336558
0.038851585 -0.14095211 0.17065993 0.020470135 0.13439608 -0.13947022 -0.16803335 -0.23784235
-0.22786537 -0.28792262 -0.46730745 0.028034484 -0.1894243 0.027489066 -0.08237893 0.0057104635
0.16644473 -0.045198612 0.27685225 -0.044911955 0.092015214 -0.10014504 -0.10262578 0.17649376
-0.10486202 0.09305388 -0.002802478 -0.17513901 -0.11905692 -0.101926975 0.020415446 0.3972449
0.06360784 0.035328172 -0.030775264 0.07428859 -0.17062512 0.046113823 -0.23784436 0.08097954
0.020110752 0.0030532528 0.103923194 0.225371 0.2573539 0.07609295 0.32561383 -0.07987858
0.22502714 0.01770071 -0.298789 -0.12772992 -0.011850171 0.020826222 -0.08020638 0.043930102
-0.12750316 -0.039028022 -0.029601352 -0.08450023 -0.15762626 -0.033258118 -0.02050183 0.1079635
0.31737295 -0.23173395 0.23941864 -0.15092695 0.06370201 0.20729204 0.14864427 -0.04616979
-0.23166029 -0.13945214 -0.14950627 0.05618574 0.10505218 -0.024785168 0.04849528 0.06180125
0.032821245 -0.038415145 0.27747354 -0.08649973 0.025576895 -0.16464236 0.1865413 -0.19834347
-0.027147023 0.14799643 -0.20620242 0.22583458 -0.08701411 -0.001998993 0.32721668 -0.16657251
0.28788033 0.08470081 0.34332865 0.2179765 0.10923344 -0.12301012 -0.0977579 -0.026928179
00000000: 5554 17be 3a91 93bd ba1a 1e3e 6b81 5e3e
00000010: e1dd 4fbd 7a9e 89be a4e8 bcbd 5aa6 d53e
00000020: b8c3 9abd 7e9c 203d da05 41be 393a 263e
00000030: 2320 043e 4ffd 083e d924 40be 8cd0 ba3c
00000040: 3d36 e7be c635 a5bd 3485 c63c b6db 0b3e
00000050: 20fa c7bd c858 72bd 6efb c0bc 73b8 653e
00000060: 66fa 023e 965c a53e 61cd 1a3e 3498 2abe
00000070: fe58 8cbe c6e4 be3d f9e8 543d 9191 50bd
00000080: 4360 5bbd 605b cbbd 1396 ef3e db6f a5bd
00000090: 55d7 f3bd d373 f8bd 9e01 9ebe e1ab 96be
000000a0: 6ccf 41be 2a66 d33d cc26 e4bd 9a2b b43d
000000b0: ef8d 133c 374b 54be 25a7 15be b9a6 29be
000000c0: ae5a 3f3e 155a a4bd 068e 773e 5e5c e63d
000000d0: d134 2a3e e2cc eb3d be29 82bb 34ba aebe
000000e0: 770b 22be 0a9c bebc a408 933e 30f8 18bd
000000f0: 424f de3d 5e2b f1bd 6e1b 5cbd 9c26 f9bd
00000100: d85e 31bd 6be7 30be c3c0 fcbc 9cf0 de3e
00000110: 40ee 033c 8dcf 783e d183 80be 4d8b c7bd
00000120: ea12 2bbc 6303 383e 3645 26bd b0a0 e43d
00000130: c63b 97bd b02c 9f3e 5774 d03e daf6 053e
00000140: 22b3 333d 3299 bf3d 54f7 d13d 3f1f ac3d
00000150: 0850 f9bc 3008 943d 6dd6 50be 92c2 0fbe
00000160: 8afb 0a3e b141 c8be fa88 40be feb6 bfbc
00000170: aa59 acbe 6296 033e b666 1dbe ddf5 403e
00000180: a035 373e 8c51 0c3e 1dae a6be 777c 69be
00000190: 4c0b ea3d 081f 93be 5a4c 52bc e58d 4e3d
000001a0: 6a6b ecbc 6a35 bdb9 748a 6f3d 7a14 e7be
000001b0: f861 50be 7e4d 5b3d 61c6 80be 60ae aabe
000001c0: c6e9 163e 55d0 31be 9c60 72be 6f0b a33d
000001d0: 8f63 9abe ef9f 39bd f84e 45bc a904 223e
000001e0: 2482 6cbd 181c 48be 91ee 77be ba25 833e
000001f0: 3e67 0abe 8f3f d93c 4ed2 0f3e 2627 88bd
00000200: e427 73be 9beb 923d 0c1c aa3d 9765 1abe
00000210: 746a 5d3d f428 a3be 1952 b13c fb79 9cbe
00000220: 0cbb 67be 9e9d edbb 91fe 22be 976c 1a3c
00000230: c845 463e 2975 353e 07b8 df3d 0baf 08bf
00000240: c82f 29be 5cd6 353e 40d9 673e b700 74be
00000250: 34b0 a73c 26b5 0a3c 6b59 50bc 6dce 123e
00000260: d722 1f3d c055 10be 7ac1 2e3e fcb0 a73c
00000270: 209f 093e 48d1 0ebe ef10 2cbe f28c 73be
00000280: 8a55 69be 986a 93be ec42 efbe 93a8 e53c
00000290: 72f8 41be c030 e13c 49b6 a8bd d71e bb3b
000002a0: 7d70 2a3e 2e22 39bd 94bf 8d3e 99f5 37bd
000002b0: 7972 bc3d d818 cdbd 772d d2bd c8ba 343e
000002c0: e6c1 d6bd 0893 be3d c7a9 37bb a457 33be
000002d0: 1dd4 f3bd 17bf d0bd 4b3e a73c af63 cb3e
000002e0: d444 823d 46b4 103d 681c fcbc 9e24 983d
000002f0: 5ab8 2ebe d9e1 3c3d 798d 73be 9ad8 a53d
00000300: 4ebf a43c 1519 483b afd5 d43d a8c7 663e
00000310: e4c3 833e 9fd6 9b3d dbb6 a63e 6297 a3bd
00000320: 846d 663e 1401 913c dffa 98be a2cb 02be
00000330: 3827 42bc c19b aa3c 3e43 a4bd 0df0 333d
00000340: 3090 02be d9db 1fbd 897e f2bc 750e adbd
00000350: c768 21be aa39 08bd 74f3 a7bc f81b dd3d
00000360: b57e a23e aa4b 6dbe 292a 753e 988c 1abe
00000370: 3376 823d 5d44 543e 3436 183e 891c 3dbd
00000380: 5b38 6dbe 8bcc 0ebe 2c18 19be 0523 663d
00000390: 9925 d73d 440a cbbc fda2 463d 4f23 7d3d
000003a0: 926f 063d 3359 1dbd 0311 8e3e c526 b1bd
000003b0: a386 d13c 0298 28be af04 3f3e 8d1a 4bbe
000003c0: 6f63 debc 608c 173e ba26 53be 2e41 673e
000003d0: 7434 b2bd 8a01 03bb f288 a73e fc91 2abe
000003e0: 0d65 933e 9e77 ad3d c6c8 af3e 3b35 5f3e
000003f0: c8b5 df3d bbec fbbd 4b35 c8bd 7c98 dcbc

fc3.bias f4 [10]
-0.28931424 0.004374616 -0.080551475 0.020432847 0.07026406 -0.050805368 -0.030770816 -0.031024287
0.0676619 0.008674198
00000000: ff20 94be f058 8f3b 2cf8 a4bd c962 a73c
00000010: 9ae6 8f3d 4a19 50bd 1413 fcbc a526 febc
00000020: 5292 8a3d 391e 0e3c
