resources/lenet_e2b50_clean_model.pt (torch_old, 249645 bytes, 10 tensors)

conv1.weight f4 [6, 3, 5, 5]
-0.046915594 0.062466424 0.039270353 0.01529187 -0.026532544 -0.0718459 0.06675033 0.17130823
0.06221976 0.10033845 0.008006573 0.039766636 0.18185723 0.056602105 -0.0810323 0.02002965
0.061193764 0.19129638 0.09952627 0.07897968 0.07815333 0.15416935 -0.011939811 -0.019637536
0.11773215 -0.10505293 0.15013994 0.05239079 0.09428067 0.13006555 -0.036025424 0.1273797
0.22236295 0.19067135 0.1333003 -0.07790168 0.041420512 0.21442257 0.1785003 0.032034107
0.03439634 0.053904496 0.13029115 0.15389746 0.10155986 -0.05436611 0.116439976 0.14032027
0.062177867 -0.060252793 -0.1690217 0.09219916 0.13327916 0.028970318 0.06619535 -0.028794402
0.07672658 0.077104434 0.06197578 -0.07724473 -0.16736633 -0.04164344 0.18577477 0.13964905
-0.111824594 0.012907817 0.06453531 -0.07196753 0.044701178 -0.021723015 -0.023299685 0.0077950163
-0.08193139 0.007507381 -0.015019951 0.03604135 0.13334887 0.15939902 -0.018071422 0.12490763
-0.066098854 -0.09461299 -0.0006982374 -0.049093086 -0.052699715 0.0023248119 -0.12539215 -0.1573476
-0.18836008 -0.113190874 -0.035921372 0.13561703 0.0065075546 -0.039553497 0.09339492 -0.051666785
-0.1021269 0.13516697 0.04845817 -0.020544965 0.018786239 0.0044429693 0.09612342 0.017526604
0.11523619 -0.0310225 0.0065665515 -0.08096578 0.022987615 0.1353358 -0.028487224 -0.022170633
-0.08895055 -0.0740951 -0.075634256 0.10266138 0.070292115 0.12251686 -0.093711905 0.08668059
0.082751416 -0.01001394 0.045428984 -0.108713485 0.14256307 -0.09074912 0.062050913 -0.06942518
-0.0072563556 -0.018924398 -0.08072315 0.023329953 0.08858049 0.06170111 0.033690657 0.083157256
-0.031136153 -0.060981862 -0.16564584 -0.1037871 -0.033069123 -0.049807146 0.14156595 0.09848518
0.0483851 -0.058565646 -0.05908686 0.11527185 -0.13225411 0.03992602 0.0059278524 -0.18115531
-0.24663876 -0.15554897 -0.02576876 0.044588342 -0.024321156 -0.13744988 -0.11943114 -0.036281135
0.09756002 0.0668558 0.03423096 -0.043190066 -0.012264901 0.11905247 0.14424565 0.19027
0.10057719 0.06958169 0.0448483 -0.018400086 0.11339926 0.13481082 0.08808312 0.006192596
-0.18202697 -0.14739673 -0.04593623 0.009010908 -0.0944812 -0.002520386 -0.04788763 -0.19683625
-0.083772875 0.06984197 0.08031316 0.07179497 -0.018216703 -0.1453475 0.11044005 0.19381973
0.15119876 0.07228107 -0.13994965 0.048778225 0.041745804 0.062275127 0.11996366 0.04373854
0.089068964 -0.07035288 -0.13693753 -0.15272987 0.15902327 0.061191108 0.0038162046 -0.029639138
-0.17772076 0.0454847 -0.06819652 0.08779457 0.05147528 -0.06330902 -0.18558644 0.025475
0.15754287 0.18483597 0.1750581 0.066232435 0.007366502 0.12012618 0.08920629 0.04909519
0.08501783 0.1107588 0.0425257 -0.02236826 0.013234187 0.04030984 -0.021591369 0.10374041
0.047448188 -0.03265394 0.064093016 0.0011857569 0.074624754 -0.038929302 -0.01956248 -0.12868086
0.052067876 -0.06939079 -0.11933763 -0.08815101 -0.014431121 -0.0020484158 -0.017074142 -0.01471752
-0.08642331 0.07751429 -0.010794284 -0.027827663 -0.034673132 0.012054151 -0.11934866 0.12273357
00000000: 912a 40bd cbdc 7f3d f3d9 203d c08a 7a3c
00000010: c75a d9bc f123 93bd 66b4 883d 6d6b 2f3e
00000020: 26da 7e3d 3f7e cd3d 002e 033c 57e2 223d
00000030: c838 3a3e 9cd7 673d 43f4 a5bd 3815 a43c
00000040: 50a6 7a3d 33e3 433e 6ed4 cb3d 19c0 a13d
00000050: da0e a03d 92de 1d3e 329f 43bc e6de a0bc
00000060: 8e1d f13d fe25 d7bd 49be 193e ba97 563d
00000070: 3916 c13d e72f 053e 658f 13bd d36f 023e
00000080: 1db3 633e 5a3f 433e e07f 083e ea8a 9fbd
00000090: 8ea8 293d 9791 5b3e c8c8 363e 3236 033d
000000a0: 2de3 0c3d f6ca 5c3d 0b6b 053e 4c97 1d3e
000000b0: 9efe cf3d 00af 5ebd 1578 ee3d 1eb0 0f3e
000000c0: 38ae 7e3d a2cb 76bd 0614 2dbe ead2 bc3d
000000d0: 557a 083e 2953 ed3c 6d91 873d 3de2 ebbc
000000e0: d322 9d3d eee8 9d3d 51da 7d3d 7c32 9ebd
000000f0: 1462 2bbe 5092 2abd be3b 3e3e 2900 0f3e
00000100: 4b04 e5bd 4f7b 533c 172b 843d b663 93bd
00000110: 9518 373d 77f4 b1bc fbde bebc 566d ff3b
00000120: a5cb a7bd 7a00 f63b 3e16 76bc 18a0 133d
00000130: 9b8c 083e 7f39 233e 850a 94bc 92cf ff3d
00000140: d65e 87bd 75c4 c1bd eb09 37ba d515 49bd
00000150: a8db 57bd df5b 183b cd66 00be bb1f 21be
00000160: 77e1 40be 9ed0 e7bd 4a22 13bd 31df 0a3e
00000170: 533d d53b d902 22bd d645 bf3d 8da0 53bd
00000180: e827 d1bd 3669 0a3e 137c 463d ea4d a8bc
00000190: 99e5 993c 5496 913b 5bdc c43d f493 8f3c
000001a0: f400 ec3d e622 febc 3a2c d73b 63d1 a5bd
000001b0: 8650 bc3c 7895 0a3e 0a5e e9bc 309f b5bc
000001c0: b52b b6bd 2cbf 97bd 22e6 9abd 2140 d23d
000001d0: 50f5 8f3d 1fea fa3d 07ec bfbd 9885 b13d
000001e0: 9379 a93d 8211 24bc be13 3a3d 2da5 debd
000001f0: 0efc 113e adda b9bd 1929 7e3d ca2e 8ebd
00000200: b9c6 edbb 5707 9bbc 2e52 a5bd 751e bf3c
00000210: b069 b53d 4eba 7c3d 37ff 093d 5a4e aa3d
00000220: 3f11 ffbc 1ec8 79bd 109f 29be 558e d4bd
00000230: 7d73 07bd 9402 4cbd aaf6 103e 99b2 c93d
00000240: 742f 463d 88e2 6fbd 1005 72bd a613 ec3d
00000250: 9f6d 07be 7789 233d 6e3e c23b c780 39be
00000260: df8e 7cbe 3b48 1fbe 0219 d3bc 44a2 363d
00000270: 293d c7bc a9bf 0cbe 5098 f4bd 879b 14bd
00000280: 8ccd c73d b2eb 883d c335 0c3d 11e8 30bd
00000290: b9f2 48bc c8d1 f33d 22b5 133e 24d6 423e
000002a0: 6afb cd3d d880 8e3d dab2 373d c7bb 96bc
000002b0: df3d e83d d90b 0a3e ec64 b43d 43eb ca3b
000002c0: 4765 3abe 2bef 16be a127 3cbd 7da2 133c
000002d0: 5c7f c1bd 0f2d 25bb d225 44bd 718f 49be
000002e0: 1d91 abbd 4f09 8f3d 3a7b a43d 3e09 933d
000002f0: 323b 95bc fad5 14be 652e e23d ae78 463e
00000300: d9d3 1a3e 1908 943d f64e 0fbe adcb 473d
00000310: a6fd 2a3d 3414 7f3d 82af f53d 2f27 333d
00000320: ca69 b63d 2c15 90bd 5a39 0cbe 3865 1cbe
00000330: ffd6 223e 87a3 7a3d 4a19 7a3b c7cd f2bc
00000340: 6efc 35be 2a4e 3a3d 9eaa 8bbd a4cd b33d
00000350: bed7 523d 29a8 81bd 5f0a 3ebe f2b0 d03c
00000360: eb52 213e a445 3d3e 6e42 333e dfa4 873d
00000370: b362 f13b b704 f63d cab1 b63d 0a18 493d
00000380: d41d ae3d 82d5 e23d 6e2f 2e3d a43d b7bc
00000390: 34d4 583c ee1b 253d 62e0 b0bc da75 d43d
000003a0: 0859 423d 23c0 05bd 3343 833d 666b 9b3a
000003b0: ddd4 983d 5574 1fbd 7e41 a0bc eac4 03be
000003c0: 2045 553d c21c 8ebd 4a67 f4bd 8488 b4bd
000003d0: 8270 6cbc b73e 06bb 12df 8bbc c121 71bc
000003e0: b4fe b0bd d0bf 9e3d 82da 30bc d7f6 e3bc
000003f0: 6a05 0ebd c67e 453c 126d f4bd bd5b fb3d

conv1.bias f4 [6]
0.12090985 -0.009842106 -0.03481992 0.050945267 -0.052891146 -0.041893955
00000000: 959f f73d c940 21bc 559f 0ebd fcab 503d
00000010: 63a4 58bd ff98 2bbd

conv2.weight f4 [16, 6, 5, 5]
-0.025672726 -0.06765275 -0.035181254 0.018737087 0.020405222 -0.007855916 -0.0457408 0.013043534
-0.06622906 -0.04483261 0.03054185 0.0367698 0.04344326 -0.018696936 0.074212864 0.0584762
0.06780139 -0.0544007 0.0352343 -0.015983347 -0.040247954 -0.02876687 0.080882855 -0.0035998938
-0.040148377 0.12716629 0.039991174 0.10649771 0.18045606 0.103820756 0.17014626 0.2770077
0.23447004 0.19942486 0.13286754 0.004912582 0.069226116 0.0133143375 0.0096344305 -0.0012447581
0.0032404787 0.002823712 0.005330379 -0.04252984 0.03461324 -0.18131235 -0.22376895 -0.19277826
-0.22191624 -0.10862249 -0.01944232 -0.036030296 -0.023252374 -0.012301385 -0.09225193 0.12470039
0.029439947 0.104649484 0.077901736 0.11312018 0.093593165 0.07444015 0.16646194 0.19147849
0.21377487 -0.10788922 -0.15653862 -0.16391513 -0.06738225 -0.025977146 -0.10905892 -0.09032944
-0.14339389 -0.087920815 -0.025034958 0.08600123 0.10541136 0.17185296 0.17039144 0.15675251
0.013514841 0.12497014 -0.0038959477 0.0025348924 0.10957262 -0.051733974 -0.019757967 -0.043795407
0.09810526 0.022634957 0.010537373 -0.19128671 -0.08571613 -0.107624836 -0.08554997 -0.013132309
-0.079618655 -0.06862609 -0.14825557 -0.07918075 0.036219086 0.06828014 0.04636644 0.112906076
0.11743949 -0.012746288 -0.02432111 0.07061142 0.019379511 0.07436138 0.048389077 0.0178082
-0.006180865 0.0041619125 0.03078132 -0.11064169 -0.028764645 0.025403937 -0.089538164 0.10161045
-0.10286887 -0.022523046 -0.021628419 -0.08572507 0.037722778 0.0725234 0.045175053 -0.08065045
-0.07749515 -0.09036865 -0.05941886 -0.15131558 -0.21683484 -0.20725612 -0.22496153 -0.09810133
0.03261785 0.0393835 0.011654631 -0.08240449 0.010604156 0.07914936 0.1257101 0.043600094
0.028425036 -0.0043672374 0.13891844 0.06235547 0.0512266 0.03763788 0.062104218 0.0804504
-0.050748415 0.004587836 -0.010325494 0.11746805 0.046099164 0.08138832 -0.040802404 0.07658082
0.07082522 -0.011200862 0.099223584 0.042271774 0.02712969 0.118168004 -0.016943479 0.0907761
0.031271286 -0.0445439 0.04851069 0.07160505 0.06389365 0.11793067 0.07520225 -0.28342342
-0.36682358 -0.45061162 -0.43007848 -0.2832594 -0.36558333 -0.3619836 -0.4037419 -0.45949683
-0.29042503 -0.26999727 -0.3404571 -0.25026393 -0.2421932 -0.21720524 -0.15853478 -0.119479306
-0.05412119 -0.004658298 -0.041278448 -0.21309961 -0.148963 -0.10117359 0.014175695 -0.073327005
-0.05378388 -0.06371949 -0.13113734 -0.15261194 -0.1628659 -0.16570295 -0.20427953 -0.28689578
-0.3059818 -0.21631542 -0.08896034 -0.1492504 -0.18202811 -0.069414176 -0.08612806 -0.115502425
-0.1757176 -0.040407307 -0.08794225 0.0004991084 -0.01339568 0.0009789459 0.010071733 0.04034783
-0.045599636 -0.14643756 -0.038800545 -0.025514843 0.018138405 0.12939578 -0.12920706 -0.17391248
-0.12217495 -0.09626744 0.089828104 -0.19926117 -0.1533128 -0.15323721 0.043093313 0.053336184
-0.12941724 -0.17176804 -0.024483237 0.0327808 0.08390141 -0.18266694 -0.082724534 -0.08471242
0.047823388 -0.0035503537 -0.06507706 -0.057319492 -0.036007483 0.019647079 0.031748567 -0.009121804
00000000: 9c4f d2bc 868d 8abd 381a 10bd 857e 993c
00000010: da28 a73c 1ab6 00bc b55a 3bbd 8cb4 553c
00000020: 1aa3 87bd 66a2 37bd e732 fa3c ee9b 163d
00000030: 8ff1 313d 512a 99bc eafc 973d bd84 6f3d
00000040: 75db 8a3d 45d3 5ebd d751 103d 82ef 82bc
00000050: 0adb 24bd 80a8 ebbc e9a5 a53d 32ec 6bbb
00000060: a072 24bd e137 023e c9cd 233d 791b da3d
00000070: 79c9 383e fa9f d43d d23a 2e3e f4d3 8d3e
00000080: ea18 703e 0836 4c3e 6e0e 083e baf9 a03b
00000090: 6cc6 8d3d 6124 5a3c bbd9 1d3c 2727 a3ba
000000a0: 365e 543b 070e 393b 76aa ae3b c533 2ebd
000000b0: 9dc6 0d3d f2a9 39be b023 65be aa67 45be
000000c0: 033e 63be 7875 debd 8045 9fbc 8194 13bd
000000d0: c37b bebc c08b 49bc 94ee bcbd eb62 ff3d
000000e0: 0b2c f13c 7852 d63d f28a 9f3d 8eab e73d
000000f0: c6ad bf3d 1474 983d 0075 2a3e f012 443e
00000100: cde7 5a3e 06f5 dcbd a94b 20be 5ed9 27be
00000110: b5ff 89bd 06ce d4bc 485a dfbd a4fe b8bd
00000120: d9d5 12be d40f b4bd 1d16 cdbc 6a21 b03d
00000130: e9e1 d73d 39fa 2f3e 187b 2e3e bb83 203e
00000140: 5a6d 5d3c 58f0 ff3d 2853 7fbb 7020 263b
00000150: 9c67 e03d 01e7 53bd 76db a1bc d062 33bd
00000160: 69eb c83d f26c b93c f2a4 2c3c aae0 43be
00000170: f08b afbd 696a dcbd d334 afbd e528 57bc
00000180: 1b0f a3bd d68b 8cbd 4fd0 17be 8429 a2bd
00000190: 775a 143d 75d6 8b3d bcea 3d3d 4d3b e73d
000001a0: 1e84 f03d cfd5 50bc 113d c7bc b89c 903d
000001b0: c8c1 9e3c c74a 983d a033 463d 81e2 913c
000001c0: db88 cabb a760 883b 1b29 fc3c 1c98 e2bd
000001d0: d5a3 ebbc eb1b d03c c95f b7bd 2419 d03d
000001e0: eaac d2bd 4082 b8bc 152e b1bc a090 afbd
000001f0: 3383 1a3d 2687 943d 7a09 393d 102c a5bd
00000200: c7b5 9ebd 3313 b9bd 3161 73bd 79f2 1abe
00000210: f409 5ebe f33a 54be 515c 66be 5ae9 c8bd
00000220: 4b9a 053d 9850 213d 11f3 3e3c afc3 a8bd
00000230: 0ebd 2d3c 0f19 a23d 26ba 003e 0396 323d
00000240: 9fdb e83c 0b1b 8fbb a340 0e3e 7368 7f3d
00000250: fcd2 513d 2d2a 1a3d fe60 7e3d 2ec3 a43d
00000260: 92dd 4fbd 8f55 963b 432c 29bc 1793 f03d
00000270: 7ad2 3c3d ebae a63d 6c20 27bd 68d6 9c3d
00000280: d00c 913d d283 37bc bc35 cb3d 2b25 2d3d
00000290: 153f de3c 1102 f23d 0dcd 8abc d2e8 b93d
000002a0: 5216 003d aa73 36bd 25b3 463d aba5 923d
000002b0: adda 823d a385 f13d a303 9a3d e01c 91be
000002c0: 4dd0 bbbe 91b6 e6be 3f33 dcbe 6007 91be
000002d0: bd2d bbbe ea55 b9be 42b7 cebe 2b43 ebbe
000002e0: 97b2 94be 153d 8abe 6550 aebe 9822 80be
000002f0: 7f01 78be 0d6b 5ebe f156 22be 91b1 f4bd
00000300: 2eae 5dbd a3a4 98bb 9713 29bd c936 5abe
00000310: c289 18be 1934 cfbd 2d41 683c 782c 96bd
00000320: 7c4c 5cbd 5d7f 82bd de48 06be 4e46 1cbe
00000330: 52c6 26be 09ae 29be a72e 51be 01e4 92be
00000340: a6a9 9cbe ca81 5dbe d730 b6bd 19d5 18be
00000350: 9465 3abe 0529 8ebd e963 b0bd 898c ecbd
00000360: 51ef 33be 2282 25bd 111b b4bd 99d6 023a
00000370: 8e79 5bbc f94f 803a e903 253c c443 253d
00000380: afc6 3abd baf3 15be 52ed 1ebd 8104 d1bc
00000390: fe96 943c 5480 043e db4e 04be 1d16 32be
000003a0: dc36 fabd dd27 c5bd ccf7 b73d 1f0b 4cbe
000003b0: 08fe 1cbe 37ea 1cbe 9d82 303d 0b77 5a3d
000003c0: f485 04be f6e3 2fbe 1291 c8bc 2945 063d
000003d0: 81d4 ab3d 0b0d 3bbe 7b6b a9bd b57d adbd
000003e0: 75e2 433d 0dad 68bb 1f47 85bd d8c7 6abd
000003f0: 957c 13bd e9f2 a03c c90a 023d 9e73 15bc

conv2.bias f4 [16]
-0.15082312 -0.041103106 -0.14987373 0.124276124 0.21185826 -0.06710445 0.017277837 0.1856994
0.12494116 -0.08414429 -0.22432967 0.32409596 -0.13422307 0.047863994 0.23414749 -0.063859515
00000000: 6071 1abe bb5b 28bd 8078 19be 7b84 fe3d
00000010: 5ff1 583e 0f6e 89bd 408a 8d3c fc27 3e3e
00000020: 27e1 ff3d d753 acbd adb6 65be e8ef a53e
00000030: c671 09be 090d 443d 5cc4 6f3e c7c8 82bd

fc1.weight f4 [120, 400]
0.019443125 0.03796792 0.030810446 0.029957753 0.022893058 -0.159918 -0.04908855 -0.071029134
-0.052311923 -0.06576713 -0.19426784 -0.12989698 -0.13131131 -0.0312473 -0.015383441 -0.05608547
-0.024733191 -0.011093937 0.048875798 0.02769355 -0.042330176 -0.028043892 -0.003140753 -0.02560802
-0.02283836 0.098799065 0.016370352 0.04575771 0.07728227 0.074600674 0.05060545 0.0023090278
0.054263905 0.078382924 -0.02564798 0.042487185 0.03578049 0.06253419 0.047031444 -0.0076215365
-0.013977909 0.019221926 0.0034954713 0.080127336 -0.038445 0.05942924 0.045479733 -0.010888063
-0.018936105 0.048978116 0.08388975 0.081303276 0.03603034 0.0025026035 0.06887323 0.07383283
0.03341184 -0.026466742 -0.070058 0.04785534 0.06719585 -0.009316122 -0.01374504 0.018736957
0.039224714 0.07496912 0.03596143 0.06337291 0.117281735 0.069121554 0.08638243 0.08405231
0.084767155 0.07371397 0.12774165 -0.33529502 -0.3143187 -0.1655331 -0.15861654 -0.115380436
-0.12615421 -0.20436952 -0.08673303 -0.06883055 -0.034209292 -0.0098958025 -0.029233947 -0.12104671
-0.09685641 -0.052237827 0.029740302 0.016748732 -0.13282627 -0.12125797 -0.047626626 0.048883248
-0.09678401 -0.17722966 -0.1813359 -0.07705504 0.016562482 -0.0027362772 -0.05029426 -0.042191744
0.0023338974 -0.00098669 -0.0473167 -0.05802614 0.057207897 0.03566485 0.00477988 0.043244228
-0.031646136 0.036413755 0.06765371 -0.01805317 0.071956545 0.047047097 -0.0059889248 0.0106787775
-0.061821636 -0.042927396 0.027114447 0.019292032 -0.0191197 0.015069493 -0.012635284 0.009972918
0.018731138 0.049840186 -0.10709131 -0.028767476 -0.086851716 -0.08537209 -0.061344624 -0.053434428
0.061013665 0.030018747 0.0012736205 -0.0017860008 -0.06955865 0.012661675 0.09070668 0.004615451
-0.023051957 -0.03404689 0.018506033 0.031737737 0.05405308 -0.05646814 0.0052204058 -0.04014569
-0.03512128 0.046548784 0.04645685 -0.03564978 -0.0031977093 -0.03714951 0.026127236 0.03179912
0.03032181 0.018345974 -0.052416712 -0.019847821 0.1000146 0.074144006 0.0062445085 -0.0015590304
-0.0094771795 0.037344247 0.057503533 0.049536034 0.013848142 0.02425106 0.027608035 0.090774335
-0.0026940363 -0.023135306 0.012262465 -0.0045325328 0.047514543 -0.071308605 -0.027793014 0.023212088
0.040129453 0.020215504 -0.083338365 -0.081554785 -0.018359922 -0.0048657535 0.028472966 -0.027838845
-0.020357711 -0.04250473 -0.0054357476 0.023169542 0.044696625 -0.011544265 0.07113002 0.13832277
0.017224468 0.037106376 0.11400825 0.07596849 0.031490285 -0.053141266 -0.10267109 -0.040698845
-0.09245275 0.010037299 -0.053053617 -0.08876285 -0.15185729 -0.06622199 -0.06632783 -0.05266597
-0.12058301 -0.109289035 -0.023376843 -0.06910932 -0.012314639 -0.07931806 -0.017164277 -0.05159961
-0.011044329 0.11648174 -0.023679154 -0.004573026 0.0002631728 0.011056543 -0.00025471125 -0.09405301
-0.042921226 -0.090307884 -0.043512784 0.0024464615 -0.029688865 -0.0812901 -0.06293119 0.01053106
-0.04749042 -0.027507357 0.01632412 -0.03350279 -0.005160642 0.049334012 0.049231213 0.11010867
0.0886563 0.05413437 -0.036283627 -0.0021535233 -0.00522542 0.05874052 0.023760319 0.17479739
00000000: 3047 9f3c 4084 1b3d 3066 fc3c f669 f53c
00000010: 398a bb3c 8bc1 23be 1311 49bd b977 91bd
00000020: 0745 56bd ebb0 86bd 26ee 46be b703 05be
00000030: 7976 06be 56fa ffbc d40a 7cbc e1b9 65bd
00000040: 439d cabc 58c3 35bc fd31 483d 95dd e23c
00000050: 6862 2dbd 4ebc e5bc 17d5 4dbb e9c7 d1bc
00000060: 8317 bbbc 2a57 ca3d 1e1b 863c 706c 3b3d
00000070: 2b46 9e3d 3dc8 983d a947 4f3d 0f53 173b
00000080: d443 5e3d 3a87 a03d b61b d2bc 0b07 2e3d
00000090: 908e 123d ed11 803d 0ba4 403d 15be f9bb
000000a0: 9a03 65bc 4d77 9d3c 4714 653b cd19 a43d
000000b0: 8178 1dbd 136c 733d f548 3a3d d963 32bc
000000c0: e41f 9bbc 479d 483d 64ce ab3d 5582 a63d
000000d0: 8d94 133d b802 243b 680d 8d3d ab35 973d
000000e0: dbda 083d c8d0 d8bc 927a 8fbd f603 443d
000000f0: fa9d 893d a6a2 18bc e032 61bc 3f7e 993c
00000100: 18aa 203d 6989 993d 4b4c 133d a8c9 813d
00000110: 6831 f03d 9a8f 8d3d 45e9 b03d 9e23 ac3d
00000120: 679a ad3d 5af7 963d b5ce 023e caab abbe
00000130: 61ee a0be 8281 29be 606c 22be 944c ecbd
00000140: 922e 01be 3e46 51be 16a1 b1bd 08f7 8cbd
00000150: 0b1f 0cbd 0122 22bc 087c efbc 56e7 f7bd
00000160: a75c c6bd 55f7 55bd efa1 f33c a334 893c
00000170: 9c03 08be 1956 f8bd 2314 43bd cd39 483d
00000180: b236 c6bd b17b 35be 1eb0 39be 08cf 9dbd
00000190: 0bae 873c 1d53 33bb 5b01 4ebd 40d1 2cbd
000001a0: 4df4 183b d353 81ba 28cf 41bd d1ac 6dbd
000001b0: d452 6a3d 4e15 123d 8aa0 9c3b dc20 313d
000001c0: 619f 01bd 9726 153d 078e 8a3d 3ee4 93bc
000001d0: f45d 933d 75b4 403d be3e c4bb 0af6 2e3c
000001e0: af38 7dbd a3d4 2fbd 1e1f de3c 530a 9e3c
000001f0: eba0 9cbc 09e6 763c 3904 4fbc 7365 233c
00000200: 0b72 993c 3925 4c3d b052 dbbd c5a9 ebbc
00000210: 50df b1bd 90d7 aebd 8044 7bbd 0fde 5abd
00000220: 77e9 793d e0e9 f53c 9def a63a 3e18 eaba
00000230: c474 8ebd ea72 4f3c 6dc4 b93d 363d 973b
00000240: 75d7 bcbc c074 0bbd f799 973c 6eff 013d
00000250: c366 5d3d 234b 67bd f00f ab3b cf6f 24bd
00000260: 55db 0fbd f0a9 3e3d 8a49 3e3d 8105 12bd
00000270: a990 51bb 162a 18bd c908 d63c cb3f 023d
00000280: 7265 f83c 4c4a 963c e8b2 56bd e697 a2bc
00000290: 74d4 cc3d d0d8 973d bc9e cc3b 6158 ccba
000002a0: 2c46 1bbc 48f6 183d d388 6b3d 4ce6 4a3d
000002b0: 51e3 623c 29aa c63c 3f2a e23c e5e7 b93d
000002c0: 6e8e 30bb 4186 bdbc 82e8 483c a485 94bb
000002d0: 9c9e 423d 3f0a 92bd 2dae e3bc 4727 be3c
000002e0: c85e 243d fc9a a53c 4ead aabd 3206 a7bd
000002f0: 8c67 96bc e670 9fbb 2340 e93c 4a0e e4bc
00000300: 37c5 a6bc 7119 2ebd 5b1e b2bb 0dce bd3c
00000310: cf13 373d 2824 3dbc 9eac 913d 7ca4 0d3e
00000320: 541a 8d3c dbfc 173d 287d e93d 5e95 9b3d
00000330: f5fb 003d a8aa 59bd 3845 d2bd d5b3 26bd
00000340: de57 bdbd 7c73 243c c04e 59bd 4cc9 b5bd
00000350: 7a80 1bbe 659f 87bd e3d6 87bd 46b8 57bd
00000360: 3af4 f6bd eed2 dfbd cb80 bfbc 3089 8dbd
00000370: 57c3 49bc 8271 a2bd 199c 8cbc 1d5a 53bd
00000380: 46f3 34bc fa8d ee3d c9fa c1bc 53d9 95bb
00000390: 75fa 8939 8126 353c c48a 85b9 dd9e c0bd
000003a0: 2bce 2fbd 57f3 b8bd 763a 32bd d054 203b
000003b0: 1036 f3bc 6d7b a6bd 11e2 80bd 788a 2c3c
000003c0: 5185 42bd 1c57 e1bc 29ba 853c 393a 09bd
000003d0: 9a1a a9bb 7612 4a3d aba6 493d a880 e13d
000003e0: 6f91 b53d 00bc 5d3d 249e 14bd 2022 0dbb
000003f0: 003a abbb e699 703d 00a5 c23c 16fe 323e

fc1.bias f4 [120]
-0.0893876 -0.007676468 0.055669215 -0.12167151 -0.08528385 0.13895936 -0.034885135 0.15558717
0.12965097 -0.0037408166 0.036410715 -0.16490255 0.14302978 -0.036216907 0.19923283 -0.032496236
0.07892647 0.08585645 0.21933874 0.29482841 0.21711588 -0.036143355 0.07609003 -0.00040686424
0.018302752 -0.060614593 0.035803787 0.04888784 0.0044632014 0.005383616 -0.047904674 0.13069995
0.21248946 0.017113743 0.07497127 0.012708906 -0.016983142 0.025472598 0.13925612 -0.04271713
0.022582943 -0.00932952 -0.17810106 0.05439056 0.065283395 0.14703803 -0.16371146 -0.27468196
-0.26152784 0.031268317 -0.011507899 0.004712586 0.019561158 0.018559271 0.18048927 0.06290018
0.12709878 -0.14535241 -0.0305967 0.1363819 0.15438506 -0.05696506 0.061897513 -0.21561657
-0.16036108 -0.018675284 0.11181504 0.12960246 0.11091597 -0.059608944 -0.12597089 0.0027576312
0.001978535 -0.049056422 0.08608707 0.16860084 -0.12773673 0.0447069 0.17372683 0.0049497546
0.12784293 -0.03447772 -0.030209694 -0.037273787 0.135658 -0.049298327 0.016049374 0.0012911315
0.03624347 -0.0046454533 -0.18101974 0.15054823 -0.11131282 -0.026471462 0.15813614 0.08392974
0.13028173 -0.026885081 -0.17904162 -0.09585274 -0.041020095 -0.03291512 -0.09356856 -0.038863238
-0.12590681 -0.034488488 -0.19495867 0.21929914 0.1793213 0.25000238 0.020888584 0.041101232
-0.11055106 0.13256939 -0.08927656 -0.006783684 0.006812275 -0.04140773 0.0013678796 -0.1254862
00000000: d910 b7bd e28a fbbb 6705 643d ea2e f9bd
00000010: 4da9 aebd 5d4b 0e3e b7e3 0ebd 3e52 1f3e
00000020: 39c3 043e 7d28 75bb 6723 153d 37dc 28be
00000030: 6676 123e 2e58 14bd b103 4c3e c61a 05bd
00000040: 33a4 a13d 82d5 af3d 569a 603e c0f3 963e
00000050: a053 5e3e 0e0b 14bd 17d5 9b3d 6550 d5b9
00000060: a7ef 953c 0247 78bd fea6 123d 9e3e 483d
00000070: 0c40 923b 0b69 b03b b137 44bd 35d6 053e
00000080: d696 593e 1f32 8c3c 8a8a 993d 0439 503c
00000090: 3b20 8bbc e9ab d03c 2899 0e3e 28f8 2ebd
000000a0: ddff b83c d8da 18bc 2060 36be a3c8 5e3d
000000b0: 4db3 853d 2391 163e faa3 27be 1da3 8cbe
000000c0: fae6 85be 3513 003d a08b 3cbc 096c 9a3b
000000d0: b93e a03c 9d09 983c 2ed2 383e cfd1 803d
000000e0: 2f26 023e 43d7 14be eea5 fabc b2a7 0b3e
000000f0: 1e17 1e3e 3254 69bd 3f88 7d3d 97ca 5cbe
00000100: b235 24be e9fc 98bc 49ff e43d 82b6 043e
00000110: e927 e33d 8228 74bd 83fe 00be 60b9 343b
00000120: 4faa 013b 63ef 48bd 6b4e b03d b3a5 2c3e
00000130: 6bcd 02be 951e 373d 72e5 313e 8d31 a23b
00000140: 42e9 023e 8238 0dbd 527a f7bc 66ac 18bd
00000150: eee9 0a3e 0bed 49bd fa79 833c 2f3b a93a
00000160: 0874 143d e338 98bb 3d5d 39be 5129 1a3e
00000170: faf7 e3bd aeda d8bc 71ee 213e 5be3 ab3d
00000180: 9368 053e 1a3e dcbc b056 37be 714e c4bd
00000190: b004 28bd 01d2 06bd e0a0 bfbd 0f2f 1fbd
000001a0: b7ed 00be cd43 0dbd 3fa3 47be f48f 603e
000001b0: 01a0 373e 5000 803e 891e ab3c c459 283d
000001c0: 9868 e2bd 45c0 073e a1d6 b6bd aa49 debb
000001d0: 8139 df3b 279b 29bd 6c4a b33a 747f 00be

fc2.weight f4 [84, 120]
-0.02276427 0.016874468 -0.022759585 0.05835988 -0.029079696 0.15284449 0.0071320925 0.15276447
0.001919003 0.07262598 -0.044186104 0.053690035 -0.1595373 0.074898005 -0.03567216 -0.068127215
0.07864483 -0.011380564 -0.12505315 0.17768058 0.037937585 -0.081135675 -0.092580706 -0.20410194
0.066546746 -0.07512404 0.09789679 0.059714984 0.063874416 0.14039464 -0.22883745 -0.017620059
0.13841467 -0.084904075 0.001383711 -0.112228274 0.006863349 0.09917757 0.083784126 -0.03069542
0.0132196145 0.0012420315 -0.06953839 0.17420685 0.044872437 -0.06396445 -0.0474673 0.024215499
0.01572854 -0.014540899 -0.059124026 0.013413022 -0.004960015 0.028716398 -0.032589715 0.02876087
0.17777295 0.038599793 -0.0293104 -0.08993167 -0.10828701 -0.043903377 -0.12538773 0.17023057
0.111127354 -0.07324084 0.028994448 0.06301414 0.10758453 0.012486916 0.16076472 -0.12938371
0.031393923 -0.1370364 0.16390556 0.035493176 0.06526407 0.031461768 -0.12746619 -0.024606917
0.049347498 -0.019993862 -0.013225503 0.22884774 0.17183766 0.040351067 -0.045112427 -0.0082268035
-0.008062694 -0.07445525 0.10593185 -0.034496948 0.103718065 0.03340788 -0.20428093 -0.015806822
0.22240292 -0.06269413 0.019738348 -0.0516294 0.04748997 0.014848031 -0.07890419 -0.093954325
-0.04427603 -0.03864086 0.25363857 -0.2341318 0.17661749 0.02480812 -0.098661125 0.16053067
0.07488628 0.008314411 0.07897642 -0.10289957 0.013082902 0.10633557 0.100692086 0.025702292
-0.09121927 -0.053443953 0.07005796 0.052768733 0.008534063 -0.20673205 0.1838626 0.121612474
-0.11061164 -0.06691235 -0.040721066 0.10633149 0.2763934 0.06302556 -0.016028432 0.0049184803
0.1438647 0.0044503016 0.08104797 0.018271755 -0.053661156 0.1309619 0.107119665 0.2277819
0.08649289 0.072161935 0.10983547 0.09542934 0.036322493 -0.03370596 -0.059437666 -0.00817869
-0.2196569 0.047298476 -0.022884272 0.06540402 0.11881941 0.028520731 0.06155178 0.0027083869
0.054545898 0.14017455 0.13025038 -0.17905125 0.05293837 0.0066104494 -0.057080973 0.05338123
-0.10075445 0.073985875 0.009092567 -0.07108367 -0.043575548 -0.18905489 -0.04296101 0.062330823
0.13151711 -0.066066734 0.0320197 0.029397985 -0.10770815 0.05732902 -0.0648849 0.18995129
0.017785437 -0.021643165 0.20517237 0.00057551695 0.041846972 -0.048271406 0.008424152 0.07516347
-0.09440459 0.12175309 -0.01577148 0.058808297 0.008969616 -0.07881277 -0.05969279 0.01622897
-0.07358891 -0.03052098 -0.048801534 -0.06975358 -0.13059139 -0.05956191 0.15654698 -0.0022100178
-0.01953508 0.092907384 0.16081637 0.103502594 0.08550924 -0.07583206 0.24165137 -0.026930023
-0.17612068 0.027129112 -0.03932144 -0.08052804 0.0793171 -0.015379261 0.015845189 0.07609284
0.0793992 0.12600227 -0.32276872 -0.07011113 -0.018342277 -0.044855308 0.16751291 -0.083474904
0.007746011 -0.021955634 -0.030889343 0.075332075 0.013207679 -0.058121417 -0.020388998 0.080654494
0.24929376 -0.0738734 0.12514815 0.077427626 -0.039209444 -0.0481108 -0.03374745 -0.08854465
-0.07901177 -0.067436315 0.29261172 0.02132849 0.037340783 -0.07767363 -0.09926849 -0.021483518
00000000: 227c babc 533c 8a3c 4f72 babc c50a 6f3d
00000010: 8b38 eebc 4483 1c3e 54b4 e93b 4a6e 1c3e
00000020: 0e87 fb3a eebc 943d 7dfc 34bd 15ea 5b3d
00000030: bf5d 23be 2064 993d f91c 12bd 4886 8bbd
00000040: 8a10 a13d 8c75 3abc ef0d 00be e6f1 353e
00000050: 7164 1b3d 762a a6bd f49a bdbd 1900 51be
00000060: a949 883d a2da 99bd 1d7e c83d b397 743d
00000070: 97d0 823d 9dc3 0f3e 5d54 6abe f157 90bc
00000080: 93bc 0d3e 30e2 adbd a35d b53a f0d7 e5bd
00000090: f2e5 e03b 9c1d cb3d 0397 ab3d f674 fbbc
000000a0: 1597 583c a9cb a23a 256a 8ebd 4863 323e
000000b0: 29cc 373d cbff 82bd 126d 42bd 955f c63c
000000c0: 24d9 803c f33c 6ebc 092c 72bd 4bc2 5b3c
000000d0: 9f87 a2bb a73e eb3c cb7c 05bd eb9b eb3c
000000e0: 1d0a 363e d11a 1e3d 5d1c f0bc 182e b8bd
000000f0: 94c5 ddbd 07d4 33bd a465 00be ec50 2e3e
00000100: bd96 e33d 4bff 95bd c485 ed3c 8f0d 813d
00000110: 4755 dc3d ec95 4c3c 829f 243e 2a7d 04be
00000120: ea96 003d 4553 0cbe dcd6 273e 4b61 113d
00000130: 2ba9 853d 0ede 003d 7f86 02be 7294 c9bc
00000140: 9a20 4a3d 2bca a3bc c8af 58bc 1057 6a3e
00000150: 36f6 2f3e 2947 253d cfc7 38bd b7c9 06bc
00000160: 6419 04bc fe7b 98bd ccf2 d83d ac4c 0dbd
00000170: 236a d43d b4d6 083d 052f 51be 4f7d 81bc
00000180: 97bd 633e c865 80bd 51b2 a13c 5a79 53bd
00000190: d884 423d 2845 733c 8598 a1bd 206b c0bd
000001a0: c85a 35bd e145 1ebd eadc 813e 3fc0 6fbe
000001b0: 37db 343e 663a cb3c d80e cabd 2762 243e
000001c0: fa5d 993d 2b39 083c 64be a13d 02bd d2bd
000001d0: ab59 563c 77c6 d93d a737 ce3d 9d8d d23c
000001e0: 2bd1 babd 0ce8 5abd 8c7a 8f3d 0724 583d
000001f0: 74d2 0b3c 91b1 53be 7a46 3c3e f60f f93d
00000200: 5b88 e2bd 5809 89bd 22cb 26bd 53c4 d93d
00000210: 7083 8d3e 8b13 813d 0f4e 83bc 342b a13b
00000220: 4551 133e d6d3 913b 7afc a53d a6ae 953c
00000230: cdcb 5bbd e01a 063e 8e61 db3d a93f 693e
00000240: 2f23 b13d a3c9 933d 6bf1 e03d 7570 c33d
00000250: e5c6 143d 430f 0abd e974 73bd eaff 05bc
00000260: bded 60be 0cbc 413d cc77 bbbc 8bf2 853d
00000270: 9757 f33d 4fa4 e93c b81d 7c3d 317f 313b
00000280: 856b 5f3d eb89 0f3e 5b60 053e 3659 37be
00000290: e7d5 583d 789c d83b bdcd 69bd 47a6 5a3d
000002a0: 5958 cebd e885 973d fdf8 143c 5194 91bd
000002b0: 467c 32bd 9b97 41be e2f7 2fbd 9b4e 7f3d
000002c0: 6cac 063e ff4d 87bd 1727 033d 0bd4 f03c
000002d0: 1796 dcbd d6d1 6a3d 60e2 84bd 9782 423e
000002e0: c4b2 913c 024d b1bc b518 523e 4ade 163a
000002f0: bb67 2b3d 3db8 45bd 7405 0a3c 4eef 993d
00000300: 3257 c1bd af59 f93d 3133 81bc f8e0 703d
00000310: 4cf5 123c 9768 a1bd 6d80 74bd 9ef2 843c
00000320: c8b5 96bd 2207 fabc 1ee4 47bd f7da 8ebd
00000330: c0b9 05be 30f7 73bd da4d 203e f2d5 10bb
00000340: 0808 a0bc 3a46 be3d 0cad 243e 2bf9 d33d
00000350: 781f af3d d74d 9bbd 7573 773e 5a9c dcbc
00000360: fb58 34be df3d de3c 850f 21bd e3eb a4bd
00000370: 0171 a23d 4cf9 7bbc c5cd 813c 90d6 9b3d
00000380: 0c9c a23d bd06 013e f141 a5be 6d96 8fbd
00000390: 8b42 96bc 33ba 37bd 8188 2b3e e4f4 aabd
000003a0: 40d2 fd3b 4ddc b3bc a60b fdbc b447 9a3d
000003b0: 0565 583c b910 6ebd d406 a7bc 2f2e a53d
000003c0: dd46 7f3e f04a 97bd d626 003e 6092 9e3d
000003d0: 159a 20bd d50f 45bd c43a 0abd e656 b5bd
000003e0: ecd0 a1bd 0d1c 8abd 34d1 953e 16b9 ae3c
000003f0: a6f2 183d 5a13 9fbd 474d cbbd 34fe afbc

fc2.bias f4 [84]
0.09449111 0.055136878 0.042734824 -0.0033277138 0.03497431 0.25010946 0.00040314774 -0.154671
0.07077726 -0.15082203 0.24067125 -0.20366028 0.12827444 -0.0369824 0.09979164 -0.10566917
0.17469394 0.23091568 -0.06592143 0.32152274 0.0022894316 -0.024193801 0.022392021 -0.029264135
0.103623666 -0.033146787 -0.13736553 0.26943657 0.07573775 -0.0036272402 0.27897856 -0.077962995
-0.07830012 -0.0032284055 -0.21934316 0.1679476 -0.009061328 0.12086038 0.052068584 0.04298173
0.09016507 -0.01782543 -0.008588589 0.042221893 -0.15121637 0.019441552 0.044389065 -0.024210518
-0.097316146 -0.064814836 -0.19868484 0.09696717 0.020007525 0.19028647 -0.082449555 0.14766605
0.11773578 0.0725514 0.08469784 0.13456257 -0.04437433 -0.021863973 -0.058467116 -0.04546123
0.122389615 0.09866955 -0.14061694 -0.13941135 0.01783731 0.06692219 0.13054125 -0.07372819
0.058482725 -0.23448406 -0.05956965 0.068631545 0.0072060428 0.14469111 -0.017616995 -0.030551953
-0.10320423 0.17100571 -0.02342648 0.21854602
00000000: 8e84 c13d 35d7 613d b60a 2f3d c615 5abb
00000010: 3941 0f3d 590e 803e 935d d339 1362 1ebe
00000020: abf3 903d 1771 1abe 8672 763e 528c 50be
00000030: 605a 033e db7a 17bd 8f5f cc3d 1469 d8bd
00000040: f8e2 323e 2975 6c3e d101 87bd a19e a43e
00000050: 4a0a 163b 1432 c6bc 796f b73c 57bb efbc
00000060: a538 d43d edc4 07bd 8da9 0cbe 97f3 893e
00000070: 651c 9b3d feb6 6dbb 47d6 8e3e 10ab 9fbd
00000080: d05b a0bd a893 53bb 7e9b 60be 75fa 2b3e
00000090: f775 14bc a685 f73d de45 553d 9c0d 303d
000000a0: 77a8 b83d a306 92bc 27b7 0cbc ddf0 2c3d
000000b0: 77d8 1abe e443 9f3c 4fd1 353d 2355 c6bc
000000c0: b04d c7bd a4bd 84bd 0a74 4bbe b996 c63d
000000d0: d2e6 a33c 75da 423e 50db a8bd c535 173e
000000e0: 751f f13d d495 943d 1076 ad3d c5ca 093e
000000f0: dcc1 35bd 131c b3bc 377b 6fbd 8e35 3abd
00000100: 68a7 fa3d 4313 ca3d e3fd 0fbe d9c1 0ebe
00000110: 8d1f 923c 800e 893d 9bac 053e cefe 96bd
00000120: 958b 6f3d 971c 70be 4eff 73bd b28e 8c3d
00000130: ab20 ec3b e829 143e 8451 90bc 1748 fabc
00000140: bd5c d3bd 1f1c 2f3e e4e8 bfbc 87ca 5f3e

fc3.weight f4 [10, 84]
-0.14707397 -0.079037696 0.14995381 0.19366074 -0.048276573 -0.25937936 -0.0903602 0.40181693
-0.06995453 0.03832968 -0.21276017 0.15841825 0.13032553 0.13120355 -0.17081729 0.014127235
-0.44960243 -0.081070945 0.03204426 0.12675892 -0.07661526 -0.06125748 -0.023181826 0.22125557
0.11683556 0.3149109 0.13912468 -0.15828267 -0.2475399 0.09039435 0.04825042 -0.050920073
-0.055869754 -0.09929538 0.45012897 -0.075058065 -0.112853214 -0.12017029 -0.27985907 -0.28499365
-0.18802457 0.09089478 -0.10860362 0.08284576 0.0024803218 -0.20228371 -0.1326597 -0.12949151
0.18506362 -0.08554239 0.23609583 0.104775034 0.121507 0.123479165 -0.025066132 -0.32396314
-0.16157937 -0.021688139 0.27416542 -0.019829417 0.10059981 -0.114157505 -0.0517438 -0.12504134
-0.027817419 -0.16108198 -0.03532865 0.42651406 0.0060620857 0.21855004 -0.22699687 -0.0927269
-0.012206308 0.1745727 -0.043242082 0.1196785 -0.08168462 0.28468573 0.36831704 0.13041547
0.04315092 0.09520808 0.10354413 0.07900817 -0.033158097 0.06951055 -0.20307244 -0.12408873
0.1332441 -0.3707104 -0.17252545 -0.05162878 -0.3106477 0.123851694 -0.11850126 0.18094172
0.17129193 0.13584171 -0.30375367 -0.19960797 0.14704438 -0.2767166 -0.010749216 0.053065527
-0.030585935 -0.0039503914 0.052780073 -0.42113796 -0.20610245 0.045322936 -0.24165756 -0.31525412
0.13748091 -0.16130424 -0.22891587 0.07961165 -0.2806957 -0.04531854 -0.011300222 0.15343897
-0.058113277 -0.19176026 -0.25723907 0.23537469 -0.11792217 0.016272971 0.1275161 -0.06197148
-0.22484803 0.06717967 0.0843679 -0.13593253 0.051965483 -0.2775236 0.023841007 -0.2969199
-0.24097498 0.0014227037 -0.16665246 0.051532716 0.185641 0.17146222 0.094985016 -0.47692785
-0.15121582 0.17157213 0.20052242 -0.23569667 0.02233228 0.035568763 -0.015974797 0.117415324
0.021049563 -0.11364233 0.15473156 0.018697254 0.12828 -0.13167885 -0.15722746 -0.23414446
-0.21892758 -0.2535077 -0.46125966 0.024851006 -0.17752688 0.02308902 -0.08638129 0.0034915751
0.16458647 -0.037167072 0.2378977 -0.030539809 0.094985984 -0.086180866 -0.08085779 0.17816995
-0.09736737 0.090906374 0.0013448441 -0.1710447 -0.11821552 -0.10248311 0.02545502 0.37319067
0.08019971 0.039446063 -0.036151517 0.071422696 -0.15652938 0.049212802 -0.23579349 0.07928782
0.0125176525 0.003967358 0.10233679 0.22004592 0.25178102 0.067015395 0.30528945 -0.07987858
0.20242727 0.01770071 -0.27067965 -0.12829244 -0.00748989 0.025768835 -0.09141308 0.043339513
-0.11412718 -0.044247568 -0.028390117 -0.078544 -0.14234583 -0.036582153 -0.026295245 0.08511786
0.3042862 -0.21800509 0.22885789 -0.12972568 0.048435807 0.2047637 0.14663336 -0.029951544
-0.22298013 -0.13650444 -0.14065008 0.040465992 0.09711391 -0.019686578 0.036709674 0.061138775
0.039433736 -0.034879882 0.27145728 -0.07131903 0.02485851 -0.15390731 0.17786829 -0.17168133
-0.040543433 0.14348 -0.20300247 0.20513257 -0.079023406 0.020136213 0.3129493 -0.15544058
0.27252996 0.09055061 0.31563377 0.20665164 0.107796244 -0.105965555 -0.07909763 -0.012371835
00000000: 8f9a 16be 84de a1bd 7e8d 193e 004f 463e
00000010: a8bd 45bd 5fcd 84be c50e b9bd f3ba cd3e
00000020: 5244 8fbd 95ff 1c3d cddd 59be 6538 223e
00000030: 0e74 053e 395a 063e baea 2ebe eb75 673c
00000040: 4a32 e6be 8608 a6bd d840 033d 17cd 013e
00000050: 76e8 9cbd 20e9 7abd d0e7 bdbc d290 623e
00000060: 7b47 ef3d 003c a13e b376 0e3e da14 22be
00000070: 197b 7dbe ac20 b93d 3ba2 453d 9191 50bd
00000080: afd7 64bd 605b cbbd 4e77 e63e 0bb8 99bd
00000090: 961f e7bd d71b f6bd b049 8fbe b0ea 91be
000000a0: 8389 40be 0b27 ba3d 936b debd 0aab a93d
000000b0: e58c 223b 7623 4fbe f2d7 07be 6c99 04be
000000c0: 5181 3d3e d930 afbd 1bc3 713e 4b94 d63d
000000d0: a9d8 f83d a5e2 fc3d 7d57 cdbc 7fde a5be
000000e0: 1075 25be 53ab b1bc 695f 8c3e 4d71 a2bc
000000f0: 4607 ce3d 69cb e9bd 4ff1 53bd d60a 00be
00000100: 5be1 e3bc adf2 24be c6b4 10bd 0d60 da3e
00000110: 76a4 c63b 95cb 5f3e de71 68be 9ae7 bdbd
00000120: f7fc 47bc 30c3 323e 9c1e 31bd 001a f53d
00000130: 444a a7bd 54c2 913e 0d94 bc3e a28b 053e
00000140: 05bf 303d 74fc c23d f20e d43d 09cf a13d
00000150: c9d0 07bd 8c5b 8e3d 39f2 4fbe 3b22 febd
00000160: 2471 083e c1cd bdbe 83aa 30be b378 53bd
00000170: 370d 9fbe f5a5 fd3d cab0 f2bd c948 393e
00000180: 2767 2f3e 171a 0b3e 9a85 9bbe 0866 4cbe
00000190: cd92 163e ccad 8dbe 7b1d 30bc 3d5b 593d
000001a0: 5b8f fabc 4972 81bb eb2f 583d 659f d7be
000001b0: 850c 53be 8ba4 393d 1475 77be fd68 a1be
000001c0: ccc7 0c3e f02c 25be ec68 6abe 6f0b a33d
000001d0: 59b7 8fbe ef9f 39bd 9124 39bc 1b1f 1d3e
000001e0: 3008 6ebd cd5c 44be d7b4 83be 1006 713e
000001f0: 2e81 f1bd e54e 853c 9593 023e ced5 7dbd
00000200: 903e 66be 7f95 893d 14c9 ac3d e631 0bbe
00000210: c2d9 543d 9317 8ebe 374e c33c e305 98be
00000220: 25c2 76be 047a ba3a f1a6 2abe f813 533d
00000230: ad18 3e3e cb93 2f3e 8187 c23d e32f f4be
00000240: 52d8 1abe 9bb0 2f3e c055 4d3e 785a 71be
00000250: 30f2 b63c 8db0 113d 94dd 82bc 7277 f03d
00000260: 2270 ac3c 4fbd e8bd f371 1e3e fc2a 993c
00000270: d55b 033e d2d6 06be 3c00 21be 91c3 6fbe
00000280: 8d2e 60be c3cb 81be 3a2a ecbe 5694 cb3c
00000290: 9bc9 35be 2f25 bd3c ace8 b0bd e9d2 643b
000002a0: 5b89 283e 803c 18bd 749b 733e 9f2e fabc
000002b0: 0388 c23d 987f b0bd c598 a5bd 2f72 363e
000002c0: 8b68 c7bd 1f2d ba3d 7b45 b03a 5826 2fbe
000002d0: fb1a f2bd aae2 d1bd 0c87 d03c d912 bf3e
000002e0: bf3f a43d 3292 213d 9d13 14bd 1046 923d
000002f0: 3d49 20be 5d93 493d d973 71be a761 a23d
00000300: d716 4d3c 9c00 823b f395 d13d b853 613e
00000310: 71e9 803e 5e3f 893d e64e 9c3e 6297 a3bd
00000320: 1849 4f3e 1401 913c 8696 8abe 185f 03be
00000330: c06d f5bb 2a19 d33c c836 bbbd c684 313d
00000340: 83bb e9bd f03c 35bd 6492 e8bc addb a0bd
00000350: 1bc3 11be 2bd7 15bd 2069 d7bc 4652 ae3d
00000360: 67cb 9b3e ba3c 5fbe b959 6a3e cfd6 04be
00000370: a064 463d 93ad 513e 0e27 163e f15c f5bc
00000380: e754 64be d2c7 0bbe 9306 10be abbf 253d
00000390: a8e3 c63d bf45 a1bc e25c 163d a76c 7a3d
000003a0: 4585 213d 35de 0ebd 73fc 8a3e b60f 92bd
000003b0: 13a4 cb3c e199 1dbe 1b23 363e 3bcd 2fbe
000003c0: df10 26bd 6cec 123e e1df 4fbe 460e 523e
000003d0: 06d7 a1bd b3f4 a43c e43a a03e d12b 1fbe
000003e0: 0c89 8b3e 9972 b93d c09a a13e 7d9c 533e
000003f0: 47c4 dc3d 7804 d9bd f0fd a1bd 3db3 4abc

fc3.bias f4 [10]
-0.27821624 2.3113082e-05 -0.07982288 0.01910225 0.07422129 -0.055350523 -0.031830247 -0.034204025
0.06465084 0.011232437
00000000: 5c72 8ebe f7e2 c137 2e7a a3bd 527c 9c3c
00000010: 5501 983d 3bb7 62bd 6f60 02bd 8519 0cbd
00000020: a967 843d 4108 383c
